best_models/MOGONET/fold_4/C.pth (torch, 1887 bytes, 4 tensors)

model.0.weight f4 [8, 8]
000000 6f dd e5 be 91 b2 7c be b8 fe 07 bf 96 0b 32 3e
       -0.44895503 -0.24677493 -0.53123045 0.17387232
000010 bf 0d f7 be 3c 0e 65 bd 92 39 39 3d 72 6c 86 3f
       -0.48252675 -0.055921778 0.04522092 1.0501845
000020 bb 98 0b 3f 09 55 a1 bd 95 47 91 3e 45 a4 05 bd
       0.54529923 -0.07877547 0.28374925 -0.032627363
000030 38 26 13 3f dd 06 c3 be f2 0d ed be c4 71 5d bf
       0.5748019 -0.38091174 -0.46299702 -0.8650172
000040 7d 3b aa 3f c3 a7 2f 3f 29 62 52 be 2b 5c f6 be
       1.3299404 0.6861536 -0.20545258 -0.48117194
000050 ac 4c 51 3f f0 87 26 bf 75 0b e1 bf 6e d4 67 bf
       0.81757617 -0.65051174 -1.7581621 -0.90558517
000060 34 b1 9d be 8e 20 7a be 6c 62 3c bf b5 96 51 3f
       -0.30799258 -0.24426481 -0.7358768 0.81870586
000070 54 7a 2b bf d6 ec 11 3f 4a 29 93 3e cf f7 2c 3f
       -0.6698353 0.5700201 0.2874244 0.67565626
000080 05 98 17 bf 42 2d 2b 3e 75 83 c6 3e f1 23 44 3e
       -0.5921634 0.16716483 0.3877217 0.19154336
000090 21 0a 8a 3e d2 08 87 3e ab 82 8f 3d 27 b8 a0 be
       0.26960853 0.26373917 0.07007345 -0.31390497
0000a0 df f9 10 bf 48 d6 e5 3d 7d 8e d6 3e af 6b e2 3d
       -0.56631273 0.112225115 0.41905585 0.11055695
0000b0 77 5a b2 3e 01 73 a2 3e c4 f9 8b bd 0e fc 93 3d
       0.34834644 0.31728366 -0.068347484 0.0722581
0000c0 b2 45 14 bf 76 56 c0 b9 80 5b 79 be 66 6e 2b 3f
       -0.57918847 -0.00036685512 -0.2435131 0.6696533
0000d0 4e 62 1c bf 45 41 f9 3e c6 b8 0d bf 19 2c 34 3f
       -0.610875 0.4868261 -0.55360067 0.7037979
0000e0 a6 79 11 3f 10 33 16 3c 8d f0 62 3f f0 bf 45 bf
       0.56826246 0.009167448 0.886483 -0.77246
0000f0 6f dd 4a 3f 48 dc 53 bf 2a 61 92 be 42 aa 57 bf
       0.7924413 -0.82758 -0.28589755 -0.8424417

model.0.bias f4 [8]
000000 cc 8b e5 3e 50 17 e4 3e 93 95 ca 3e 07 7d 9d 3e
       0.4483322 0.44549036 0.3956724 0.3075945
000010 ca 2a 1a be eb ff 94 bc 57 9f 12 3f 83 3a 42 3f
       -0.15055385 -0.018188437 0.57274383 0.7587053

model.2.weight f4 [2, 8]
000000 ca 78 6e bf 81 11 31 3f f6 7f 38 3f 38 8d 95 bf
       -0.9315306 0.69167334 0.7207025 -1.1683722
000010 0f 95 e4 be a8 24 5a be d0 98 31 bf a7 5a 65 3f
       -0.44644973 -0.21303046 -0.693738 0.8959145
000020 65 9c 12 3f 46 dd 90 bf 1f c9 54 bf da 0c 77 3f
       0.5726989 -1.1317527 -0.83119386 0.96503985
000030 b5 0e fd be ba 4f 6b 3d d8 9f 8a 3f ba 0b b7 bf
       -0.49425283 0.05744908 1.083003 -1.4300454

model.2.bias f4 [2]
000000 ef c0 a2 3c 66 c7 a2 bc
       0.019867389 -0.019870471
