best_models/MOGONET/fold_4/C1.pth (torch, 1895 bytes, 2 tensors)

clf.0.weight f4 [2, 100]
00000000: 4538 37be f805 c0be 05c9 4abd 94c7 4d3e
00000010: caee d4be cd3b 06be a53b 553e fe95 12bd
00000020: 3ba9 aebd 3818 153e 54e4 1a3e 371b 643e
00000030: 74e4 96bc 4abd bbbd 40c7 143e f823 793e
00000040: 6fb7 433e 4bc8 233e 50b5 033f 87e4 06be
00000050: 7394 9dbd 3706 c23d 403d 923e 9289 68bd
00000060: c5a1 863e 723b ef3d edf8 1fbd 9335 f5bd
00000070: a8e3 143e 1879 923d 8700 173d bcb0 e4bd
00000080: 8233 c23e 5410 623e 89ab f83d 4887 ccbc
00000090: bbf9 b93d 7051 a13e e31a 74bd 9481 7dbe
000000a0: e801 bdbc ecbe e23d 2a35 95be 6324 5f3e
000000b0: 77c3 48bd fd9e 473e 9f2a 503d 67e4 523d
000000c0: 8852 15be efdf 3a3e 66ea cfbc f540 1abd
000000d0: 99a5 153e b544 463d 995a 9c3d 5fac 62bd
000000e0: d82e 12bd 651c 68be 76b7 b13d c47f 353e
000000f0: 0a2d 83bd eeda 9bbe b808 793e de13 8fbe
00000100: 5f75 88be e116 313e 062e 5bbc 134a 27be
00000110: 7fdc ae3d f33b 603d 8b5e 993e 6fd0 d2bd
00000120: 8ae8 5c3e 7e46 bb3e 1583 11bd 5369 d73e
00000130: 436d 313d 2bee 50be af3e 283e c11d 8dbd
00000140: 022a 7dbe 0441 973e ca5a 42be c9f0 683d
00000150: 01bc 9cbc 257c 023e 9ece c23d 27c0 bf3c
00000160: f024 5c3d 38e5 0dbd 9fb4 3a3d ffc8 b93c
00000170: 0002 0dbe d983 4d3e 1794 163e 0076 44bd
00000180: 87ed b83d fa19 e2bc 0c4c 73be 289f 05be
00000190: d743 87bc 4e65 8e3e a614 8abc 3bcf d1ba
000001a0: 23f4 a23d 6076 74be ce8f 84bd 3a90 483e
000001b0: 9175 5e3e 664c adbd 6554 783d c3c7 1ebe
000001c0: b531 503e 05b4 ac3d 1818 01be a0ed 1ebe
000001d0: c243 863d bddf f93b bd1b eabe 8380 c33d
000001e0: 019c b73c 313d 3dbd a965 a33c 6698 b3bb
000001f0: d5b0 2abe 24fe 4abc 4937 43bd 239b 0f3f
00000200: 794c 91be d289 9bbd dff6 c2bd 9282 22bd
00000210: d688 933d 68f1 00be 9363 70be 5da5 16bf
00000220: bcc6 7ebe 4c1a d53d 2072 24be 6703 cf3d
00000230: c43d 92be fd50 903e fcd2 893e f1bd 533d
00000240: 13c0 353e a7e9 6dbc bc0a c33e ac1d 493e
00000250: ac9c 6b3c a908 e4bd 8e15 b5bc 5293 a63c
00000260: e140 11be ca08 dcbd f94c 6dbd d825 a93c
00000270: 1abd 1bbd 78c8 f23d 0143 87be 47e5 c6bc
00000280: 52e0 143e 7121 273e f16c 0fbe cdea a63d
00000290: 576d e7bd dd32 05be b06e 90be 53da 453e
000002a0: d92f 85be 927b 823e 62a7 aabe 18d7 bf3d
000002b0: c2ea 71be 309b fcbb 4280 7e3d 41bd fc3d
000002c0: f732 a53d 865d 0dbe 8a13 aebd 27cd c43d
000002d0: c249 ae3e f83b a4ba 9c12 9dbd 7b30 d1bd
000002e0: cd4d 263d c86d 35be c412 2ebe df97 c2bd
000002f0: 6999 d8be 8878 9bbe f293 283e eba6 0d3d
00000300: cb27 b33e b8be c6bd e0bf efbd 97e7 e53d
00000310: f046 343e be39 323e 2eb3 663d 0d78 763d
-0.17892559 -0.37504554 -0.049508113 0.20095664 -0.41588432 -0.1310875 0.20823534 -0.035787575
-0.08528372 0.1456002 0.15126163 0.22276007 -0.018419482 -0.091669634 0.14529133 0.24330127
0.19112943 0.15994374 0.51448536 -0.13173114 -0.0769433 0.09473842 0.28562355 -0.056771822
0.26295295 0.1168126 -0.039055753 -0.11973109 0.14539969 0.07152003 0.036865737 -0.11166522
0.37929922 0.22076541 0.12142093 -0.02496685 0.090808354 0.31507444 -0.059595954 -0.24756461
-0.023072198 0.11071572 -0.29142123 0.21791224 -0.049014535 0.19494243 0.050821897 0.051487353
-0.14582264 0.18249486 -0.025380325 -0.037659604 0.14613952 0.048405368 0.07634468 -0.055340167
-0.035689205 -0.22667082 0.086775705 0.1772452 -0.06405075 -0.30440468 0.24319732 -0.27944845
-0.26652047 0.17293884 -0.013377672 -0.16336851 0.0853815 0.054744672 0.29954943 -0.10293662
0.21573082 0.3657722 -0.0355254 0.42072544 0.04331709 -0.20403354 0.16430162 -0.06890441
-0.24723056 0.2954179 -0.18979946 0.056870256 -0.019132616 0.1274267 0.09512065 0.023407055
0.053746164 -0.03464243 0.04558241 0.02267885 -0.13770294 0.20069827 0.1470493 -0.047964096
0.0902968 -0.027600277 -0.23759478 -0.13048995 -0.01651184 0.27811664 -0.016855549 -0.0016007194
0.07956722 -0.23873281 -0.06472741 0.19586268 0.21724536 -0.084618375 0.06062736 -0.1550589
0.20331462 0.084327735 -0.12606847 -0.15520334 0.065558925 0.0076255486 -0.45724288 0.09545996
0.022413256 -0.046200935 0.019945936 -0.005480814 -0.16669019 -0.012389693 -0.047660146 0.56096095
-0.28378657 -0.075946465 -0.09519743 -0.039675303 0.07203834 -0.12592089 -0.23475485 -0.58846074
-0.24880499 0.10405406 -0.1605916 0.10108071 -0.28562748 0.2818679 0.2691878 0.051694814
0.17749052 -0.014521039 0.38094127 0.19640225 0.014380615 -0.11134464 -0.022105005 0.02033392
-0.14184906 -0.10743864 -0.057934735 0.020647928 -0.03802214 0.11854643 -0.26418307 -0.02427925
0.14538696 0.1632135 -0.14006402 0.081502534 -0.11300152 -0.13007684 -0.28209448 0.19321565
-0.26013067 0.25484902 -0.33330828 0.09367198 -0.23624709 -0.0077089295 0.062134035 0.12340785
0.080663614 -0.13805208 -0.084998205 0.09609442 0.34040648 -0.0012530079 -0.07669565 -0.10214325
0.04060154 -0.1771766 -0.16999346 -0.09501623 -0.42304543 -0.30365396 0.16462687 0.034583014
0.34991297 -0.097043455 -0.11706519 0.11225813 0.17605186 0.1740484 0.056323223 0.060173083

clf.0.bias f4 [2]
00000000: b12e 87bc 272c 873c
-0.016501756 0.016500546
