best_models/MOGONET/fold_4/C3.pth (torch, 1895 bytes, 2 tensors)

clf.0.weight f4 [2, 100]
000000 91 a7 25 be 85 a8 6d be 25 8c 2e 3e 76 bf fa bb
       -0.16177203 -0.23208816 0.17045648 -0.0076522185
000010 6d 28 57 3c 6a f9 69 3e 8b f7 9b 3e 0a 9c 90 bd
       0.013132197 0.2284905 0.30462298 -0.07061012
000020 00 db ee 3a 07 98 53 3d 89 6b a4 bd 2f 5f e4 3d
       0.0018223226 0.051658656 -0.08028323 0.11150967
000030 c8 59 e5 bc e1 ea 78 bd af fb 83 bd e8 06 c1 3c
       -0.027996913 -0.060770873 -0.06444489 0.023562863
000040 37 30 ef 3d 25 82 81 3e 7b 54 f2 bd a0 03 50 bd
       0.11679118 0.25294605 -0.118325196 -0.050784707
000050 2e f8 82 bd 23 5e 89 bd 8d 89 95 3e 8d f3 ab bd
       -0.06394993 -0.06707408 0.29206505 -0.08396063
000060 36 d3 3c be 90 cc 49 bd 7b c2 24 be 7c 16 3f bd
       -0.18439946 -0.04926735 -0.16089813 -0.046652302
000070 6d aa a7 bd b7 4d 0e 3c 3f 26 9a 3d e2 ea 4e 3c
       -0.08186803 0.008685521 0.07526826 0.012629243
000080 44 7c a7 bd c4 00 0a 3e f9 b3 01 be d5 f3 03 3e
       -0.08177999 0.13476855 -0.1266631 0.12885983
000090 63 79 f6 bb 9a 30 5c 3c b4 ee 01 3d c9 5d c2 3d
       -0.0075217946 0.013439322 0.031721786 0.09490544
0000a0 8b 57 61 bd 38 62 83 3d db 19 d7 3e 28 ad 21 3e
       -0.055015128 0.06415218 0.42011914 0.1578871
0000b0 f4 8a e2 3d f3 65 b5 3d 65 33 b5 3b 3c 5a b7 3d
       0.110616595 0.08857336 0.0055298083 0.08952758
0000c0 8c d6 d3 3d e3 8d 01 be f2 6c b0 3d 74 6c d7 bd
       0.10343656 -0.12651782 0.0861453 -0.10518733
0000d0 03 b6 8c 3e f1 a9 fd 3c 91 ed 34 3d 1e 3a 1e 3c
       0.27482614 0.030964823 0.044171873 0.009657411
0000e0 0f 19 a3 3e e1 a0 0c 3d ec bb 0a be bb 62 a8 3d
       0.31855056 0.034333114 -0.13548249 0.08221956
0000f0 a3 26 84 3d 3e 86 9b bc 21 24 41 3e 58 8a f0 bd
       0.06452682 -0.01898491 0.18861438 -0.11745137
000100 d4 f9 c8 3d 70 b5 cf 3d 1a 1f 3c bd 62 f8 a0 3d
       0.09813276 0.10142028 -0.0459281 0.07859875
000110 c2 a7 8f be 60 af 9d 3d 40 c2 91 be 21 bf 1d be
       -0.28057677 0.07699466 -0.28468513 -0.15404941
000120 bb 3d dc bd e9 7f 5a be 9a af 54 be 72 37 b5 3c
       -0.10753962 -0.21337856 -0.20770112 0.022121165
000130 9b b7 82 be 33 77 95 bd 85 15 9a 3c 40 0a dd bd
       -0.25530705 -0.07298126 0.01880909 -0.10792971
000140 69 f2 4f 3e d4 bb a8 3d cb 7f 17 be f4 4a f0 3c
       0.20307316 0.0823895 -0.14794843 0.029332615
000150 86 72 6f 3e 2e 74 e0 be 28 f2 35 3a 6f 27 85 bd
       0.23383531 -0.43838638 0.0006940686 -0.06501662
000160 32 65 e7 3e eb 54 0f 3e ea e3 13 3e 56 91 47 3e
       0.45194393 0.13997237 0.14442411 0.19489035
000170 4a f1 eb bd 72 b8 5e 3c 9d c7 f4 3d f5 df 44 bc
       -0.115206316 0.01359378 0.11952136 -0.012016286
000180 fa 5e 2e be 1f 6c c2 bc e8 2c 63 3e a1 14 09 3e
       -0.17028418 -0.023733197 0.22185099 0.13386776
000190 4b 55 f3 3d 03 f2 b3 3d 2e fa c9 3e 07 0b 4e be
       0.11881503 0.087863944 0.39448684 -0.20121394
0001a0 72 67 80 3d c1 a1 ab bd f9 5c 54 3e 97 c3 40 3d
       0.06269731 -0.083804615 0.20738591 0.04706153
0001b0 d4 7c 65 3e 03 9f 50 be 40 7d a9 3d 98 1f 0b 3e
       0.224109 -0.20373158 0.08275843 0.13586271
0001c0 60 3c 5d 3e ab 3f 2c be 73 1c d4 3b 1f 34 fd 3d
       0.21605062 -0.16821162 0.006473118 0.12363457
0001d0 48 bd a4 3d 8d 4c a0 bb e8 3a a6 bc 90 c0 4d 3e
       0.08043915 -0.004891938 -0.02029176 0.20092988
0001e0 e4 3b 3b bd 8c 70 62 be 13 4d 4b bd f3 99 eb 3d
       -0.045711413 -0.22113246 -0.04963405 0.11503973
0001f0 37 79 c9 3d 16 51 49 3d e7 87 98 3e 84 2a 46 bd
       0.09837573 0.049149595 0.29791185 -0.04838039
000200 72 96 09 3e 3e dc 23 3e c4 cc 13 be b2 ce c0 3c
       0.13436297 0.16001984 -0.1443358 0.02353606
000210 bf cb 4f be 28 e6 36 be 6f 44 4d 3e 9b 33 ee 3c
       -0.20292567 -0.17861235 0.20045637 0.029077342
000220 b9 cf 05 bc ac 66 18 be 7e 18 e9 3d b2 9a 89 be
       -0.008167201 -0.14882916 0.11381625 -0.26875836
000230 60 c2 ee bd ae 20 fb 3d 23 ea a7 3d 74 25 3c 3e
       -0.11658168 0.122620925 0.08198955 0.18373662
000240 10 c2 18 3e 0b c9 a3 3c 9f 23 60 be 47 f0 17 be
       0.14917779 0.019993326 -0.21888588 -0.14837752
000250 98 08 70 3d 04 d9 32 3e 11 35 60 bd 4f 18 98 be
       0.058601946 0.17465597 -0.054738108 -0.29706046
000260 13 56 b7 bd 8d 17 9d bd e6 6a 02 bd 97 c6 34 3e
       -0.08951964 -0.076705076 -0.031840228 0.17653881
000270 2a 56 db 3c 5e 1e 97 3d f3 0d ff 3d 4f e7 9a be
       0.026774485 0.07378839 0.124538325 -0.302546
000280 e2 ee 05 bd 8a d2 33 be ea 9d a2 3c 0a 32 33 3e
       -0.03269852 -0.17560783 0.01985069 0.17499557
000290 55 b8 e4 bd 60 a7 5a 3e bc fd 31 bd 38 3f c5 3c
       -0.11167971 0.21352911 -0.04345487 0.024077997
0002a0 52 1e ca bd 22 00 a5 3d 13 3a 5d 3e d5 3c 12 be
       -0.098690644 0.08056666 0.21604185 -0.14281018
0002b0 52 88 aa 3d 85 ef f3 bc e6 6e 12 3c 51 1f 0f be
       0.08326782 -0.029777298 0.008937573 -0.1397679
0002c0 77 14 cf 3c 72 30 7b bd f6 1b 63 bd 18 3f 2f be
       0.025278313 -0.061325498 -0.055446588 -0.17113912
0002d0 c7 90 87 be 25 17 9e 3d b2 0d 1f be d3 b3 36 3d
       -0.26477644 0.07719258 -0.15532568 0.044605087
0002e0 1f eb c5 3d a4 c6 1c be 22 75 28 be 5d a5 19 3d
       0.096639864 -0.1531015 -0.16450933 0.03751122
0002f0 46 4e d8 3a dd 0e d4 3b 1d 7e d8 bd 01 7f d8 3d
       0.001650282 0.0064714984 -0.10570929 0.10571099
000300 91 81 1f 3e cb 80 b8 3d 50 d4 c4 3d e8 f0 39 bc
       0.1557677 0.0900894 0.09610808 -0.01134894
000310 18 f1 3b 3e 6b 36 ae 3d 5f 57 d4 bd 43 f2 16 3b
       0.18353689 0.08506473 -0.10368227 0.0023032583

clf.0.bias f4 [2]
000000 64 db 83 3c 41 de 83 bc
       0.016095825 -0.01609719
