best_models/MOGONET/fold_4/E1.pth (torch, 392727 bytes, 6 tensors)

gc1.weight f4 [186, 200]
-0.0135084605 -0.03158938 0.015377543 -0.026641404 -0.112143055 -0.008302839 0.08410962 -0.009600067
0.07378727 0.044465106 -0.07081526 -0.11831317 -0.019347396 0.04947505 -0.03323872 0.09462374
-0.2766285 0.040136985 0.021823367 0.011184097 0.11014419 0.0049308105 -0.1073081 0.07449358
-0.049450997 0.07860071 0.019238712 0.044450127 0.19911583 -0.0010901924 -0.102529846 -0.12672834
0.11089324 -0.10070749 0.0026992478 0.077770196 -0.058478717 0.083518066 0.14284076 -0.026445938
-0.013632267 -0.023161769 -0.0176813 0.00855003 -0.11658435 0.012879604 0.023509385 0.021453612
0.0073330095 -0.1637501 -0.07645947 -0.0024105767 -0.055523664 -0.041981064 -0.01767273 -0.12883529
0.036621775 0.059341136 -0.09143583 0.0645288 -0.045255676 -0.15136832 -0.04457694 0.10339587
0.025718605 -0.059176095 0.029340355 0.066320896 0.076780334 -0.021031123 0.019060228 0.15474835
0.15622312 0.06470533 0.08435114 0.03926155 -0.035069004 0.047774248 -0.03263741 0.123449706
0.055986438 0.098596714 -0.023701988 0.031053877 0.053032942 0.09792174 -0.09659412 -0.010313594
-0.09591537 0.022534473 0.040905625 -0.018356811 -0.09097157 -0.2092183 -0.12333572 -0.07814004
-0.04102787 0.15315075 0.057885107 -0.038109515 0.022595502 -0.06052446 -0.014538554 -0.014468544
-0.020784082 -0.018287463 -0.05936743 -0.08180633 0.051272687 -0.065694936 -0.17178196 0.035904575
0.1681126 0.061520383 0.08726809 0.022313077 0.022972327 0.012702599 0.08436649 0.07051199
-0.16650596 0.0054021184 0.028019419 -0.017269148 0.0196457 0.0018224815 -0.011395177 0.13222587
0.08811151 -0.049971797 0.017482607 -0.04002579 0.0013927743 0.18245448 -0.0061384817 0.117243156
-0.017784262 0.043233223 -0.04812 0.010380695 0.059585977 -0.01195449 0.14735432 0.18009
0.07064056 0.02926858 0.028213713 -0.03164413 -0.00963603 0.0024254674 -0.055055488 -0.022909848
0.05276187 -0.15487108 0.0740522 0.059385344 -0.030352868 -0.03902198 -0.014013282 0.18031946
-7.173385e-05 0.041203853 0.16960295 -0.055209972 0.13470489 -0.043330036 -0.040654816 -0.15038893
-0.07079752 -0.03796695 -0.05237117 -0.06548005 -0.09512809 0.12944667 0.06696892 -0.19143184
0.09652255 -0.03470914 0.019231066 -0.07321007 0.05159344 -0.067343816 -0.004176246 0.105309844
0.042931553 0.08907797 0.017402196 0.013289118 0.14601204 0.042398665 0.0061062076 0.06742686
0.028096141 -0.11296302 0.18442409 0.056272943 0.044626374 0.025238587 -0.087186165 -0.111272074
0.13359372 -0.050015215 -0.048519738 0.05015866 -0.03481441 0.11436187 -0.09054532 -0.09980208
0.115360364 0.0007970535 0.059130948 0.02188589 -0.202798 0.023389744 -0.04682105 0.09211144
-0.14337823 0.07384918 0.024779396 -0.17320704 0.04562151 -0.07416712 -0.02352746 0.12082238
0.02091859 0.14973573 0.037247565 0.050963845 -0.046226762 0.059968196 0.03086754 -0.18065208
-0.019825736 -0.079205066 0.103118904 0.04912462 0.10699964 -0.069363475 0.021695731 0.043794006
0.116323516 -0.0697453 -0.153055 -0.052610107 -0.010841173 0.07633587 -0.045783326 -0.019710544
0.09577124 -0.037255775 -0.027119419 0.081684165 0.008294686 0.1469839 -0.044231784 0.13595068
00000000: 9752 5dbc de63 01bd 17f2 7b3c 133f dabc
00000010: 42ab e5bd a108 08bc aa41 ac3d 9949 1dbc
00000020: c81d 973d 0b21 363d 9707 91bd 2d4e f2bd
00000030: 6e7e 9ebc 5aa6 4a3d 5325 08bd 17ca c13d
00000040: 40a2 8dbe ae66 243d ebc6 b23c 813d 373c
00000050: 4793 e13d a392 a13b 59c4 dbbd 1790 983d
00000060: 218d 4abd 69f9 a03d 819a 9d3c 5611 363d
00000070: 05e5 4b3e c9e4 8eba 2bfb d1bd 13c5 01be
00000080: ff1b e33d bb3f cebd dde5 303b fb45 9f3d
00000090: 6187 6fbd 850b ab3d d944 123e 27a5 d8bc
000000a0: df59 5fbc c0bd bdbc 60d8 90bc 6d15 0c3c
000000b0: c7c3 eebd f904 533c c196 c03c 7cbf af3c
000000c0: be49 f03b 1bae 27be c896 9cbd c4fa 1dbb
000000d0: c86c 63bd 56f4 2bbd 67c6 90bc 66ed 03be
000000e0: b700 163d b10f 733d b542 bbbd ad27 843d
000000f0: 045e 39bd 4c00 1bbe 4f96 36bd 37c1 d33d
00000100: d3af d23c a262 72bd 2f5b f03c 40d3 873d
00000110: 023f 9d3d 7649 acbc 3224 9c3c 5a76 1e3e
00000120: f4f8 1f3e 3a84 843d 4ac0 ac3d b8d0 203d
00000130: 84a4 0fbd eeae 433d ceae 05bd 33d3 fc3d
00000140: 0952 653d 13ed c93d ac2a c2bc b364 fe3c
00000150: 1239 593d 318b c83d 23d3 c5bd 59fa 28bc
00000160: 476f c4bd 379a b83c a88c 273d 0661 96bc
00000170: 4d4f babd 523d 56be 7097 fcbd e307 a0bd
00000180: d70c 28bd 8dd3 1c3e ef18 6d3d b918 1cbd
00000190: 341a b93c 7fe8 77bd 1d33 6ebc 790d 6dbc
000001a0: 6143 aabc 97cf 95bc 432b 73bd 148a a7bd
000001b0: 4f03 523d 118b 86bd 9ce7 2fbe ad10 133d
000001c0: b625 2c3e ccfc 7b3d 9db9 b23d eac9 b63c
000001d0: 7630 bc3c 901e 503c 57c8 ac3d 9768 903d
000001e0: 8a80 2abe 4104 b13b fb88 e53c 0778 8dbc
000001f0: 05f0 a03c 55e0 ee3a d6b2 3abc 3866 073e
00000200: cf73 b43d 3aaf 4cbd af37 8f3c 15f2 23bd
00000210: c08d b63a 59d5 3a3e 5125 c9bb 2e1d f03d
00000220: 4db0 91bc 5215 313d 7a19 45bd ca13 2a3c
00000230: 6d10 743d c4dc 43bc 0de4 163e 8369 383e
00000240: ffab 903d a9c4 ef3c 7220 e73c 469d 01bd
00000250: 70e0 1dbc 97f4 1e3b dd81 61bd 6fad bbbc
00000260: d51c 583d 8696 1ebe aea8 973d 0c3e 733d
00000270: 94a6 f8bc 83d5 1fbd f797 65bc aaa5 383e
00000280: d16f 96b8 5fc5 283d 65ac 2d3e da23 62bd
00000290: 14f0 093e d67a 31bd aa85 26bd 8eff 19be
000002a0: 4afe 90bd 3c83 1bbd 2783 56bd 681a 86bd
000002b0: 84d2 c2bd ab8d 043e 0027 893d b506 44be
000002c0: 9dad c53d 2c2b 0ebd 788a 9d3c 29ef 95bd
000002d0: a553 533d 8eeb 89bd e4d8 88bb b0ac d73d
000002e0: ffd8 2f3d 836e b63d 0d8f 8e3c 9aba 593c
000002f0: 2e84 153e 39aa 2d3d 9516 c83b 1817 8a3d
00000300: e129 e63c 2859 e7bd abd9 3c3e 757e 663d
00000310: 25ca 363d 27c1 ce3c a98e b2bd 9de2 e3bd
00000320: cbcc 083e c1dc 4cbd a2bc 46bd 2b73 4d3d
00000330: 8e99 0ebd 8e36 ea3d d36f b9bd 0865 ccbd
00000340: 0e42 ec3d 5bf1 503a 4b33 723d 0a4a b33c
00000350: 47aa 4fbe d99b bf3c 6ec7 3fbd eca4 bc3d
00000360: bed1 12be 3d3e 973d 29fe ca3c 305d 31be
00000370: 9fdd 3a3d eee4 97bd a9bc c0bc b971 f73d
00000380: 765d ab3c 5354 193e e790 183d 77bf 503d
00000390: 4658 3dbd 36a1 753d ecdd fc3c dcfc 38be
000003a0: 9569 a2bc 4436 a2bd 0130 d33d e636 493d
000003b0: a122 db3d 700e 8ebd 3fbb b13c 5861 333d
000003c0: 063b ee3d a0d6 8ebd 73ba 1cbe b27d 57bd
000003d0: 2d9f 31bc fb55 9c3d 4c87 3bbd 0278 a1bc
000003e0: b623 c43d 8399 18bd 8b29 debc 074a a73d
000003f0: 6fe6 073c f382 163e 632c 35bd a836 0b3e

gc1.bias f4 [200]
-0.107157476 -0.048073497 -0.052076682 -0.10856204 -0.14375414 -0.054263372 -0.071615204 -0.12891865
-0.12767915 -0.19043523 -0.15640314 -0.107795686 -0.11898023 -0.10600089 -0.058252707 -0.11819615
-0.12851445 -0.062076483 -0.15985462 -0.13970758 -0.15886062 -0.095192075 -0.116572544 -0.09795352
-0.054554243 -0.09879455 -0.19272579 -0.13208038 -0.16074479 -0.08653266 -0.13179496 -0.060265597
-0.15227453 -0.1191442 -0.10132283 -0.12268586 -0.13723616 -0.06945721 -0.049301814 -0.06299448
-0.15975088 -0.08819899 -0.23041934 -0.073654406 -0.13660192 -0.050260212 -0.16673422 -0.039469212
-0.1541892 -0.17250538 -0.0979913 -0.18755648 -0.10801022 -0.13130693 -0.11553399 -0.07574551
-0.14797708 -0.08346746 -0.121158466 -0.18986315 -0.05348485 -0.087703705 -0.108530164 -0.14647925
-0.061349828 -0.053490974 -0.14975867 -0.15855084 -0.22396629 -0.09603899 -0.14955342 -0.11563374
-0.052511554 -0.0824532 -0.11006081 -0.11107304 -0.14049752 -0.06350666 -0.10621936 -0.12839887
-0.122030996 -0.12358973 -0.059495743 -0.17942809 -0.12643239 -0.1509637 -0.080054514 -0.11654237
-0.13509141 -0.09192856 -0.15516646 -0.1705564 -0.1656297 -0.10440408 -0.14914308 -0.105585285
-0.16180767 -0.14383622 -0.080597885 -0.090834886 -0.13336624 -0.13742636 -0.17697808 -0.0682243
-0.031621438 -0.12521248 -0.038917135 -0.092619374 -0.21240388 -0.13644016 -0.13049771 -0.06919151
-0.15104926 -0.17000031 -0.15943894 -0.12176173 -0.09465164 -0.1864097 -0.10403177 -0.14498836
-0.085354336 -0.14112149 -0.111601554 -0.14437214 -0.12799352 -0.12863554 -0.10226956 -0.17886685
-0.13256595 -0.1036867 -0.11755053 -0.09760079 -0.11651649 -0.0901983 -0.19447903 -0.090145014
-0.119450994 -0.10977273 -0.11458258 -0.20760362 -0.106463656 -0.20829153 -0.17871729 -0.08838535
-0.14245048 -0.20721917 -0.084743716 -0.06690817 -0.19459313 -0.10042122 -0.14680634 -0.08161437
-0.17145026 -0.1845686 -0.076951265 -0.14388233 -0.089161836 -0.14943808 -0.1825262 -0.14056568
-0.09527912 -0.11006519 -0.15386283 -0.13967668 -0.06706253 -0.15375882 -0.077871665 -0.13998437
-0.10241912 -0.16256219 -0.086466916 -0.08166367 -0.18275526 -0.15947336 -0.15967776 -0.08844031
-0.12853152 -0.17191896 -0.118546225 -0.1565818 -0.11522977 -0.04696661 -0.15547694 -0.105129406
-0.086506315 -0.118488766 -0.09076494 -0.080558605 -0.14529508 -0.039856177 -0.122125104 -0.13972493
-0.06359673 -0.05521518 -0.17594571 -0.039418407 -0.12628835 -0.09566123 -0.15443857 -0.133415
00000000: 6175 dbbd b7e8 44bd 5c4e 55bd c655 debd
00000010: 4934 13be 4543 5ebd feaa 92bd 4003 04be
00000020: 53be 02be 7401 43be 2528 20be fcc3 dcbd
00000030: e8ab f3bd ff16 d9bd 649a 6ebd d310 f2bd
00000040: 4b99 03be e943 7ebd eeb0 23be 810f 0fbe
00000050: 5cac 22be 10f4 c2bd 96bd eebd db9b c8bd
00000060: 4574 5fbd cc54 cabd e959 45be 1440 07be
00000070: 489a 24be 0938 b1bd 42f5 06be 0fd9 76bd
00000080: dbed 1bbe e001 f4bd 5882 cfbd b942 fbbd
00000090: a387 0cbe 953f 8ebd b3f0 49bd 4003 81bd
000000a0: bc95 23be aca1 b4bd 0cf3 6bbe 1fd8 96bd
000000b0: 60e1 0bbe a7dd 4dbd 60bc 2abe 78aa 21bd
000000c0: c6e3 1dbe 40a5 30be aaaf c8bd ce0e 40be
000000d0: 7634 ddbd 5375 06be 169d ecbd 7620 9bbd
000000e0: 4e87 17be fdf0 aabd ee21 f8bd 7c6b 42be
000000f0: ee12 5bbd 009e b3bd 1045 debd a8fe 15be
00000100: f549 7bbd 5a19 5bbd 565a 19be 275b 22be
00000110: 6b57 65be 17b0 c4bd 8824 19be 62d1 ecbd
00000120: 5b16 57bd 39dd a8bd 9067 e1bd 437a e3bd
00000130: 95de 0fbe c80f 82bd 8989 d9bd fe7a 03be
00000140: 63eb f9bd 9d1c fdbd cfb1 73bd ffbb 37be
00000150: 7e77 01be 3a96 1abe 9ff3 a3bd c4ad eebd
00000160: 6755 0abe 0a45 bcbd f5e3 1ebe 56a6 2ebe
00000170: d59a 29be ced1 d5bd f7b8 18be 193d d8bd
00000180: e9b0 25be cd49 13be 8110 a5bd a407 babd
00000190: 2991 08be 7fb9 0cbe be39 35be 2fb9 8bbd
000001a0: 7b85 01bd b337 00be 9367 1fbd 3aaf bdbd
000001b0: 6780 59be f8b6 0bbe 31a1 05be 47b4 8dbd
000001c0: a8ac 1abe 9014 2ebe f643 23be 375e f9bd
000001d0: b8d8 c1bd 2fe2 3ebe 9c0e d5bd d477 14be
000001e0: 41ce aebd 2782 10be 5b8f e4bd 4ad6 13be
000001f0: bc10 03be 09b9 03be b472 d1bd df28 37be
00000200: 5ebf 07be b159 d4bd 55be f0bd ece2 c7bd
00000210: 33a0 eebd e3b9 b8bd 8325 47be f39d b8bd
00000220: b9a2 f4bd 86d0 e0bd 46aa eabd 0b96 54be
00000230: 9e09 dabd 604a 55be aa01 37be 6103 b5bd
00000240: 8ade 11be 4331 54be 1d8e adbd 2707 89bd
00000250: 6c43 47be a4a9 cdbd 6754 16be 6f25 a7bd
00000260: a890 2fbe 8dff 3cbe a098 9dbd e455 13be
00000270: 7b9a b6bd 4c06 19be 26e8 3abe 73f0 0fbe
00000280: b321 c3bd dc69 e1bd 388e 1dbe 6707 0fbe
00000290: 1458 89bd f472 1dbe 2e7b 9fbd 1058 0fbe
000002a0: 1ec1 d1bd b476 26be 9115 b1bd 483f a7bd
000002b0: 3224 3bbe fc4c 23be 9182 23be 3120 b5bd
000002c0: c49d 03be 860b 30be 5dc8 f2bd fb56 20be
000002d0: 96fd ebbd 0f60 40bd 5935 1fbe 164e d7bd
000002e0: 392a b1bd 3daa f2bd f8e2 b9bd e9fb a4bd
000002f0: 3cc8 14be 3b40 23bd ba1c fabd 0d14 0fbe
00000300: 013f 82bd 5029 62bd 1d2b 34be 3275 21bd
00000310: bc51 01be 09ea c3bd 2525 1ebe f19d 08be

gc2.weight f4 [200, 200]
0.029095601 -0.035677325 0.07435126 0.05317012 0.0059481217 -0.015522306 0.015100013 0.07589272
-0.04798244 -0.08347572 0.051897984 0.016170667 0.031011956 -0.05663515 0.014306336 -0.11860683
-0.11205371 0.027982231 0.050296094 0.0647551 0.13832958 0.12535414 -0.012352379 -0.024754556
-0.119089305 0.049245264 0.005837728 -0.02642274 0.03616655 0.0003121893 -0.102839105 -0.13414633
-0.074480966 -0.082773104 -0.11185466 -0.053561684 0.0010622889 -0.003412962 0.16305956 0.0087515
-0.14581232 -0.15867999 -0.052666362 0.043716304 0.0399007 -0.064543284 -0.097663596 -0.19772668
0.011457462 -0.060350917 -0.10227387 0.03693978 0.115655735 -0.09648759 -0.06939752 -0.12068352
0.01657969 0.07715295 -0.10503407 0.09945059 -0.07175528 -0.04958766 0.0044744485 -0.0025507426
-0.036376446 -0.1380766 -0.098087415 0.11370382 -0.0027723 0.019548295 0.08184108 -0.12505345
-0.14203104 0.020405738 0.032495756 -0.19450764 -0.11314219 0.08661488 0.048228268 0.08935487
-0.1302383 -0.102622874 -0.029537978 -0.039477885 -0.14720935 0.033667907 0.10396295 -0.006309017
0.12053565 0.008671258 -0.0068719257 -0.0985423 0.08975698 0.01317475 0.034150843 0.060846254
-0.024236267 -0.038413525 0.032913767 0.0037364885 0.023984374 -0.0856766 -0.0629499 0.054991007
0.0016055632 -0.14453933 0.10664694 0.10954244 0.047595184 -0.005031707 0.073292226 -0.02531443
0.1108327 -0.033481535 -0.04461022 0.105811104 0.0203981 0.065606475 0.014221373 -0.00900108
-0.10855647 -0.02981856 0.09037642 0.038916558 -0.047585476 -0.0038855954 -0.07132984 -0.08259164
0.0035983794 0.04284063 -0.0106503405 -0.11152441 -0.069690295 0.02919001 -0.08377346 -0.066289395
-0.03469229 -0.07469166 0.09326837 -0.04307543 -0.12180582 -0.039777555 0.045585062 -0.08131431
-0.03269738 -0.1085678 0.024980055 -0.011226924 0.07742722 -0.14979796 0.0929518 -0.10936078
0.02657786 -0.005884733 -0.029661492 -0.05752289 -0.13199902 -0.038535252 0.00997015 -0.062486038
-0.11478666 0.03532697 -0.04397453 0.07901684 -0.050253678 -0.072243646 -0.0031098803 -0.028303152
-0.04800036 0.14150766 -0.069259025 -0.089252956 0.08399293 0.04767296 -0.039257124 0.005599732
0.07707812 -0.12130267 0.03796425 -0.06908251 0.0057609593 0.12146311 -0.10536666 0.039079066
0.0073253047 -0.029154748 -0.092089474 -0.04873534 0.18785092 0.045819517 -0.016113382 0.018154018
0.022348698 0.12417035 -0.010704987 -0.051566176 0.02340073 0.036989983 0.022570299 0.08877019
-0.044094793 -0.0918637 -0.023550605 -0.023108255 0.028691994 -0.09249688 -0.041351136 -0.0850813
-0.032472726 -0.1419375 -0.05949386 -0.122033246 -0.090222724 -0.014149358 0.013447224 -0.059867367
0.0019884284 -0.004560588 -0.068115845 -0.007015393 0.07757914 -0.0052895024 0.00797784 0.06864774
0.01859185 -0.022595385 0.086263634 0.05451732 -0.267311 -0.034261305 -0.13018696 -0.058706418
0.027506534 -0.07987525 0.04661685 -0.1466847 -0.00886281 -0.15684265 0.101425074 0.083161
-0.2071328 0.12598436 0.1482641 -0.016234672 0.081943184 -0.1138392 0.020273365 -0.09833565
-0.07282128 0.027022602 0.034892965 -0.081176125 -0.036048945 -0.016650202 -0.13290393 0.072701894
00000000: e659 ee3c 6322 12bd 7945 983d e9c8 593d
00000010: 76e8 c23b 4551 7ebc 0c66 773c a46d 9b3d
00000020: 3c89 44bd 51f5 aabd fb92 543d 5978 843c
00000030: c90c fe3c 42fa 67bd 1f65 6a3c 23e8 f2bd
00000040: 6a7c e5bd fe3a e53c 4703 4e3d 529e 843d
00000050: 45a6 0d3e d65c 003e a261 4abc 11ca cabc
00000060: 18e5 f3bd 67b5 493d 694a bf3b 8174 d8bc
00000070: 6023 143d 57ad a339 4f9d d2bd a85d 09be
00000080: 7a89 98bd f284 a9bd 0e14 e5bd 7f63 5bbd
00000090: 803c 8b3a 00ac 5fbb 16f9 263e 7462 0f3c
000000a0: d34f 15be 027d 22be afb8 57bd de0f 333d
000000b0: eb6e 233d 452f 84bd da03 c8bd dd78 4abe
000000c0: 14b8 3b3c 8632 77bd f674 d1bd 2b4e 173d
000000d0: eadc ec3d 499b c5bd 4920 8ebd ec28 f7bd
000000e0: 21d2 873c 5e02 9e3d 1a1c d7bd c0ac cb3d
000000f0: 6ff4 92bd 6e1c 4bbd 659e 923b 5c2a 27bb
00000100: 78ff 14bd f463 0dbe 0ee2 c8bd 8cdd e83d
00000110: 7aaf 35bb bf23 a03c 4c9c a73d 030e 00be
00000120: 9670 11be ef29 a73c 451a 053d 032d 47be
00000130: 18b7 e7bd 2463 b13d 018b 453d b0ff b63d
00000140: 305d 05be f12b d2bd a1f9 f1bc 90b3 21bd
00000150: 0cbe 16be 5ce7 093d 87ea d43d dfbb cebb
00000160: 65db f63d e411 0e3c e42d e1bb 8cd0 c9bd
00000170: 82d2 b73d e8da 573c c1e1 0b3d ec39 793d
00000180: 238b c6bc 8057 1dbd 96d0 063d e0df 743b
00000190: e17a c43c 3777 afbd e1eb 80bd 403e 613d
000001a0: c371 d23a 1e02 14be b669 da3d c957 e03d
000001b0: 2bf3 423d 05e1 a4bb 3c1a 963d 3560 cfbc
000001c0: 41fc e23d ef23 09bd 35b9 36bd 7eb3 d83d
000001d0: eb19 a73c b05c 863d c300 693c 4479 13bc
000001e0: db52 debd 0e46 f4bc 4617 b93d f866 1f3d
000001f0: fde8 42bd 79a5 7ebb 6115 92bd ce25 a9bd
00000200: cad2 6b3b a879 2f3d c47e 2ebc e966 e4bd
00000210: c9b9 8ebd e31f ef3c 6b91 abbd bcc2 87bd
00000220: 8119 0ebd f1f7 98bd 7d03 bf3d dd6f 30bd
00000230: 5475 f9bd caed 22bd 67b7 3a3d 1e88 a6bd
00000240: b0ed 05bd cb58 debd f9a2 cc3c 22f1 37bc
00000250: 2a92 9e3d a364 19be 835d be3d 8bf8 dfbd
00000260: d0b9 d93c b8d4 c0bb a8fc f2bc 1f9d 6bbd
00000270: c02a 07be 24d7 1dbd d759 233c 5cf1 7fbd
00000280: 4515 ebbd 03b3 103d a31e 34bd 95d3 a13d
00000290: cdd6 4dbd 7af4 93bd 22cf 4bbb 03dc e7bc
000002a0: 079c 44bd 62e7 103e add7 8dbd 41ca b6bd
000002b0: 7c04 ac3d b944 433d 14cc 20bd f57d b73b
000002c0: 22db 9d3d 896d f8bd 6780 1b3d 227b 8dbd
000002d0: 6ec6 bc3b a7c1 f83d 7aca d7bd 5f11 203d
000002e0: 1c09 f03b f0d5 eebc 6899 bcbd b59e 47bd
000002f0: fe5b 403e 3fad 3b3d 3600 84bc bcb7 943c
00000300: 9e14 b73c 064d fe3d f863 2fbc 0e37 53bd
00000310: e3b2 bf3c cf82 173d 59e5 b83c 25cd b53d
00000320: be9c 34bd 0923 bcbd 33ed c0bc 864d bdbc
00000330: 790b eb3c 016f bdbd cf5f 29bd 1b3f aebd
00000340: 1f02 05bd 1058 11be d5af 73bd 91ec f9bd
00000350: b1c6 b8bd b5d2 67bc bf51 5c3c 7c37 75bd
00000360: 4b50 023b fc70 95bb 5280 8bbd 62e1 e5bb
00000370: d0e1 9e3d 9053 adbb 7cb5 023c 3097 8c3d
00000380: ef4d 983c f519 b9bc fdaa b03d 8e4d 5f3d
00000390: fddc 88be 9555 0cbd bb4f 05be 2476 70bd
000003a0: 6255 e13c a395 a3bd 4ff1 3e3d 8434 16be
000003b0: 5235 11bc 5c9b 20be f3b7 cf3d 5050 aa3d
000003c0: 9f1a 54be 0b02 013e 8bd2 173e 93fe 84bc
000003d0: d4d1 a73d 8724 e9bd 5414 a63c 3464 c9bd
000003e0: 5323 95bd 815e dd3c edeb 0e3d ab3f a6bd
000003f0: 0fa8 13bd 0166 88bc f817 08be bbe4 943d

gc2.bias f4 [200]
-0.045826305 0.002671803 -0.010492261 0.018572452 0.028841138 -0.070547394 0.029027693 -0.035728987
-0.0047693076 -0.06716371 0.05056749 0.037562627 -0.053051714 -0.022507787 -0.026483 -0.049115293
-0.014190125 0.037181433 0.07244642 -0.06153434 0.028840225 -0.003417066 -0.03538523 -0.06660411
-0.0050888797 -0.029284973 0.012135701 -0.053309903 -0.026431466 -0.09955051 0.014521707 0.020239457
-0.08189654 -0.020370541 -0.08020189 -0.039300717 -0.05877677 0.015233661 0.09080729 -0.022448512
-0.019254806 -0.04495053 -0.03073094 -0.031900775 -0.006339655 -0.04996808 -0.09240518 -0.001526873
0.001043462 -0.017033748 -0.06431493 -0.0053617773 -0.028503874 0.0566663 -0.047598585 -0.07948286
-0.01394572 0.03601394 -0.09087827 -0.05802398 -0.055464596 -0.0128059415 -0.080433615 -0.03394697
-0.067968465 -0.010164533 0.006268723 0.010941167 0.012431415 0.031117987 -0.06308279 -0.00583145
-0.0034502076 -0.05486808 -0.057529986 -0.039245207 -0.04164774 -0.008508554 -0.033045176 -0.015982034
-0.051358752 0.0051845117 0.027743474 -0.02540712 -0.044465728 -0.0049190777 -0.0018516486 -0.031602047
-0.0018120856 0.053986393 -0.06072672 -0.025307273 0.09317299 -0.018386643 -0.08586643 0.02330927
-0.0034856158 -0.03015149 -0.06512579 0.0077777887 -0.044982377 -0.056870937 -0.09918406 -0.016269477
0.0043047774 -0.07075108 0.0062297154 -0.016457569 0.015331494 -0.04416101 0.0069089253 -0.0050375387
0.01819303 0.019479403 -0.011412234 -0.07432496 -0.07686653 -0.09896621 -0.09046921 0.016298488
0.000824888 -0.029817108 0.021424685 -0.016376907 -0.03521471 0.09352138 -0.0358551 -0.025629822
-0.06486645 -0.012318847 -0.005854345 -0.072719045 -0.05639962 -0.029600197 -0.0233428 -0.08049552
-0.073108666 -0.02345402 0.045656998 -0.106792144 -0.012845186 -0.062223297 -0.047245644 0.0032000418
-0.061606396 -0.07359365 0.010525938 0.015306291 0.007672314 -0.041674208 -0.055247393 0.010397281
-0.02974411 -0.09312738 -0.03009638 0.015472582 -0.06412386 -0.027045023 -0.059501078 -0.04553319
0.011837736 -0.007634577 -0.03612071 0.0814636 -0.093899965 0.031531673 -0.06736526 -0.045834597
-0.050329998 0.0016720163 -0.05376723 0.004483134 -0.033250213 0.005137549 -0.026253764 -0.0039621904
-0.03339502 -0.068057574 0.00070805603 -0.010006181 -0.009254606 0.00041970695 0.022165839 -0.07809576
-0.10654585 -0.04628822 -0.074044205 -0.009102258 0.035977982 0.0050555193 -0.054478195 -0.10230575
-0.021142958 0.0464041 -0.08685755 -0.026225397 0.04444846 0.038155694 0.07358948 -0.030106869
00000000: 5db4 3bbd 6b19 2f3b bbe7 2bbc 4125 983c
00000010: 4044 ec3c 277b 90bd 7ccb ed3c 8f58 12bd
00000020: da47 9cbb 218d 89bd db1f 4f3d 45db 193d
00000030: c14c 59bd 4062 b8bc e0f2 d8bc 1e2d 49bd
00000040: b37d 68bc 8f4b 183d ca5e 943d 6f0b 7cbd
00000050: 5642 ec3c dbf0 5fbb 1af0 10bd bc67 88bd
00000060: 9ec0 a6bb 0ae7 efbc d2d4 463c 7c5b 5abd
00000070: cd86 d8bc 23e1 cbbd 74ec 6d3c 38cd a53c
00000080: 60b9 a7bd 1fe0 a6bc e340 a4bd caf9 20bd
00000090: e9bf 70bd 9b96 793c 2cf9 b93d f1e5 b7bc
000000a0: 41bc 9dbc 0c1e 38bd 74bf fbbc 63aa 02bd
000000b0: e1bc cfbb 54ab 4cbd ed3e bdbd 5b21 c8ba
000000c0: c6c4 883a 5c8a 8bbc 8cb7 83bd d9b1 afbb
000000d0: f580 e9bc ec1a 683d bcf6 42bd e9c7 a2bd
000000e0: 977c 64bc 5a83 133d 631e babd 8eaa 6dbd
000000f0: d82e 63bd 03d0 51bc 61ba a4bd fa0b 0bbd
00000100: 0d33 8bbd 2489 26bc dc69 cd3b 9542 333c
00000110: 22ad 4b3c 26eb fe3c 8d31 81bd c015 bfbb
00000120: e11c 62bb 5abd 60bd 90a4 6bbd 95bf 20bd
00000130: d296 2abd 7667 0bbc 615a 07bd c1ec 82bc
00000140: 8e5d 52bd d6e2 a93b 4846 e33c 9822 d0bc
00000150: b221 36bd 3730 a1bb 04b3 f2ba 2671 01bd
00000160: 8183 edba d620 5d3d 95bc 78bd 3351 cfbc
00000170: 7bd1 be3d 969f 96bc bdda afbd 15f3 be3c
00000180: ee6e 64bb 4200 f7bc ac60 85bd d2dc fe3b
00000190: 713f 38bd 80f1 68bd 0321 cbbd 9147 85bc
000001a0: 170f 8d3b f1e5 90bd a422 cc3b 06d2 86bc
000001b0: f230 7b3c 2de2 34bd 4464 e23b f011 a5bb
000001c0: 8d09 953c 4593 9f3c 61fa 3abc af37 98bd
000001d0: 336c 9dbd ccae cabd ec47 b9bd 6884 853c
000001e0: 4c3d 583a 0243 f4bc d282 af3c dd28 86bc
000001f0: 4d3d 10bd 2388 bf3d ccdc 12bd a2f5 d1bc
00000200: b4d8 84bd fdd4 49bc ced5 bfbb b9ed 94bd
00000210: 4a03 67bd 1d7c f2bc 6639 bfbc d6da a4bd
00000220: ffb9 95bd a522 c0bc d502 3b3d d7b5 dabd
00000230: 9d74 52bc dbdd 7ebd a684 41bd cbb7 513b
00000240: fd56 7cbd 44b8 96bd fc74 2c3c 3dc7 7a3c
00000250: 0968 fb3b 93b2 2abd 174b 62bd 5b59 2a3c
00000260: eba9 f3bc 91b9 bebd af8c f6bc b680 7d3c
00000270: 5f53 83bd 868d ddbc 67b7 73bd 0381 3abd
00000280: 10f3 413c 792b fabb 4ff3 13bd 63d6 a63d
00000290: a04e c0bd 5b27 013d ccf6 89bd 0fbd 3bbd
000002a0: d426 4ebd 8f27 db3a 073b 5cbd 41e7 923b
000002b0: 6031 08bd e258 a83b 2212 d7bc 43d5 81bb
000002c0: 37c9 08bd c561 8bbd d69c 393a f7f0 23bc
000002d0: a2a0 17bc 1d0c dc39 2295 b53c abf0 9fbd
000002e0: b634 dabd b798 3dbd 7da4 97bd a321 15bc
000002f0: a65d 133d c5a8 a53b 8724 5fbd ad85 d1bd
00000300: ff33 adbc 3a12 3e3d 5fe2 b1bd a5d6 d6bc
00000310: 970f 363d 2549 1c3d 15b6 963d aea2 f6bc

gc3.weight f4 [200, 100]
0.12434038 -0.028434725 0.07774595 0.026111359 -0.055081848 -0.013721434 -0.07742761 0.005546629
0.030659743 0.07266677 0.037646234 0.006088138 -0.012208411 0.061650526 0.069244795 0.04350973
-0.10636427 -0.020721866 -0.017644715 -0.087441884 0.12325883 -0.12512971 -0.030518638 0.041468874
0.00041205803 -0.00913738 -0.03823322 0.12070491 0.028497096 -0.037008278 -0.014602942 -0.045181725
0.023813937 -0.14769757 -0.008198774 -0.15036215 -0.12117124 -0.057243805 -0.002988923 -0.06252782
0.063794345 0.045941155 -0.09563841 0.02204155 -0.15979199 -0.030028513 -0.05735276 -0.023509094
-0.050628748 0.028172571 -0.050652873 0.09772397 0.08223563 0.008251436 0.004721478 -0.10330091
0.032116354 0.059463546 -0.018125834 -0.14078055 0.056630105 0.081491806 -0.08967884 -0.03716091
0.10895062 -0.021424675 -0.03379058 -0.066587344 -0.07393088 0.08844036 0.069015995 0.07379079
0.10052212 0.05715298 0.12300802 -0.19679588 0.027696863 0.07219992 0.11229108 0.17811456
0.081698805 0.1645819 0.0904239 -0.060807656 0.08112027 0.06565814 0.06638461 -0.104036964
0.09101537 0.046326116 0.006096808 0.09383686 -0.0026690806 -0.0005514035 -0.013087177 0.13899155
0.032635164 0.008947207 0.027503546 0.30981696 0.05745988 0.030935198 0.08150798 0.060091794
0.055626635 0.0743145 0.15080944 0.092706166 -0.031195933 -0.036990684 0.015775733 0.050523065
-0.072611846 0.04481286 0.12782168 0.07615316 -0.0047805477 0.061072543 -0.11844538 -0.003349884
0.1753725 0.027882613 -0.14362468 0.037382018 -0.014549036 -0.019255247 -0.11929814 0.10329032
0.016709844 0.08639697 0.089844264 -0.30053014 0.12996927 0.07119125 -0.079298645 0.22624147
0.044727065 0.095819294 0.035416953 0.009604695 -0.028874753 -0.16936195 -0.046771318 0.048511874
-0.16248915 0.015494708 -0.039535306 -0.21277519 0.1089928 -0.08065129 -0.042100232 0.123921774
0.07567477 0.021025628 0.097177334 0.15433507 -0.058789846 0.06855517 0.09813019 -0.100899726
-0.041764647 -0.15063266 -0.067635074 0.028564237 -0.15647766 -0.06389881 -0.0039491993 -0.21756738
-0.027564196 -0.10390909 -0.048256893 0.17645103 0.09738738 0.081307985 0.004696771 0.08345098
-0.102645546 -0.10520946 -0.004480204 -0.09029959 0.1593704 0.083295524 0.11410289 -0.10523914
-0.14130393 0.03533968 -0.09558407 0.063949056 0.028039994 0.11262126 0.0786771 0.05122727
0.026399052 0.040696092 0.17112121 -0.0068950946 0.021267831 -0.19346006 -0.0488599 0.10330197
-0.038863566 0.011790256 -0.024525683 0.017984854 0.07981016 -0.060903423 -0.0036028312 0.047423296
0.09261114 0.1641821 -0.1272309 0.10041321 0.059274323 -0.061840933 -0.010834491 0.11673339
0.0004835386 0.019874856 -0.14482473 0.1595132 -0.06026916 -0.16268675 -0.006953358 -0.19389974
-0.07089659 0.1018987 0.03080416 -0.037152227 -0.039620675 -0.08555059 0.0960869 0.021992024
0.036255997 -0.0015765255 -0.04564829 -0.008116705 0.07762207 0.23984148 -0.031413883 -0.03606594
-0.12653254 -0.015733492 0.03256434 -0.05930642 0.0051944223 -0.11383808 0.104840435 -0.02126754
-0.021780495 0.015220935 0.060746077 0.10522595 0.060728073 -0.13702095 0.17238812 -0.026470717
00000000: 2ba6 fe3d f1ef e8bc 4539 9f3d 7de7 d53c
00000010: 819d 61bd decf 60bc 5e92 9ebd 7fc0 b53b
00000020: 242a fb3c 51d2 943d f032 1a3d 017f c73b
00000030: c905 48bc 4385 7c3d 37d0 8d3d 4237 323d
00000040: 83d5 d9bd e7c0 a9bc a68b 90bc bb14 b3bd
00000050: 206f fc3d 0122 00be 3902 fabc 44db 293d
00000060: 7e09 d839 f3b4 15bc 709a 1cbd 2334 f73d
00000070: be72 e93c fe95 17bd 2e41 6fbc 7910 39bd
00000080: 7215 c33c 083e 17be 2754 06bc 89f8 19be
00000090: a128 f8bd 7b78 6abd cfe1 43bb 960e 80bd
000000a0: 9ca6 823d cb2c 3c3d 12de c3bd 7b90 b43c
000000b0: 83a0 23be 5bfe f5bc baea 6abd 2596 c0bc
000000c0: 1760 4fbd 2aca e63c 6379 4fbd 8123 c83d
000000d0: 276b a83d 0831 073c a1b6 9a3b 6d8f d3bd
000000e0: 708c 033d 0c90 733d a17c 94bc c728 10be
000000f0: f8f4 673d 2de5 a63d 8aa9 b7bd 0a36 18bd
00000100: 8121 df3d cd82 afbc fe67 0abd f25e 88bd
00000110: 1369 97bd 3820 b53d 4258 8d3d a01f 973d
00000120: 8bde cd3d 3e19 6a3d a1eb fb3d dc84 49be
00000130: 88e4 e23c 8ddd 933d def8 e53d aa63 363e
00000140: b451 a73d 2888 283e 2a30 b93d 7311 79bd
00000150: 6222 a63d c677 863d a8f4 873d 5511 d5bd
00000160: 4466 ba3d 74c0 3d3d bbc7 c73b 8a2d c03d
00000170: beeb 2ebb 108c 10ba 996b 56bc cd53 0e3e
00000180: 73ac 053d 4e97 123c 1e4f e13c 54a0 9e3e
00000190: 0d5b 6b3d d06b fd3c a8ed a63d d022 763d
000001a0: c1d8 633d 3332 983d ca6d 1a3e bbdc bd3d
000001b0: 9d8e ffbc 8b83 17bd 1c3c 813c 46f1 4e3d
000001c0: 85b5 94bd b18d 373d b0e3 023e 30f6 9b3d
000001d0: 24a6 9cbb 3427 7a3d 7e93 f2bd ba89 5bbb
000001e0: d994 333e 146a e43c 5912 13be e31d 193d
000001f0: 145f 6ebc 2ebd 9dbc 9552 f4bd e089 d33d
00000200: 15e3 883c e5f0 b03d 4500 b83d 16df 99be
00000210: aa16 053e b8cc 913d 5467 a2bd d8ab 673e
00000220: ba33 373d e83c c43d 5e11 113d 035d 1d3c
00000230: bf8a ecbc 386d 2dbe 4893 3fbd 63b4 463d
00000240: 8e63 26be 84dd 7d3c c6ef 21bd bde1 59be
00000250: 9e37 df3d 812c a5bd 4b71 2cbd b3ca fd3d
00000260: 60fb 9a3d f03d ac3c e904 c73d 030a 1e3e
00000270: 9fcd 70bd a766 8c3d 7bf8 c83d 84a4 cebd
00000280: 6811 2bbd 733f 1abe 4284 8abd 8cff e93c
00000290: ae3b 20be 61dd 82bd 4968 81bb fcc9 5ebe
000002a0: 4fce e1bc 4ace d4bd 05a9 45bd 94af 343e
000002b0: 0973 c73d cd84 a63d 5fe7 993b 59e8 aa3d
000002c0: d437 d2bd 0f78 d7bd adce 92bb feee b8bd
000002d0: fe31 233e d896 aa3d c7ae e93d 9e87 d7bd
000002e0: fab1 10be 57c0 103d 95c1 c3bd b9f7 823d
000002f0: 21b4 e53c faa5 e63d 7621 a13d b0d3 513d
00000300: d342 d83c f2b0 263d 663a 2f3e 3ff0 e1bb
00000310: e039 ae3c 651a 46be 5221 48bd fc8f d33d
00000320: 672f 1fbd eb2b 413c 16ea c8bc f954 933c
00000330: 8273 a33d de75 79bd 7a1d 6cbb ee3e 423d
00000340: e9aa bd3d 5a1f 283e d148 02be 71a5 cd3d
00000350: a2c9 723d eb4c 7dbd 2683 31bc ea11 ef3d
00000360: 7483 fd39 98d0 a23c ef4c 14be 6e57 233e
00000370: cbdc 76bd 5b97 26be ffd8 e3bb a78d 46be
00000380: 3b32 91bd 44b0 d03d 0159 fc3c ef2c 18bd
00000390: 4a49 22bd 2635 afbd 35c9 c43d 9e28 b43c
000003a0: 2b81 143d 6ba3 ceba b4f9 3abd eefb 04bc
000003b0: 52f8 9e3d 0199 753e d8ab 00bd e1b9 13bd
000003c0: bf91 01be 86e3 80bc 2f62 053d 4aeb 72bd
000003d0: f935 aa3b f023 e9bd 95b6 d63d 4439 aebc
000003e0: 026d b2bc 3b61 793c e1d0 783d b480 d73d
000003f0: 00be 783d 384f 0cbe 8386 303e 1ed9 d8bc

gc3.bias f4 [100]
0.039143432 -0.0035426684 0.025864271 -0.0175583 0.060918115 -0.035230234 -0.019701846 0.06697181
0.060460802 -0.0051558954 -0.0021939643 -0.02241496 0.0125011895 0.03388749 -0.0054119495 -0.012043026
-0.017942615 -0.057708994 0.018814845 0.030855706 0.04287359 -0.0052390327 -0.0034027232 0.008515612
-0.016700866 -0.0015632774 -0.032419767 0.052250873 -0.044955343 -0.02319297 -0.016522357 0.013329438
0.012054209 -0.0047880453 -0.02443189 -0.0006621344 -0.03290261 -0.017248157 -0.018808234 0.07439523
-0.010962489 -0.005085809 0.05828285 -0.009071977 0.032138955 -0.020810977 0.06298921 0.014476646
0.037593644 -0.017382622 -0.009929135 0.05054383 -0.020896124 -0.064539626 -0.0021854048 0.03490219
-0.011451519 0.08355765 -0.004601311 -0.033591744 0.012749647 0.020382496 -0.010288547 0.059792176
0.00062144495 -0.007830832 -0.0042332765 0.015648846 -0.024766993 -0.005062331 -0.039950933 0.039091185
-0.03110528 -0.022617428 0.018783318 -0.012618381 0.005795628 0.010529731 -0.04405222 0.05538748
0.06121613 -0.022981377 0.035924617 -0.014960946 0.022513663 -0.009203209 -0.035772387 -0.054337617
-0.03093896 -0.010579033 0.02560462 -0.016126871 0.06281825 -0.057069916 -0.02119119 0.0051227245
0.07496795 0.028563067 0.043263864 0.0074832286
00000000: dd54 203d 1d2c 68bb 4fe1 d33c 6dd6 8fbc
00000010: 4685 793d 944d 10bd c465 a1bc 8428 893d
00000020: bfa5 773d c9f2 a8bb 9dc8 0fbb 949f b7bc
00000030: cad1 4c3c 9ccd 0a3d b956 b1bb 1d50 45bc
00000040: 64fc 92bc 4460 6cbd 9721 9a3c 1bc5 fc3c
00000050: 389c 2f3d 31ac abbb 3900 5fbb 1185 0b3c
00000060: 41d0 88bc e3e6 ccba 97ca 04bd 0305 563d
00000070: 1823 38bd 2fff bdbc e559 87bc b763 5a3c
00000080: 047f 453c 09e5 9cbb 6325 c8bc 1693 2dba
00000090: e3c4 06bd 024c 8dbc ba13 9abc 875c 983d
000000a0: 039c 33bc dca6 a6bb ffb9 6e3d a1a2 14bc
000000b0: 23a4 033d c87b aabc 7d00 813d 742f 6d3c
000000c0: cbfb 193d 0066 8ebc d0ad 22bc 0c07 4f3d
000000d0: 592e abbc 5a2d 84bd 0239 0fbb 99f5 0e3d
000000e0: 279f 3bbc 4620 ab3d 98c6 96bb 7f97 09bd
000000f0: e5e3 503c 31f9 a63c 4b91 28bc a4e8 743d
00000100: 77e8 223a e44c 00bc 4cb7 8abb 0232 803c
00000110: 26e4 cabc e9e1 a5bb 97a3 23bd 141e 203d
00000120: 80d0 febc 2f48 b9bc 79df 993c 53bd 4ebc
00000130: 40e9 bd3b e584 2c3c 1a70 34bd fbdd 623d
00000140: c4bd 7a3d 7143 bcbc b125 133d c11e 75bc
00000150: 936e b83c 0ec9 16bc 1186 12bd 1f91 5ebd
00000160: b473 fdbc ae53 2dbc c8c0 d13c 801c 84bc
00000170: dba6 803d 25c2 69bd 2699 adbc 87dc a73b
00000180: cc88 993d 18fd e93c 7335 313d df35 f53b
