best_models/MOGONET/fold_4/E2.pth (torch, 838359 bytes, 6 tensors)

gc1.weight f4 [743, 200]
0	0x3dce562c	0.1007503
1	0x3d1433af	0.0361821
2	0xbd754596	-0.059880815
3	0x3dcde8e3	0.10054185
4	0xbd66d295	-0.05635317
5	0xbd5d9f51	-0.054107014
6	0x3c469791	0.012121097
7	0xbdc3ab6a	-0.09554179
8	0xbdb2b51a	-0.08725949
9	0xbcde83ab	-0.027162394
10	0x3d645e94	0.05575426
11	0x3c375a50	0.011190966
12	0x3dbbcf22	0.09170367
13	0x3d880609	0.06641776
14	0x3c99c616	0.018771213
15	0x3d6b9b95	0.05752142
16	0xbd4cb709	-0.049979243
17	0xbd80e246	-0.06293158
18	0x3d733d41	0.05938459
19	0x3d54aedc	0.05192457
20	0xbd247b05	-0.040156383
21	0x3ca35f89	0.019943016
22	0xbcc903e3	-0.024537986
23	0xbdb6ff80	-0.089354515
24	0x3db783f0	0.08960712
25	0x3cd060a0	0.0254367
26	0x3cba9166	0.02277441
27	0xbd38d3e3	-0.045123946
28	0xbd87e2c0	-0.06635046
29	0xbe0e59dd	-0.13901468
30	0xbd056ba9	-0.032573376
31	0x3d6e02a0	0.058107972
32	0x3be46da5	0.0069710785
33	0x3db82eda	0.08993311
34	0x3cc09a73	0.023511147
35	0x3d55cf7f	0.052199837
36	0xbc28d245	-0.010304038
37	0xbdcf71f3	-0.10129156
38	0x3d8f913d	0.07010124
39	0x3c612960	0.013742775
40	0x3ca87c34	0.020567037
41	0xbd9b344b	-0.075783335
42	0xbbfe357a	-0.0077578397
43	0x3d1f55a5	0.038900036
44	0xbd51c345	-0.051211614
45	0x3d2dc003	0.042419445
46	0xbd84926a	-0.06473239
47	0x3dc98088	0.098389685
48	0x3bad3c13	0.0052867024
49	0xbde1fc55	-0.11034457
50	0x3de2b350	0.110693574
51	0x3d295e89	0.04134992
52	0x3dc142cd	0.09436569
53	0xbdab37e6	-0.08360271
54	0xbd0e741b	-0.034778696
55	0xbddcfa65	-0.107899465
56	0x3d9cbccb	0.07653197
57	0x3d3af140	0.04564023
58	0x3d62e950	0.055398285
59	0x3d708a1a	0.058725454
60	0x3d4b5eaa	0.049650826
61	0x3d59ad26	0.053143643
62	0x3ce0f742	0.027461652
63	0x3d587669	0.0528473
64	0xbd16736f	-0.03673118
65	0xbd0345ad	-0.03204887
66	0x3cf51671	0.029917927
67	0xbc4daaac	-0.012552898
68	0xbe235487	-0.15950213
69	0xbc865577	-0.016398175
70	0xbd22be05	-0.039731998
71	0x3d75b3ad	0.059985805
72	0x3d20d17d	0.039262284
73	0xbd094a51	-0.03351814
74	0xbd99f8c2	-0.0751815
75	0x3d193048	0.03739956
76	0x3b7cfe5d	0.003860376
77	0xbd128dfc	-0.035779938
78	0xbd4b3427	-0.049610283
79	0x3cc961e0	0.024582803
80	0xbd5cd491	-0.053913657
81	0xbd3ffe6a	-0.046873488
82	0xbd8c6b48	-0.068564
83	0xbd40ad11	-0.04704005
84	0x3d409735	0.047019202
85	0x3ce9a506	0.028521072
86	0x3d19acfe	0.037518494
87	0x3cd92b9a	0.026510049
88	0x3d5dbbc9	0.054134164
89	0xbd2ccddf	-0.04218852
90	0x3c5fea1c	0.013666656
91	0xbd801fee	-0.0625609
92	0xbdfa7a01	-0.12230302
93	0xbdca61d2	-0.09881939
94	0x3d6f198f	0.058373984
95	0xbd8f5927	-0.06999426
96	0x3d187196	0.0372177
97	0x3d0a5e18	0.03378114
98	0xbbac22de	-0.00525318
99	0xbd0f3dfb	-0.03497122
100	0xbd028143	-0.031861555
101	0x3b584d21	0.0033004957
102	0x3d2235b6	0.039602004
103	0x3c3de696	0.0115906205
104	0x3cc2667e	0.023730513
105	0xbde3e06c	-0.111267895
106	0xbdbc85d9	-0.09205217
107	0xbda6b490	-0.08139908
108	0xbd16f805	-0.036857624
109	0x3d64cd58	0.055859894
110	0x3dd3f867	0.10350113
111	0xbdf7520c	-0.12076196
112	0xbd2395a8	-0.039937645
113	0xb975ef71	-0.0002345422
114	0x3cbc015f	0.022949873
115	0xbd0666d3	-0.032812905
116	0x3d16b7d4	0.036796406
117	0x3d095d62	0.033536322
118	0x3d068cd1	0.032849137
119	0x3c8c3ad8	0.017117903
120	0xbca48365	-0.020082185
121	0xbd4ea888	-0.050453693
122	0xbcd45cdf	-0.02592319
123	0xbd1ca55f	-0.038243648
124	0x3d84ca91	0.06483949
125	0x3d5a8aff	0.053355213
126	0x3d90a690	0.07063019
127	0x3d30bdf7	0.043149915
128	0x3da64458	0.08118504
129	0xbd54c81c	-0.05194865
130	0xbc4a6a42	-0.012354435
131	0xbbc4589b	-0.005992008
132	0x3cb3ea02	0.02196217
133	0xbcdd81f8	-0.027039513
134	0xbc7bbbe3	-0.01536462
135	0x3ccad322	0.02475888
136	0x3c9b571d	0.018962437
137	0xbd0428d7	-0.03226551
138	0xbd2a464d	-0.04157095
139	0x3c2e2bc5	0.010630553
140	0xbd8f19e4	-0.0698736
141	0x3b686984	0.0035463283
142	0x3c47ecfb	0.012202497
143	0xbdc3b316	-0.09555642
144	0xbd257fa5	-0.040404934
145	0xbdecb5f8	-0.11558145
146	0xbc8685aa	-0.016421158
147	0x3da5074f	0.08058035
148	0xbda3652c	-0.079782814
149	0x3cd776ec	0.026301824
150	0xbceb57df	-0.028728424
151	0x3cb43c4c	0.022001408
152	0xbd2d8235	-0.042360503
153	0xbd163065	-0.036667246
154	0xbc9f1ad7	-0.019421978
155	0x3cebb93d	0.028774852
156	0xbca5f676	-0.020259123
157	0x3d4c7f72	0.04992623
158	0x3d54bbf0	0.051937044
159	0xbccd9cde	-0.025099214
160	0xb9d5a57c	-0.0004074982
161	0xbd0eb9bb	-0.034845095
162	0xbcff9860	-0.031200588
163	0xbd0d7d4d	-0.034543324
164	0x3ca26750	0.019824654
165	0x3d36fc13	0.04467399
166	0x3d459d8f	0.048245963
167	0xbdb2021a	-0.08691807
168	0x3d1ebf87	0.038756873
169	0xbcb81f91	-0.02247599
170	0xbbeaac69	-0.007161666
171	0xbcab8e2a	-0.020941813
172	0xbcacfabd	-0.021115655
173	0x3cb192e1	0.021676483
174	0x3bc4d095	0.00600631
175	0xbc0c3e1d	-0.008559731
176	0x3d1db3a6	0.038501404
177	0x3c9ce7dc	0.019153528
178	0x3d371304	0.04469587
179	0xbdf564cc	-0.11982116
180	0xbcc8efe0	-0.024528444
181	0x3d699e5f	0.0570358
182	0x3db123ed	0.086494304
183	0xbd83f358	-0.064428985
184	0xbd9cf3a7	-0.076636605
185	0xbc765814	-0.015035648
186	0x3d248663	0.040167224
187	0xbcc30f35	-0.023810962
188	0xbca6e249	-0.020371573
189	0xbd24609d	-0.0401312
190	0xbd9401e3	-0.07226922
191	0xbd025e37	-0.03182813
192	0x3e082fde	0.1329951
193	0x3c87e564	0.016588874
194	0x3d47ed09	0.04881004
195	0x3d6eaaf3	0.0582685
196	0xbca5c675	-0.020236233
197	0x3c6b155a	0.014348352
198	0xbd2bcb6d	-0.04194205
199	0xbca22073	-0.019790864
200	0xbcd08075	-0.025451878
201	0x3d2101e1	0.039308432
202	0xbd2f69ec	-0.042825624
203	0xbc80d860	-0.015728176
204	0xbd275aaa	-0.04085795
205	0xbd7cfdfc	-0.061765656
206	0xbc81e7c5	-0.015857587
207	0x3c82a462	0.015947524
208	0x3d65f236	0.056139193
209	0xbd09dec1	-0.0336597
210	0x3d6b9487	0.057514694
211	0x3ce07b4f	0.027402548
212	0x3c8ff6c8	0.01757373
213	0x3d754a8c	0.059885547
214	0xbd026800	-0.031837463
215	0xbc5860d8	-0.013206683
216	0x3d160a81	0.03663111
217	0x3d5916d6	0.053000294
218	0x3d81feb5	0.0634741
219	0x3d8cfe21	0.06884409
220	0x3c8797b6	0.016551834
221	0xbcb46245	-0.022019515
222	0xbc8070b6	-0.015678745
223	0xbc29827a	-0.010346049
224	0xbd7e0beb	-0.062023085
225	0x3c58d5e0	0.0132345855
226	0xbd63e836	-0.055641375
227	0x3cf4d3cf	0.029886154
228	0x3d646280	0.055758
229	0x3d7d3dd8	0.061826557
230	0xbdada119	-0.084779926
231	0x3c1c6e8a	0.009547839
232	0x3cc89419	0.024484681
233	0xbc204afb	-0.009783502
234	0xbca7381e	-0.020412501
235	0x3dadad58	0.08480328
236	0xbce19c5e	-0.027540382
237	0x3cf810ca	0.030281443
238	0x3db9c17c	0.09070107
239	0x3df26b04	0.11836818
240	0xbbde0a39	-0.006776121
241	0x3c22ed05	0.009944205
242	0x3cd5a0bc	0.02607762
243	0xbccfae2b	-0.025351604
244	0x3d0dbc42	0.034603365
245	0x3db68dc8	0.089137614
246	0x3d690f69	0.056899462
247	0x3d589013	0.052871775
248	0xbbbb5fa5	-0.005718189
249	0xbd3195a6	-0.043355606
250	0xbcc24ea9	-0.023719149
251	0x3d06fb3f	0.03295445
252	0xbb6dabdb	-0.0036265764
253	0xbcd39c5e	-0.025831398
254	0x3d966f4d	0.07345448
255	0xbc1d3d53	-0.00959714

gc1.bias f4 [200]
0	0xbcee066e	-0.0290558
1	0xbce71177	-0.02820657
2	0xbd5a4235	-0.053285796
3	0xbd7db531	-0.061940376
4	0xbd5d60c6	-0.05404737
5	0xbd796613	-0.06088836
6	0xbd87de4b	-0.06634196
7	0xbd3435c3	-0.043996584
8	0xbd3a1279	-0.045427773
9	0xbcd9cf7b	-0.026588192
10	0xbd4147ab	-0.04718749
11	0xbd4860eb	-0.048920553
12	0x39661cd1	0.00021945244
13	0xbd0c3886	-0.034233592
14	0xbd61dd36	-0.055142604
15	0xbd798a06	-0.060922645
16	0xbceeb5fd	-0.029139513
17	0xbd0c7e3e	-0.03430008
18	0xbd7ee8af	-0.062233623
19	0xbd2796f7	-0.040915456
20	0xbd569ed0	-0.05239755
21	0xbd61198a	-0.054955997
22	0xbd3be69a	-0.045874216
23	0xbca90642	-0.020632867
24	0xbd8f05db	-0.06983539
25	0xbca10608	-0.019656196
26	0xbcf1eaa6	-0.029530834
27	0xbd59fd10	-0.053219855
28	0xbd193d70	-0.037412107
29	0xbd523159	-0.051316593
30	0xbd8e228d	-0.06940184
31	0xbd4bb2e8	-0.049731165
32	0xbcbdda1d	-0.023175294
33	0xbd462e61	-0.048384074
34	0xbd87471e	-0.066053614
35	0xbd9f1cb6	-0.07769148
36	0xbd4d7a49	-0.05016545
37	0xbd60b702	-0.05486203
38	0xbd52eb68	-0.051494032
39	0xbd592488	-0.053013355
40	0xbd4fca20	-0.05072987
41	0xbd45b422	-0.04826749
42	0xbd836c83	-0.06417181
43	0xbce3a43d	-0.027788276
44	0xbd04b666	-0.03240051
45	0xbd2e0572	-0.04248566
46	0xbd59c6db	-0.05316816
47	0xbcb1653c	-0.021654718
48	0xbd296d98	-0.041364282
49	0xbd481284	-0.048845783
50	0xbd674c6a	-0.05646936
51	0xbd61cdb5	-0.05512782
52	0xbd2ad2af	-0.04170483
53	0x3a54c9bb	0.00081172184
54	0xbd4c575f	-0.04988801
55	0xbd820265	-0.06348113
56	0xbd25b1c4	-0.040452734
57	0xbd05175f	-0.03249299
58	0xbd4ed2f6	-0.050494157
59	0xbd227c08	-0.039669067
60	0xbd1e8ebe	-0.03871035
61	0xbd84aa51	-0.06477798
62	0xbd64ec6c	-0.055889532
63	0xbd4b0d42	-0.04957319
64	0xbd3e7eaa	-0.046507515
65	0xbd1298fb	-0.035790425
66	0xbcbace3a	-0.022803415
67	0xbda12891	-0.078690656
68	0xbd6df9d9	-0.0580996
69	0xbd87a1e7	-0.06622677
70	0xbd1e06ab	-0.038580578
71	0xbd5062d7	-0.05087551
72	0xbd735734	-0.059409335
73	0xbd832b82	-0.06404783
74	0xbd503bd2	-0.0508383
75	0xbd1c3f7d	-0.038146485
76	0xbd93a849	-0.07209832
77	0xbd6c8511	-0.05774409
78	0xbd024b13	-0.031809878
79	0xbd2fa191	-0.04287869
80	0xbd380a83	-0.0449319
81	0xbd6e92f3	-0.05824561
82	0xbd5c34af	-0.05376118
83	0xbd0feaee	-0.035136156
84	0xbd2d6866	-0.04233589
85	0xbd70ab60	-0.058757186
86	0xbd89105a	-0.06692572
87	0xbd3cdb61	-0.046107654
88	0xbd306cd2	-0.04307253
89	0xbd6159a7	-0.05501714
90	0xbd1c606c	-0.038177893
91	0xbd514f51	-0.051101033
92	0xbd6b41aa	-0.05743567
93	0xbd88cdab	-0.06679853
94	0xbd87f16c	-0.066378444
95	0xbd31ce79	-0.0434098
96	0xbd366938	-0.04453394
97	0xbd100ce6	-0.03516855
98	0xbcdab1cb	-0.026696106
99	0xbd810b21	-0.06300951
100	0xbc17ea2b	-0.009272139
101	0xbd3caf2f	-0.046065506
102	0xbd4cd937	-0.05001184
103	0xbd20ea4a	-0.039285935
104	0xbd6816c7	-0.056662347
105	0xbd00c93b	-0.03144191
106	0xbbf0709c	-0.007337643
107	0xbd134771	-0.035956804
108	0xbd3363c7	-0.043796327
109	0xbcf331ed	-0.029686892
110	0xbc2af185	-0.010433559
111	0xbd40a76c	-0.047034666
112	0xbd3ba54a	-0.04581193
113	0xbd51455e	-0.051091544
114	0xbcd64b10	-0.02615884
115	0xbd2b03a6	-0.041751526
116	0xbd15511e	-0.036454313
117	0xbd3255b4	-0.043538764
118	0xbd471960	-0.048608184
119	0xbda5f376	-0.08103077
120	0xbd1f9874	-0.03896375
121	0xbd0fb79c	-0.035087213
122	0xbce45549	-0.027872698
123	0xbd3cc68d	-0.04608779
124	0xbd4403b3	-0.04785509
125	0xbd856c91	-0.06514848
126	0xbd0a9eda	-0.0338429
127	0xbcb98266	-0.022645187
128	0xbd49efde	-0.04930102
129	0xbd2ee387	-0.042697456
130	0xbd2191c2	-0.039445646
131	0xbd8b4d20	-0.0680182
132	0xbd9c0fa4	-0.07620171
133	0xbd1d628d	-0.038424063
134	0xbd3c4b84	-0.045970455
135	0xbd1d80d5	-0.038452942
136	0xbd2e20ed	-0.04251187
137	0xbd825832	-0.06364478
138	0xbcfa32a4	-0.030541725
139	0xbd675d6a	-0.05648557
140	0xbc0e0641	-0.008668483
141	0xbcca7a12	-0.02471641
142	0xbda1583f	-0.0787816
143	0xbdaf6714	-0.085645825
144	0xbd461133	-0.048356246
145	0xbcc28dc7	-0.023749245
146	0xbd2bfc91	-0.041988913
147	0xbd6960dc	-0.056977138
148	0xbd861a0f	-0.06547939
149	0xbd0844e8	-0.03326884
150	0xbd538c97	-0.05164775
151	0xbd549a43	-0.051904928
152	0xbd531570	-0.051534116
153	0xbd4aeb27	-0.049540665
154	0xbd0b5723	-0.034018647
155	0xbd905975	-0.070483126
156	0xbd3be8df	-0.04587638
157	0xbb195b3c	-0.0023400327
158	0xbd107180	-0.035264492
159	0xbdc9e206	-0.09857564
160	0xbd06e7c2	-0.032935865
161	0xbd00bd95	-0.0314308
162	0xbd3b0968	-0.045663267
163	0xbd46d46d	-0.04854243
164	0xbda94080	-0.082642555
165	0xbcba61f2	-0.022751782
166	0xbc72e267	-0.014824486
167	0xbd8c2329	-0.06842644
168	0xbd999b26	-0.07500295
169	0xbd053dbf	-0.03252959
170	0xbcf9fed1	-0.030517014
171	0xbdb24f2f	-0.08706509
172	0xbc944fa8	-0.01810439
173	0xbcec2859	-0.028827833
174	0xbd683cec	-0.056698725
175	0xbd395ee1	-0.0452565
176	0xbd539cfd	-0.051663388
177	0xbcfb5978	-0.03068231
178	0xbcdc806a	-0.026916701
179	0xbd95a1c8	-0.07306248
180	0xbcb2e177	-0.021836026
181	0xbd99c6e4	-0.075086385
182	0xbd0e5112	-0.034745283
183	0xbd8f14c7	-0.06986385
184	0xbd224063	-0.039612185
185	0xbd016dc4	-0.03159882
186	0xbd317ed5	-0.043333847
187	0xbd969a44	-0.073536426
188	0xbd873a52	-0.066029206
189	0xbd5744ff	-0.052556034
190	0xbd5a3c5c	-0.05328022
191	0xbd4c79ee	-0.04992097
192	0xbd6dd788	-0.058066875
193	0xbc724cea	-0.014788846
194	0xbd557a0a	-0.05211834
195	0xbd428312	-0.04748828
196	0xbd7e386a	-0.06206552
197	0xbd573415	-0.052539904
198	0xbd83e7ab	-0.064406715
199	0xbd53fe9c	-0.051756486

gc2.weight f4 [200, 200]
0	0x3db3e7e7	0.08784466
1	0xbc9173ec	-0.017755471
2	0x3c1069bf	0.008814274
3	0x3c4ac3cc	0.012375783
4	0xbb929708	-0.0044735707
5	0xbe3b84e8	-0.18312418
6	0xbc2df33e	-0.0106170755
7	0xbd8f2d81	-0.06991101
8	0x3dc9dc96	0.098565266
9	0x3c085b96	0.008322617
10	0xbbaf30af	-0.0053463797
11	0xbd3b3779	-0.0457072
12	0xbdb34911	-0.08754171
13	0x3d4f5ee4	0.050627604
14	0x3ca0aecc	0.0196146
15	0xbc72a713	-0.014810341
16	0xbb8b1675	-0.0042446204
17	0x3e4ec003	0.20190434
18	0xbd79e763	-0.061011683
19	0xbdc0ca8a	-0.09413631
20	0x3c9d00c2	0.0191654
21	0x3d92c3cd	0.07166252
22	0xbd23a85e	-0.03995549
23	0x3d902dfd	0.070400216
24	0x3e227e07	0.15868388
25	0xbe4f032f	-0.20216058
26	0xbd877872	-0.0661477
27	0x3d18c263	0.037294757
28	0x3d039c81	0.032131676
29	0xbe39db04	-0.18149954
30	0xbac2d806	-0.0014865405
31	0x3d77c3fe	0.060489647
32	0xbcd4daee	-0.0259833
33	0xbd83fd49	-0.06444795
34	0x3dc67f2e	0.09692226
35	0x3dca96be	0.09892033
36	0x3ceb5151	0.028725298
37	0xbd9702cc	-0.0737358
38	0x3d13ecf2	0.03611464
39	0x3d1da70e	0.038489394
40	0x3d81fab1	0.06346644
41	0xbe178ba1	-0.14799358
42	0x3d4435ac	0.047902748
43	0xbda7af4f	-0.08187734
44	0x3db9dde3	0.09075525
45	0xbc84ef86	-0.016227495
46	0xbd291413	-0.04127891
47	0x3dc5e011	0.09661878
48	0x3d85134d	0.06497822
49	0x3c3dac4d	0.011576724
50	0xbce3f904	-0.0278287
51	0xbd5ec5d9	-0.0543879
52	0xbd82ab16	-0.06380288
53	0x3d9c2e7d	0.076260544
54	0x3ddc3a63	0.10753324
55	0x3d43d823	0.047813546
56	0xbd860bd6	-0.06545226
57	0x3c7f478f	0.015581026
58	0xbd331041	-0.043716673
59	0x3d2637e6	0.040580653
60	0xbd19c4c6	-0.037541173
61	0x3d38aa06	0.045084022
62	0xbdc866a2	-0.09785201
63	0x3d7a7320	0.061144948
64	0xb885f8ac	-6.388253e-05
65	0x3daaf4e7	0.08347493
66	0x3cf386c0	0.02972734
67	0x3df0d54c	0.11759433
68	0xbcc665ee	-0.024218526
69	0xbd3884bf	-0.04504847
70	0xbce940be	-0.028473254
71	0x3d202c48	0.03910473
72	0x3db36eda	0.08761378
73	0x3d2e2b84	0.04252197
74	0xbd71a941	-0.058999304
75	0x3cf02406	0.029314052
76	0x3d8138e4	0.06309679
77	0xbdb16403	-0.08661654
78	0xbcdb10b1	-0.026741358
79	0x3cfb3e65	0.0306694
80	0xbd20f20a	-0.039293326
81	0x3c1e107b	0.009647484
82	0x3d6f1934	0.058373645
83	0x3d2c8b4c	0.04212503
84	0xbb947a35	-0.00453117
85	0x3e4cfcfb	0.2001838
86	0x3cc43baa	0.023954231
87	0xbd8a28cd	-0.067460634
88	0x3df23fbf	0.11828565
89	0x3e03a908	0.12857449
90	0x3d06b960	0.03289163
91	0x3d81827d	0.06323717
92	0xbc20327c	-0.009777661
93	0x3d033032	0.032028385
94	0x3e3684ff	0.17824171
95	0x3b0b07db	0.00212144
96	0x3b82448f	0.003975458
97	0xbdd9533e	-0.1061158
98	0x3db1cf29	0.08682091
99	0xbd316211	-0.043306414
100	0xbcd186c0	-0.02557695
101	0x3cefe263	0.029282754
102	0xbd5b5353	-0.05354626
103	0x3dc08f7b	0.09402367
104	0x3db9528f	0.0904895
105	0x3d6326c1	0.05545688
106	0x3d50148b	0.05080084
107	0xbce0ecee	-0.027456727
108	0xbd4934b4	-0.049122527
109	0x3d930a69	0.0717972
110	0xbc09010b	-0.008362065
111	0xbb2013b5	-0.0024425809
112	0xbd362555	-0.044469196
113	0xbd8f424f	-0.06995069
114	0xbd940b94	-0.07228771
115	0xbda7129b	-0.081578456
116	0xbcc95232	-0.024575327
117	0xbd1ebedd	-0.03875624
118	0xbd331efd	-0.043730725
119	0xbdde7861	-0.10862804
120	0x3bec32d7	0.007208209
121	0x3d84815a	0.06469984
122	0x3afa2a66	0.0019086122
123	0x3b84007a	0.004028377
124	0xbcc5dd6f	-0.02415344
125	0x3c8c9256	0.017159622
126	0x3e2b2c53	0.16716127
127	0x3d19ac6d	0.037517954
128	0xbadef976	-0.0017011601
129	0xbbb32e25	-0.0054681473
130	0x3cd910eb	0.026497325
131	0xbdaff9b9	-0.08592553
132	0xbd4a1846	-0.049339555
133	0xba73db5a	-0.00093024
134	0x3d30ce7d	0.043165673
135	0xbdd3cc17	-0.103416614
136	0xbd216ae5	-0.039408583
137	0x3d2e43e3	0.04254521
138	0xbbd5df47	-0.006526861
139	0xbd734422	-0.05939115
140	0xbe11200a	-0.14172378
141	0x3bb6c90c	0.005578166
142	0x3e1b79e4	0.15183216
143	0x3dbf7f69	0.093504734
144	0xbd9e466c	-0.07728276
145	0x3cd8d100	0.026466846
146	0x3d97e911	0.07417501
147	0x3cb8e7c9	0.022571461
148	0x3c485823	0.012228045
149	0xbd6004ab	-0.05469195
150	0x3e411d4f	0.18858837
151	0xbe071b26	-0.1319395
152	0x3da23056	0.079193756
153	0xbd16c44f	-0.03680831
154	0x3d4715a3	0.04860462
155	0xbd5bbee2	-0.053648837
156	0x3d762446	0.060093187
157	0x3cf22bb0	0.029561847
158	0x3d89fdab	0.067378365
159	0xbe0f0a3c	-0.13968748
160	0x3e0def1d	0.13860746
161	0x3d851ca2	0.06499602
162	0xbc3b96b3	-0.011449504
163	0xb8e28ac6	-0.00010802368
164	0x3d17c212	0.037050314
165	0x3c9f8601	0.019473078
166	0x3d2f4795	0.042792875
167	0x3d84636a	0.06464274
168	0x3db915d2	0.09037365
169	0xbdc3a922	-0.09553744
170	0xbd8bf8cc	-0.068345636
171	0x3bae12b8	0.00531229
172	0x3e11f54c	0.1425373
173	0x3c2cd70a	0.010549316
174	0xbd6699f8	-0.05629918
175	0xbe16da38	-0.14731681
176	0x3d9bac37	0.07601207
177	0xbd9b4793	-0.07582011
178	0x3d31c733	0.04340286
179	0xbd42f772	-0.047599263
180	0xbdcb912a	-0.09939797
181	0x3d7af43e	0.061268084
182	0x3dfcfbed	0.123527385
183	0x3d8e7434	0.06955758
184	0x3e274193	0.16333608
185	0x3d829ba8	0.06377345
186	0xbd595292	-0.05305726
187	0xbd9a5c4b	-0.07537135
188	0xbdc9ef9d	-0.09860156
189	0x3d165627	0.036703255
190	0x3d48207b	0.0488591
191	0xbc9973ba	-0.01873194
192	0x3cc034c3	0.023462659
193	0x3e056265	0.13025816
194	0xbd433dc1	-0.047666315
195	0xbd5f5226	-0.054521702
196	0xbb7ee19d	-0.00388918
197	0x3d44fea1	0.048094396
198	0x3e1b7048	0.1517955
199	0xbce3cda9	-0.027808027
200	0xbe0f4f09	-0.13994993
201	0xbdbbb5f1	-0.09165562
202	0x3dfde074	0.12396327
203	0xbdbe47d6	-0.09291045
204	0xbdd3af9d	-0.1033623
205	0xbe1749e9	-0.14774288
206	0xbe1e9670	-0.15487075
207	0x3dae1c7c	0.08501527
208	0x3d390003	0.045166027
209	0xbd020b75	-0.031749208
210	0x3d93a4bb	0.07209154
211	0xbd9bc27e	-0.07605456
212	0xbd26d065	-0.040726084
213	0x3ab7f7a1	0.0014035591
214	0xbbc25566	-0.0059305904
215	0x3d5e792f	0.05431479
216	0xbd30aad3	-0.04313166
217	0xbd90a4ff	-0.070627205
218	0xbbe36a6a	-0.006940176
219	0x3d68c10f	0.05682474
220	0x3d1e7a35	0.038690764
221	0xbc2967f8	-0.0103397295
222	0xbde68e02	-0.112575546
223	0x3d263fa4	0.040588036
224	0xbca400fd	-0.020020002
225	0xbc348abb	-0.011019404
226	0x3e183cbb	0.14866917
227	0xbe07736e	-0.13227627
228	0xbce2d6b6	-0.027690273
229	0x3d63bc22	0.05559934
230	0x3cbd3a36	0.023099046
231	0xbba6ef60	-0.0050944537
232	0x3d11b047	0.0355685
233	0xbe163722	-0.14669469
234	0x3bd9b866	0.0066442965
235	0xbdaa1953	-0.083056115
236	0xbe0529eb	-0.13004272
237	0x3dc66c8b	0.09688672
238	0x3d162f41	0.03666616
239	0x3d20bf82	0.039245136
240	0xbdc9e715	-0.098585285
241	0x3da0530c	0.0782834
242	0xbd2d0e62	-0.042250045
243	0xbc38e3ba	-0.011284763
244	0x3d2d6d03	0.04234029
245	0x3c54cf30	0.0129888505
246	0xbe25bfc6	-0.16186437
247	0xbe0287b5	-0.1274708
248	0xbd6d3770	-0.057914197
249	0xbd179b18	-0.037013143
250	0x3d2ce343	0.04220892
251	0x3da66b02	0.08125879
252	0xbcf9fcc4	-0.030516036
253	0x3d6d90d1	0.057999436
254	0xbd5f19a9	-0.05446783
255	0xbd4a0d7a	-0.04932926

gc2.bias f4 [200]
0	0xbc2383b8	-0.009980135
1	0x3c1e81e4	0.009674523
2	0x3c2028c4	0.009775344
3	0xbccbc2d1	-0.02487317
4	0xbcc2bef9	-0.023772703
5	0xbc94c351	-0.01815954
6	0x3c362e7f	0.011119484
7	0xbc2eb6d9	-0.0106637115
8	0x3cbbf760	0.022945106
9	0x3bf4e2c1	0.0074733202
10	0x3d27f1e9	0.041002188
11	0xbc3717bb	-0.011175091
12	0x3ca2e00c	0.019882225
13	0xbd124a6c	-0.035715505
14	0xbbe68460	-0.0070348233
15	0x3cb4f7d2	0.022090826
16	0xbb0b614c	-0.002126771
17	0x3d3ee05f	0.046600696
18	0xbc213988	-0.009840377
19	0xbc880efc	-0.016608708
20	0x3cba12e6	0.02271409
21	0x3c391c6a	0.011298278
22	0x3cc5368c	0.024073862
23	0x395ae522	0.00020875459
24	0x3bcc5be5	0.0062365406
25	0xbb1851d2	-0.0023242128
26	0x3c85a3ef	0.016313521
27	0x3cf6fd5a	0.030150104
28	0x3ca0cc1e	0.01962858
29	0x394f6342	0.00019778035
30	0x39c0d729	0.000367814
31	0x3afb8d9d	0.0019191984
32	0x3d219f1b	0.039458375
33	0x3a8ea1bc	0.0010881941
34	0x3c174342	0.009232344
35	0xbcb9b4a8	-0.022669151
36	0x3c29a5fa	0.010354513
37	0x3ca52ea2	0.020163838
38	0x3c0e4804	0.008684162
39	0x3b8c8cd9	0.0042892513
40	0xbccf94f8	-0.025339589
41	0x3c25e3a0	0.010125071
42	0x3c60710b	0.013698827
43	0xbbe4612f	-0.006969593
44	0x3d1952ee	0.037432604
45	0x3c88ac49	0.016683714
46	0x3c10fb4d	0.008848977
47	0x3d1de594	0.03854902
48	0x3ca5498c	0.020176671
49	0x3b04eb35	0.0020281796
50	0x3bfeb008	0.0077724494
51	0x3cac973c	0.021068208
52	0x3d19fbc9	0.037593637
53	0xbbc83266	-0.0061095236
54	0x3c85fea5	0.016356776
55	0xbc688227	-0.014191187
56	0x3cbfd1bf	0.023415444
57	0xbbe9df73	-0.007137233
58	0x3c0c63c5	0.008568709
59	0xbaddb4f8	-0.0016914895
60	0x3c84263b	0.016131511
61	0xbd161a64	-0.03664626
62	0x3c969739	0.018382655
63	0xbae2c645	-0.001730152
64	0xbc31c304	-0.010849718
65	0x3afb3e41	0.0019168333
66	0xbb7b8f01	-0.0038384798
67	0x3cffe89f	0.031238852
68	0x3c17796c	0.009245258
69	0x3c900bd1	0.01758376
70	0xbc80351f	-0.01565033
71	0x3c40676f	0.0117434105
72	0x3cce15a9	0.025156813
73	0x3aa81a1a	0.0012825162
74	0xbc9f3cb5	-0.019438127
75	0x3d210a01	0.03931618
76	0xbb9401dc	-0.004516823
77	0xbb6611c4	-0.0035105804
78	0x3cfad1a9	0.030617552
79	0x3ceb5997	0.028729243
80	0xbc7bcb4c	-0.015368294
81	0x3c09f72c	0.008420747
82	0x3c795bfc	0.015219685
83	0x3d3e9c85	0.046535987
84	0x3c424705	0.011857753
85	0x3d6a65e3	0.057226073
86	0x3b6f3b12	0.0036503715
87	0x3c8c85d5	0.01715366
88	0x3bae4b5d	0.0053190426
89	0x3bff2fee	0.007787696
90	0x3cb51797	0.022105975
91	0xbd147395	-0.03624304
92	0x3c418d20	0.011813432
93	0xbcb6009b	-0.022217086
94	0xbc3212a2	-0.0108687
95	0x3c164981	0.009172798
96	0x3c4d9d7d	0.012549755
97	0x3c10f6df	0.008847921
98	0x3d6f0e6b	0.05836336
99	0x3cdb99c3	0.026806718
100	0xbc486d10	-0.012233034
101	0x3c67ebad	0.014155311
102	0xbae0d2df	-0.0017152688
103	0x3ba4bf31	0.0050276746
104	0xbca48967	-0.02008505
105	0x3d026688	0.031836063
106	0x3bbe58cf	0.0058089267
107	0x3cb9712c	0.022636972
108	0x3ca5900f	0.020210294
109	0x3a53cdc8	0.0008079675
110	0x3c7029f2	0.014658438
111	0x3d0fd2d3	0.035113167
112	0x3cc8336f	0.024438588
113	0x3d179984	0.03701164
114	0x3c519374	0.012791503
115	0x3cd2d27d	0.025735134
116	0x3b3881c0	0.002815351
117	0x3b012c0e	0.0019710097
118	0x3d21a3cd	0.039462853
119	0xbc56abc1	-0.013102473
120	0x3c2d93e4	0.010594342
121	0x3bb9bbac	0.005668124
122	0xbd52d338	-0.051470965
123	0xba84e45d	-0.0010138858
124	0xbc1ad28e	-0.009449614
125	0xbc6bac6b	-0.014384369
126	0x3c8e10c9	0.017341988
127	0x3d2a9bb0	0.04165238
128	0x3c157682	0.009122493
129	0x3c776d75	0.01510178
130	0x3cf0bfc9	0.029388325
131	0xba86c458	-0.0010281904
132	0x3d2aa882	0.041664608
133	0xbbca6ea3	-0.0061777397
134	0xbc010072	-0.007873641
135	0x3c1c008c	0.009521615
136	0x3cfb2295	0.030656138
137	0x3be12caa	0.0068717794
138	0x3d704885	0.05866291
139	0x3cf0e216	0.029404681
140	0x3cd60636	0.026126008
141	0x3d0f46a8	0.034979492
142	0xbaddefab	-0.0016932389
143	0x3d1d1520	0.038350224
144	0x3a0caab1	0.0005366011
145	0x3a8cee20	0.0010752119
146	0x3be8a9ff	0.0071003432
147	0xbc5d02d0	-0.01348944
148	0x3bbdb15d	0.0057889656
149	0x3c108b24	0.008822236
150	0x3c662f8f	0.014049425
151	0x3ca57a55	0.020199934
152	0xbc7d3928	-0.015455522
153	0x3c190ada	0.009340966
154	0xbc8cc953	-0.017185843
155	0x3c5f27cc	0.013620328
156	0xbbbba83c	-0.005726842
157	0x3ccc158e	0.024912622
158	0x3cad7278	0.021172747
159	0x3c7ec2d5	0.015549381
160	0x3b87a27e	0.0041392436
161	0x3d1778ec	0.036980554
162	0x3cc4f2d7	0.024041576
163	0xbbddec9d	-0.0067725913
164	0x3c5df8b5	0.013548066
165	0x3c987e38	0.018614873
166	0x3c79464f	0.015214517
167	0xbc34529f	-0.0110060265
168	0xbbcc0613	-0.00622631
169	0xbbc0a704	-0.005879285
170	0x3ca2f282	0.019891027
171	0x3c554e1c	0.013019111
172	0xbc157e1a	-0.009124303
173	0xbc102535	-0.008797933
174	0xba53286c	-0.00080550346
175	0xbc2eb518	-0.010663293
176	0x3c73c568	0.014878608
177	0x3cacdb62	0.021100704
178	0x3bce1b3d	0.006289868
179	0x3c43d60d	0.011952889
180	0xbc13eb54	-0.009028275
181	0x3ce6f475	0.028192738
182	0x3c0bd89f	0.008535533
183	0x3d1e0159	0.038575504
184	0x3bcf6a19	0.0063297865
185	0xbbe06fbb	-0.006849257
186	0x3d1de0a6	0.03854432
187	0xbb308d93	-0.0026939854
188	0x3c4358e9	0.011923053
189	0x3d434db0	0.04768151
190	0x3d13c256	0.036074005
191	0x3d2aaa81	0.04166651
192	0x3ca7874f	0.020450262
193	0x3a0169c4	0.000493672
194	0x3c37ebb6	0.011225631
195	0x3ce1488c	0.027500413
196	0x3d0b7c90	0.03405434
197	0xbc117f38	-0.008880429
198	0x3bf70261	0.0075381254
199	0x3c9a0a55	0.018803755

gc3.weight f4 [200, 100]
0	0x3df25568	0.11832696
1	0x3d05e790	0.03269154
2	0x3da8b3a8	0.08237392
3	0x3d51c8ad	0.05121677
4	0xba105cda	-0.0005507
5	0x3c7338cb	0.0148450835
6	0x3cdde449	0.027086394
7	0x3d2fa7c5	0.042884607
8	0xbc93b5fd	-0.018031115
9	0x3dac86a2	0.08424117
10	0xbc18519a	-0.009296799
11	0xbca699a9	-0.020336943
12	0xbc6dac71	-0.014506445
13	0x3daef869	0.08543474
14	0xbe16ff88	-0.14745915
15	0x3d8039a4	0.06260994
16	0x3d62c31c	0.055361852
17	0x3dc8d18c	0.09805593
18	0x3d8e488b	0.0694743
19	0x3e5fd37c	0.21858019
20	0x3d9b8b08	0.075948775
21	0xbd7a7c4d	-0.0611537
22	0xbd4adddd	-0.04952799
23	0xbde93a50	-0.11388075
24	0x3e398b8f	0.18119644
25	0x3d37c024	0.044860974
26	0xbba828b3	-0.005131805
27	0xbcf0a4b5	-0.029375413
28	0xbdd4ab8e	-0.10384284
29	0x3db14c7c	0.08657166
30	0x3d94d462	0.07267071
31	0x3e0a0fb4	0.13482553
32	0x3e5b838e	0.21436903
33	0x3db2f4f1	0.08738125
34	0xbd5c041a	-0.05371485
35	0xbd720ca5	-0.05909409
36	0x3d5e7829	0.054313812
37	0xbda16b28	-0.078817666
38	0xbde425d7	-0.1114003
39	0x3dd930d1	0.10605014
40	0xbdb7281e	-0.089431986
41	0x3bc9fc57	0.0061641145
42	0xbe0189b7	-0.1265019
43	0x3e12e727	0.1434599
44	0x3d611fa8	0.05496183
45	0xbe0e185e	-0.13876483
46	0xbdbf63ff	-0.093452446
47	0xbd98d92d	-0.07463298
48	0x3dd251e6	0.10269527
49	0x3d50c869	0.050972376
50	0xbc3c9e17	-0.011512301
51	0x3d9144a4	0.0709317
52	0xbd7b2573	-0.06131501
53	0x3d85a73a	0.065260366
54	0x3e07df36	0.13268742
55	0x3d523e72	0.051329084
56	0x3c695555	0.014241536
57	0xbd0a20e9	-0.03372279
58	0xbd84014a	-0.06445558
59	0xbe29d9f1	-0.16587044
60	0x3d221bc8	0.039577276
61	0xbe2390c7	-0.15973197
62	0x3d834293	0.064091824
63	0x3cbb529e	0.022866543
64	0xbcd896d3	-0.026439106
65	0xbdd5bdc4	-0.104365855
66	0xbd54de33	-0.05196972
67	0x3d3ffd6b	0.046872538
68	0xbd62b052	-0.055343933
69	0xbe58f012	-0.2118533
70	0x3e04c23a	0.12964717
71	0x3d596ea4	0.05308403
72	0x3d96354c	0.07334384
73	0xbccca646	-0.02498163
74	0x3c4f87d8	0.012666665
75	0xbd9434ae	-0.0723661
76	0xbce3c22f	-0.027802555
77	0x3d3b5298	0.045733064
78	0xbe15aba7	-0.14616261
79	0xbc93cce5	-0.018042037
80	0x3de18afc	0.11012837
81	0xbe12aea4	-0.14324433
82	0xbd79b0b8	-0.060959548
83	0x3d87cbdb	0.06630679
84	0x3c345b32	0.011008071
85	0x3d31583c	0.043297037
86	0xbd48d358	-0.049029678
87	0x3e165bf1	0.1468351
88	0x3d6ff14a	0.05857972
89	0x3d139ccf	0.036038216
90	0xbca6c5cc	-0.020357989
91	0x3df572a7	0.11984759
92	0xbd8b6c95	-0.0680782
93	0xbd17009b	-0.03686581
94	0xbe01e4f2	-0.12684992
95	0xbe26ec32	-0.16301039
96	0xbd308e27	-0.043104317
97	0x3dd31ef4	0.10308638
98	0x3b1c5181	0.002385229
99	0x3c2ac664	0.010423277
100	0xbd0bad83	-0.03410102
101	0x3d0da09e	0.034577005
102	0xbd453b42	-0.048152216
103	0x3d828386	0.06372742
104	0x3d24490f	0.040108737
105	0x3ddee2c3	0.10883095
106	0x3c145a3e	0.009054719
107	0xbd64f1ec	-0.055894777
108	0x3de3265a	0.11091299
109	0xbcfbcc01	-0.030736925
110	0x3cd383f4	0.025819756
111	0x3d3438da	0.04399953
112	0x3d19cbc1	0.03754783
113	0xbada3ecf	-0.0016650798
114	0x3cb660d2	0.022262964
115	0x3b08863c	0.0020831963
116	0xbc1084b8	-0.008820705
117	0x3dc6c2d1	0.09705127
118	0xbc9c3cbc	-0.01907193
119	0x3dce04ea	0.10059531
120	0x3c46a071	0.012123213
121	0xbe007d02	-0.12547687
122	0xbc3e6e21	-0.011622936
123	0xbc90dcd0	-0.017683417
124	0x3d3740b0	0.044739425
125	0x3d076ee2	0.03306473
126	0x3da35f3b	0.07977148
127	0x3d853928	0.06505042
128	0x3dc196d9	0.094526
129	0xbb39db22	-0.0028359373
130	0x3d076d3f	0.03306317
131	0xbd0a510a	-0.03376869
132	0xbde7dd86	-0.11321549
133	0xbcdc8d07	-0.026922716
134	0x3de58669	0.11207277
135	0x3c731b31	0.014838026
136	0x3d86cf53	0.06582513
137	0x3d2e32ec	0.04252903
138	0xbd91b5bd	-0.07114742
139	0xbe0321ec	-0.12805909
140	0x3d03995c	0.032128677
141	0x3de54455	0.11194674
142	0x3cdcdc53	0.026960528
143	0xbe1dd598	-0.15413511
144	0x3a4343b0	0.0007448746
145	0xbbad423d	-0.0052874372
146	0x3d9c4b34	0.07631531
147	0xbd050d41	-0.032483343
148	0x3e00becd	0.12572785
149	0x3dc4f695	0.09617344
150	0xbd06be3c	-0.032896265
151	0xbc5a5a06	-0.013327127
152	0x3dabaa47	0.08382087
153	0x3df10762	0.11768986
154	0xbd823c19	-0.06359119
155	0x3e094625	0.13405664
156	0xbba57795	-0.0050496557
157	0xbe33b341	-0.17548849
158	0x3dab03aa	0.08350308
159	0xbc08bd08	-0.00834585
160	0xbd64d70c	-0.055869147
161	0x3c8ba135	0.017044643
162	0x3d7ff1d7	0.062486496
163	0x3db29baa	0.08721097
164	0x3d34102a	0.043960728
165	0x3e1e3f98	0.15453947
166	0xbcd4d18d	-0.025978828
167	0x3d5c0cf7	0.0537233
168	0xbd22d126	-0.03975024
169	0xbe152e5a	-0.14568463
170	0x3dc55fe5	0.09637431
171	0xbc19f887	-0.009397632
172	0xbc3361d1	-0.010948614
173	0xbc97cde4	-0.018530793
174	0x3ded32e8	0.11581975
175	0x3d6bd49b	0.057575803
176	0xbda2aca4	-0.07943085
177	0x3de04607	0.10950857
178	0xbc08dec9	-0.008353897
179	0x3c71e54b	0.01476414
180	0xbd99e664	-0.07514647
181	0xbe2f4080	-0.17114449
182	0xbd7ca863	-0.061684024
183	0x3dc68e7c	0.096951455
184	0x3d894245	0.06702093
185	0x3d1f78a7	0.038933422
186	0xbde3db2c	-0.11125788
187	0xbd454faa	-0.048171677
188	0x3e002d60	0.12517309
189	0x3d37525b	0.044756275
190	0x3e442697	0.19155346
191	0xbd40d163	-0.047074687
192	0xbd207a16	-0.03917893
193	0xbd9963bd	-0.07489727
194	0xbbe9fc25	-0.0071406537
195	0xbe070ccf	-0.1318848
196	0xbdd76b7a	-0.105185464
197	0x3cd74637	0.026278598
198	0x3d78a443	0.060703527
199	0xbdd75d16	-0.105158016
200	0xbda05110	-0.078279614
201	0xbc135fc7	-0.008995003
202	0xbd2b51ba	-0.041825987
203	0xbdc2a9eb	-0.095050655
204	0x3cc7462e	0.024325456
205	0xbe086721	-0.1332059
206	0x3b206d30	0.0024479143
207	0x3d54fd44	0.051999345
208	0xbdd746f0	-0.10511577
209	0x3961297a	0.00021473123
210	0x3bb67f99	0.00556941
211	0xbdd77e9d	-0.105221964
212	0x3dfdae5a	0.123867705
213	0x3d91e713	0.07124152
214	0x3e1fbb9d	0.15598913
215	0xbdb3651d	-0.0875952
216	0x3e056f07	0.13030635
217	0x3d4a6b7d	0.049418915
218	0x3da2d0e4	0.07949999
219	0xbd4b9755	-0.04970487
220	0x3d28f50a	0.041249312
221	0x3dbbe067	0.09173661
222	0x3d59686a	0.053078093
223	0xbd69c514	-0.057072714
224	0xbd0ed18c	-0.03486781
225	0xbd993e51	-0.07482589
226	0xbe1ae659	-0.15126933
227	0x3d7b5c69	0.061367426
228	0xbd228459	-0.039676998
229	0xbd8e0df6	-0.069362566
230	0xbda2cfd5	-0.07949797
231	0x3d9349ba	0.071917966
232	0xbe02ef02	-0.12786487
233	0xbd8c9a1f	-0.06865334
234	0xbdbe4f75	-0.09292499
235	0xbd727c96	-0.059200846
236	0xbcadfaf2	-0.021237824
237	0xbdc086e2	-0.09400727
238	0xbdd7762e	-0.10520588
239	0xbd007cca	-0.031369008
240	0x3c0c12a3	0.008549365
241	0x3ccaa195	0.024735251
242	0xbdb99d68	-0.09063226
243	0xbc3ffab6	-0.011717489
244	0x3e044d68	0.12920153
245	0xbd470c2e	-0.0485956
246	0xbdc6cd7a	-0.0970716
247	0x3d3b7bb6	0.045772277
248	0x3da4bfb2	0.080443755
249	0xbd09f58d	-0.03368144
250	0xbd381e2a	-0.04495064
251	0x3cbb31a6	0.022850823
252	0x3d817b98	0.06322402
253	0xbbdc66a4	-0.006726103
254	0xbd36bccf	-0.044613656
255	0x3cd657cc	0.026164912

gc3.bias f4 [100]
0	0xbc9cdd23	-0.019148415
1	0xbc221e86	-0.009894973
2	0xbd015dba	-0.031583525
3	0xbcc197bd	-0.023631925
4	0xbc20b3fa	-0.009808535
5	0xbce69ad0	-0.028149992
6	0xbd0821aa	-0.03323523
7	0xbb4c1b65	-0.0031144258
8	0xbcd88b81	-0.026433708
9	0xbd06899b	-0.032846075
10	0x3d3c4c03	0.045970928
11	0xbcfce930	-0.030872911
12	0xbb239fdb	-0.0024967107
13	0xbc982565	-0.018572519
14	0xbb14a576	-0.002268163
15	0xbc1022d1	-0.008797363
16	0xbc61b98c	-0.013777148
17	0xbd4f9a37	-0.05068418
18	0x3d4b9d9a	0.049710847
19	0xbd3a9640	-0.045553446
20	0xbbc2954f	-0.005938209
21	0xbc9d3d27	-0.019194199
22	0x3d42015b	0.047364574
23	0xbcfdfb96	-0.031003755
24	0xbd2a3523	-0.04155458
25	0xbd4defb1	-0.050277416
26	0xbd1af68c	-0.03783278
27	0xbd1656fa	-0.03670404
28	0xbd0adc3f	-0.03390145
29	0xbd1ec18f	-0.03875881
30	0xbcc739f6	-0.02431963
31	0xbca603b5	-0.02026544
32	0xbc861452	-0.016367111
33	0xbcb98c71	-0.022649975
34	0xbd175090	-0.036942065
35	0xbd59727e	-0.053087704
36	0xbcf0e7b0	-0.029407352
37	0xbc9d4065	-0.019195745
38	0x3cb4e465	0.022081563
39	0xbd02f168	-0.031968504
40	0x3b359647	0.002770798
41	0xbd6b4714	-0.057440832
42	0x3d06a87b	0.03287552
43	0xbce89ae8	-0.028394178
44	0xbcd4d0ed	-0.02597853
45	0xbd1c657b	-0.038182717
46	0xbd60f93f	-0.0549252
47	0xba04f8b2	-0.0005072459
48	0x3ca943fb	0.020662298
49	0xbc7b9234	-0.015354682
50	0xbbad9e3b	-0.0052984036
51	0xbbef5a62	-0.0073044756
52	0xbcabdf2e	-0.020980444
53	0x3b393b65	0.0028264162
54	0xbcd11efb	-0.025527468
55	0xbc6eb8ff	-0.014570474
56	0x3acfc5b3	0.0015851766
57	0x3d5c41bd	0.05377363
58	0xbd2cb237	-0.042162146
59	0xbca25c78	-0.019819483
60	0xbd88e0a4	-0.06683472
61	0x3d809c1b	0.06279775
62	0x3d6406c3	0.05567051
63	0xbd1a316d	-0.037644792
64	0xbc88e8bb	-0.016712537
65	0xbd0bb140	-0.034104586
66	0x3c7e76c1	0.015531243
67	0x3d42859c	0.0474907
68	0xbd24ddef	-0.040250715
69	0x3d1c4d1a	0.038159467
70	0x3d554db9	0.052076075
71	0xbce4f1ac	-0.02794727
72	0xbccd8bc1	-0.025091054
73	0xbd87923e	-0.0661969
74	0xbd42b6d3	-0.047537636
75	0xbcf9cad3	-0.030492222
76	0xb79dd7f0	-1.8816412e-05
77	0x3c0a5342	0.008442702
78	0xbd154ddf	-0.036451217
79	0xbbd10fa5	-0.006380039
80	0xbd12c721	-0.035834435
81	0x3d6675a8	0.05626455
82	0x3d65b799	0.056083295
83	0xbcd9cdac	-0.02658733
84	0xbb091f91	-0.0020923356
85	0x3c65d449	0.0140276635
86	0x3c7a65ba	0.015283043
87	0xbca4df00	-0.020125866
88	0xbd0e1c77	-0.034695115
89	0xbd0d6955	-0.03452428
90	0xbbb0b8ad	-0.005393109
91	0x3d61af5c	0.055098876
92	0x3be0de7c	0.0068624597
93	0xbd2d9036	-0.04237386
94	0xbb1296b4	-0.0022367658
95	0x3c0373f4	0.008023251
96	0xbc8a68b1	-0.016895624
97	0xbd77683b	-0.060402136
98	0xbd3fce9c	-0.046827897
99	0xbcbe901c	-0.023262076
