best_models/MOGONET/fold_4/E3.pth (torch, 901527 bytes, 6 tensors)

gc1.weight f4 [822, 200]
000000 64 97 4b bd 90 16 18 3c 3b af f6 bc 02 d3 cb 3c
       -0.049704924 0.009282723 -0.030112853 0.02488089
000010 4d d6 a6 3c 75 7a 08 bd 11 a1 2d bc c1 d7 22 3d
       0.020365858 -0.03331991 -0.010597483 0.03975654
000020 33 ee 34 3d dc 98 0d 3b 48 e8 e5 bb 20 ce 88 bd
       0.044172477 0.0021606004 -0.0070162155 -0.0667994
000030 b8 41 b0 bd 7c 3a 01 bd ef 1d ab 3c 89 f4 4b bd
       -0.08606285 -0.031549916 0.020888297 -0.049793754
000040 a2 38 d2 3b c6 d5 bf bb 9e 4f 48 3c 8b 00 9a bd
       0.0064154426 -0.005854341 0.0122260135 -0.07519635
000050 4e b9 13 bd fd 39 87 bc 8c 32 28 bd c4 ae fa 3b
       -0.036065392 -0.016507143 -0.04106383 0.007650228
000060 81 6e 19 3c 9f ef 56 bc b0 7d e6 bc e5 05 61 3c
       0.009364725 -0.013118654 -0.028136104 0.0137343155
000070 4d e0 dd 3d 9c 85 31 3d b1 68 85 3d 78 13 73 3d
       0.108337976 0.04334031 0.06514109 0.05934474
000080 bc 88 55 3d 76 b0 cb 3b 3f 02 8f bd 1e 25 39 bd
       0.052132353 0.006216104 -0.0698285 -0.045201413
000090 a9 e7 d6 bc fd 93 5e bb 4f 70 5c bd 49 16 48 3c
       -0.026233511 -0.003396272 -0.053818043 0.012212344
0000a0 a8 b4 6c 3c ca fd cc bc 66 b6 bd bc 26 96 0f b8
       0.014447369 -0.02502336 -0.023158263 -3.4233693e-05
0000b0 cb c6 22 3c 58 75 10 be dd f1 01 3d 8d 7e 87 bb
       0.009935091 -0.14107263 0.0317248 -0.004134959
0000c0 ed 66 a3 bc 13 2a 15 3d 55 d3 a2 3c d7 58 75 3b
       -0.01994654 0.03641708 0.019876162 0.0037436986
0000d0 ff 5d a1 bd 7f 06 3c bd 8e fe ad bb d2 58 d8 3d
       -0.078792565 -0.045904633 -0.0053098863 0.10563816
0000e0 c8 f3 0e bb d4 6c be 3c fe d4 a6 ba 19 de d6 bc
       -0.0021812785 0.023245253 -0.0012728272 -0.026228951
0000f0 e1 8e ef 3c 93 7d 45 3d 8e f1 13 bc 0a 73 d3 3c
       0.029242935 0.04821546 -0.009029759 0.02581169
000100 c6 e8 e9 3a 73 f7 6a bd 4d 3d 86 3c 2d 6c b0 3b
       0.0017845861 -0.057364892 0.016386652 0.0053839893
000110 10 58 88 3d 52 59 11 3d a8 75 3f 3c 31 ea b2 39
       0.066574216 0.035485573 0.011685766 0.00034125292
000120 4a 25 3a bd 4f 2f 89 3d 04 c1 42 3a bb bb 1f 3d
       -0.045445718 0.066984765 0.0007429274 0.038997393
000130 39 b4 a8 bd 92 da a5 3b bf b5 42 3d 07 1c 83 bc
       -0.082375 0.005061456 0.047536608 -0.016004575
000140 d0 04 1e 3d 30 fe 26 bd b4 13 9a 3d af 78 51 bd
       0.03857881 -0.040769756 0.07523289 -0.051140483
000150 9e a8 5d bc 42 1e 04 be 6f ee 6a 3c cb c1 a2 3d
       -0.013528971 -0.12902167 0.014339074 0.07947119
000160 85 f3 e2 bc 2e c1 f6 bc 0a 8e 07 3d bc 3e 7f bc
       -0.02770401 -0.030121412 0.033094443 -0.015578922
000170 ff 08 dc 3d 39 81 18 bd 9b 67 fd 3c 6e 21 04 be
       0.10743903 -0.03723261 0.030933192 -0.12903377
000180 2a 50 10 bd 08 09 5c bd 7a 52 46 3b 0c a4 3a bc
       -0.0352327 -0.05371955 0.0030261562 -0.011391651
000190 94 36 b2 3d a8 e5 04 3d 5b 46 97 bc 87 00 c8 3d
       0.08701816 0.03244558 -0.018466165 0.097657256
0001a0 e2 16 e7 bd 92 89 1e bd 0a 64 6e bd 19 75 92 bc
       -0.112836614 -0.038705416 -0.058200873 -0.017878102
0001b0 8a ed 61 3d e7 c0 10 3d 2a 6f 9a bd b8 da 83 3d
       0.055158176 0.035340216 -0.07540734 0.06438202
0001c0 67 9d 98 bc 42 ff 3c bc fd e3 0c bd a2 99 96 3d
       -0.018629743 -0.011535468 -0.034397114 0.07353522
0001d0 98 7e b8 bc 24 1f 44 bc 71 63 cf 3c 48 30 dc bd
       -0.022521302 -0.011970315 0.025315972 -0.107513964
0001e0 6d 81 5e bd 7d 5b c5 3d 63 4e 82 bd d1 d9 07 bc
       -0.05432265 0.09636591 -0.06362607 -0.008291678
0001f0 b6 36 85 bc e0 98 05 bd af f8 e5 3c 42 c7 8f 3c
       -0.01626144 -0.032616496 0.028072683 0.017551068
000200 22 43 c5 3c ed 48 3e 3d 2e 90 f6 3c a9 78 b8 bc
       0.024079863 0.046456266 0.030098047 -0.022518473
000210 41 d2 32 3c 5c 50 de 3c 05 47 cc bd 06 73 27 bd
       0.010914386 0.027137928 -0.099744834 -0.04088118
000220 31 23 3e 3c d9 3c c9 3c a4 a1 1b bc 73 30 55 bc
       0.01160507 0.024565147 -0.009498987 -0.0130120395
000230 45 63 62 bc 82 d2 37 bc be 00 04 3d 66 1f 66 bd
       -0.013817613 -0.011219623 0.03222727 -0.056182288
000240 39 31 bd bd 98 8d bf bc d5 05 85 bc 4a 9c d9 3d
       -0.09237904 -0.023382947 -0.016238132 0.10625513
000250 2f ed 58 bc f6 e8 9b bd ee 7a bf bc 04 09 45 bd
       -0.013240143 -0.07612793 -0.023374047 -0.0481043
000260 2a 09 bf 3d c1 79 eb 3d c1 c9 f4 bc 4c 0f 98 bc
       0.0932792 0.11497832 -0.02988136 -0.018561982
000270 12 c6 f4 3b 90 59 d1 bd f5 c7 70 3d b7 05 9b bd
       0.007469901 -0.10222161 0.058784444 -0.075694494
000280 b0 2a 69 bc e9 0d 27 3d bd 4b 99 bd d4 c1 1a bd
       -0.014231369 0.04078475 -0.07485149 -0.037782505
000290 f6 33 76 bd 48 e8 82 bd 69 36 11 3d 45 18 a2 3d
       -0.060108148 -0.063919604 0.03545228 0.07914785
0002a0 16 02 31 3b 58 42 36 3d ef a9 f9 bb bb 32 1b 3d
       0.00270093 0.044496864 -0.0076191346 0.037890177
0002b0 06 5c 03 3d 0b f9 12 bd 62 2e a0 3d ea ac 50 3d
       0.032070182 -0.035882037 0.07821347 0.050946154
0002c0 18 76 c6 bc a4 7a 73 3d 8a 34 cd bc cd 12 c8 bc
       -0.024226233 0.05944313 -0.025049467 -0.024423027
0002d0 ef 7b 35 3c 7d 7a 0e bd 09 95 fa 3c 77 e8 09 3d
       0.011076911 -0.034784783 0.030588644 0.03366896
0002e0 6e 53 f9 bc 6f ff 55 bc 67 4c e9 3c 75 66 72 bd
       -0.03043529 -0.013061388 0.028478814 -0.059179742
0002f0 d8 8b bd 3d fc 7b f3 ba 45 04 19 3c 27 56 4f bd
       0.09255189 -0.0018576379 0.009339397 -0.05061927
000300 dd 99 0b b9 cf 52 e0 3b 8e e5 d3 bc 0f b9 89 bd
       -0.00013313392 0.006845809 -0.025866296 -0.0672475
000310 c3 0d 35 3d 3e a0 4a 3d 58 0f 86 3c 9c 78 e8 3b
       0.044202577 0.049469225 0.016364738 0.007094456
000320 87 7e 9a bc 31 93 9d bd d5 a8 7c 3d 3f 12 d4 bd
       -0.018859161 -0.0769409 0.06168445 -0.10355043
000330 23 05 76 bd 91 81 82 3c 9d 75 80 3d db e9 b7 bc
       -0.060063493 0.015930923 0.06272433 -0.022450378
000340 2f 75 ee bc 05 08 49 bb 0f ba 3a bb 79 b5 96 3d
       -0.029108612 -0.0030674946 -0.0028492247 0.07358832
000350 3d 58 80 bd 3b 0e fe 3d 79 c1 b5 3d 5b 8f 06 3d
       -0.0626683 0.12405058 0.088747926 0.03285156
000360 48 83 07 3d be 9f d0 bc f8 b7 0d bc a2 c8 48 3c
       0.033084184 -0.025466796 -0.008649819 0.012254866
000370 e2 97 7e 3d f3 17 15 bd 63 cf 30 3c 43 6a 8c bc
       0.062156565 -0.036399793 0.010791632 -0.017140513
000380 ca 34 94 bd 8e c3 b3 3c 9c 20 83 3d 3e e5 c3 3d
       -0.07236631 0.021943834 0.06402704 0.09565209
000390 9c c6 6b 3b c0 70 7a 3a 97 9c 26 bc 07 a2 11 bb
       0.0035976535 0.0009553544 -0.01016917 -0.002222182
0003a0 f5 bf 1d ba b7 b0 4c bd 89 30 ee bb 4e 94 28 3d
       -0.00060176785 -0.049973216 -0.0072689694 0.04115706
0003b0 1a 51 e3 bc 56 5b b6 3d 31 82 43 3d 73 4f 92 3d
       -0.027748633 0.0890414 0.047731582 0.0714406
0003c0 55 c8 6d 3b 20 be ad bc 50 6d d6 3d 9f 44 a6 bd
       0.0036282737 -0.021208823 0.104700685 -0.08118557
0003d0 50 03 55 bd a1 03 c2 bd df 2d 3b 3c 4f 8e 2e 3d
       -0.052005112 -0.094733484 0.011424511 0.042616185
0003e0 da b8 f9 3c fd 5d dc 3c e5 d8 85 3d 21 07 84 bc
       0.030483652 0.026900286 0.0653551 -0.01611668
0003f0 47 a3 4a bc 75 76 28 bd 70 0a 85 3d 8b 51 01 3d
       -0.01236803 -0.041128594 0.064961314 0.031571906

gc1.bias f4 [200]
000000 c9 64 1c bd 36 03 64 bd 5e bf 81 bc b8 b5 47 3c
       -0.038182054 -0.055667125 -0.015838321 0.012189321
000010 46 ee 3a bd 6d 55 f1 bc 03 1a 5d bd 77 58 ba ba
       -0.04563739 -0.02945968 -0.053979885 -0.0014217038
000020 b9 7e a8 bd cc 15 a7 bc d9 04 ca bc da 9c 70 3c
       -0.082272954 -0.020396136 -0.024660515 0.014685834
000030 80 5b 37 bd 9d 9b 18 bd b3 72 9b bd 53 1a 38 bd
       -0.044764996 -0.03725778 -0.075902365 -0.04494698
000040 8a db 6f bd 80 73 81 3b 57 33 6f bd 2f 6a 5f bd
       -0.05855898 0.0039505363 -0.05839857 -0.054544624
000050 37 42 71 bd 33 f9 3d bd c0 41 53 bd 91 c4 2e bd
       -0.058901038 -0.046380233 -0.051576376 -0.04266793
000060 26 37 86 bc ba 45 1b bd e7 4d 8e bd c8 16 51 bd
       -0.016383719 -0.037908293 -0.069484524 -0.051047117
000070 cd 91 1f bd 78 25 40 bd 2f b8 e1 bc 84 1a 35 bb
       -0.038957406 -0.046910733 -0.027553646 -0.0027634213
000080 a8 78 80 bd 5f 09 78 bd 5d fe 2d bd 6f 2f 9c bc
       -0.06273013 -0.060555812 -0.042478908 -0.019065587
000090 e6 64 8b 3a 6b fd a8 bd 96 4c 18 bd 94 8c e3 3b
       0.0010634928 -0.08251461 -0.037182413 0.0069442485
0000a0 9c 72 a4 bd fe f7 7c 3c af 19 14 3d 8a c7 ad bc
       -0.080296725 0.015439985 0.036157306 -0.021213312
0000b0 aa d1 1f bc e4 6f 57 bd 0a b7 87 bc 79 68 75 bd
       -0.009754578 -0.05259694 -0.016566772 -0.059914086
0000c0 dc f4 5f bd ff b6 02 bd b0 76 83 bc ab 2c 94 bc
       -0.054676875 -0.0319128 -0.016047806 -0.018087706
0000d0 63 d0 4f bd 4e 78 05 bd cb 5e fa bc 6a 20 7e bd
       -0.050735842 -0.032585435 -0.030562779 -0.06204263
0000e0 8c fa 8c bd a9 7d 24 bd 14 a6 cf bc a5 75 be bb
       -0.068837255 -0.0401589 -0.025347747 -0.005812364
0000f0 71 f5 d6 bb 69 52 9c bc b0 9b a8 bd a6 d5 4a bb
       -0.0065600206 -0.019082265 -0.0823282 -0.0030950098
000100 0b 91 a8 bd 87 c0 e2 bc 4e 36 1c 3b bf 30 0f bd
       -0.0823079 -0.027679695 0.002383608 -0.034958597
000110 bc 27 2f bd 08 6a 97 bd ad c9 f2 bc bb c2 39 bd
       -0.042762503 -0.07393271 -0.029637182 -0.045351725
000120 b4 68 3a bd 3c 69 24 bd 54 22 87 bc fe a2 08 bd
       -0.04551001 -0.04013942 -0.016495861 -0.033358566
000130 93 f5 21 bd a4 74 a5 bd ab 51 77 bc 11 98 4c bd
       -0.03954084 -0.08078888 -0.015095155 -0.04994971
000140 fc 89 9d bd 8a aa 23 bd 4e 3d 8d bd c8 60 13 bd
       -0.07692334 -0.03995756 -0.068964586 -0.03598097
000150 2f 2c 8d bd 20 87 1c bd d6 e6 80 bb bd b4 76 bd
       -0.06893193 -0.038214803 -0.003933768 -0.06023096
000160 f5 e5 c6 bc 8a 5f 6b bd c7 8a a2 bd 8b 17 76 bb
       -0.024279574 -0.05746416 -0.07936626 -0.0037550654
000170 6e 78 3f bc 06 fc b4 bb bb 22 21 bc 1f 58 7d bd
       -0.0116864275 -0.0055232076 -0.009834941 -0.061851617
000180 4d 6c 88 bd 04 d8 33 3c ca 01 7a bd 93 4a 21 bd
       -0.06661282 0.010976795 -0.061036862 -0.03937776
000190 d3 c8 40 bd 1f 1b 76 bc 0a c7 c8 bc 26 b5 35 bd
       -0.04706652 -0.015021115 -0.024508972 -0.04436221
0001a0 d3 80 97 bd 0a 6c 24 bc 7d 9d 0d bd a4 5a 6c bb
       -0.07397618 -0.010035524 -0.03457402 -0.0036064768
0001b0 4e 40 da bc ab 9e 54 bd 40 3a 41 bd 63 b0 02 bd
       -0.026641991 -0.05190913 -0.047174692 -0.031906497
0001c0 2f f8 0b bc 13 65 95 bd f1 26 2d bd b5 46 80 bc
       -0.008543058 -0.07294669 -0.042273466 -0.015658716
0001d0 fa e6 93 bd 0d bc 4f bd da 84 f8 bc fe 84 67 bd
       -0.0722179 -0.05071645 -0.030336786 -0.056523316
0001e0 06 b4 03 bb 07 4c e9 bc 62 f8 a0 bd eb 4a cf bc
       -0.0020096316 -0.028478635 -0.07859875 -0.025304278
0001f0 e7 ec 43 bd 29 c3 f2 bb 79 3b ea bc 2b 19 74 bd
       -0.04783335 -0.007408519 -0.028592812 -0.059594315
000200 69 d9 ad bd 85 80 a0 3c a9 ee 4d bd ce 75 08 bc
       -0.08488733 0.019592533 -0.050276432 -0.008328868
000210 47 ca 76 bd 14 04 5a bd fb 4b 89 bd 50 6b d7 bc
       -0.0602515 -0.053226545 -0.06703945 -0.026296288
000220 cd 09 46 bd 70 a2 12 bd b6 3f 78 bd e2 ad 75 bc
       -0.04834919 -0.035799444 -0.060607634 -0.01499507
000230 c0 e0 d3 bc c9 dc 45 bd 6d 88 4d bd 17 97 db 3b
       -0.025864005 -0.04830626 -0.050178934 0.006701361
000240 b9 72 b4 bd 10 da 76 bc e5 41 3a bc 7a 88 45 bc
       -0.08810944 -0.015066639 -0.01136825 -0.012056464
000250 ce 9b 2f bd 32 39 37 bd 33 38 98 bd 79 71 8f bd
       -0.042873196 -0.04473228 -0.07432594 -0.07004065
000260 8c 52 50 3c a8 06 9e bc 84 c7 86 bd 29 f1 1d bb
       0.012714993 -0.019290283 -0.06581023 -0.0024100041
000270 a5 31 61 bd 5b 84 3b bd 93 d6 98 bd 36 ca 34 bd
       -0.054978985 -0.04578052 -0.07462802 -0.044138156
000280 31 fa 2f bb 98 19 4a bc 1f 7e db bc 24 3e 84 bd
       -0.0026852007 -0.012335204 -0.026793538 -0.06457165
000290 e5 15 81 bc a9 ae 20 bd ca 46 57 bd 3a 21 59 b9
       -0.01575751 -0.03922907 -0.052557744 -0.0002070711
0002a0 dc ee 6a bd 3d 9f e2 bc b0 9a 88 bd 50 68 34 bd
       -0.0573567 -0.027663821 -0.06670129 -0.044044793
0002b0 63 bf 74 bd 28 12 74 bd fd 29 6d bc 25 6b 48 bd
       -0.059752833 -0.059587628 -0.014475343 -0.048930306
0002c0 69 a9 c7 bc 4e 3e 19 bc ce a8 af bd e8 34 ed bc
       -0.024372773 -0.0093532335 -0.08577119 -0.028955892
0002d0 0b 51 a6 bd 8f d1 b5 bd 95 85 58 bd bc bf 57 bd
       -0.081209265 -0.08877861 -0.05286177 -0.052673087
0002e0 71 79 fa b9 66 85 e3 bc 40 32 6b bc aa 96 5c bc
       -0.00047774197 -0.02777357 -0.014355242 -0.0134636555
0002f0 2e 44 3a bc 4f 96 65 bd 9c 62 98 bd 5d 6c b2 bd
       -0.011368794 -0.05605155 -0.07440683 -0.08712075
000300 c7 69 0b 3c 65 6c 80 bc 62 d0 1a bb e9 fd d2 bd
       0.008509106 -0.015676687 -0.002362274 -0.10302336
000310 60 98 02 bd b4 60 95 bc 8c 45 a7 bd f6 f8 6e bc
       -0.031883597 -0.018234588 -0.08167562 -0.014585724

gc2.weight f4 [200, 200]
000000 d5 c9 8d bc ca 0c 03 3d 48 4d a3 3d 3d 2a c6 bd
       -0.017308155 0.03199462 0.079737246 -0.09676025
000010 1a 1d 34 3d ec c1 46 bd 8c ef b2 3d 98 a9 4f 3d
       0.043973066 -0.048524782 0.08737096 0.050698847
000020 8f 32 1f bd e2 94 70 bc 49 c2 8f bc 1f 6b 05 3b
       -0.038866576 -0.014683934 -0.017548697 0.0020358039
000030 cb 51 1e 3e e4 33 1f bd 4b 53 9e 3c 75 09 51 3d
       0.15460889 -0.038867846 0.019326827 0.05103441
000040 5e 30 b2 bc 15 9d 60 bd 12 1a 82 bd 19 0a 8e 3d
       -0.021751579 -0.054837305 -0.06352629 0.0693552
000050 11 7a 8b bc 16 36 5a bb 60 66 a7 bc d3 e4 e3 bd
       -0.01702598 -0.0033296398 -0.020434558 -0.11127629
000060 b0 45 24 be eb 8d 02 3e e4 70 66 bc 4a 4f 29 bd
       -0.16042209 0.1274945 -0.014065001 -0.04133538
000070 4a c2 c4 3d 77 35 4f bd f0 7e 0c bd 57 5b 88 3b
       0.0960737 -0.050588097 -0.034300745 0.004161279
000080 27 62 bb 3c 8f 79 13 3c dc cb 77 3c 63 49 67 3c
       0.022873951 0.00900115 0.015124287 0.014116618
000090 5e 71 3c bb 83 3e 38 bd b5 5d f0 bd 85 60 83 bc
       -0.0028754096 -0.04498149 -0.11736623 -0.016037235
0000a0 20 73 1c 3d 78 97 d2 3d c7 96 49 3c 6f fc a5 3c
       0.03819573 0.102827966 0.0123040145 0.020261971
0000b0 17 a8 fb 3d 3f 25 19 bb b3 29 6b bc ea 77 ed bc
       0.1228792 -0.0023368148 -0.014353204 -0.028987844
0000c0 27 c8 ab bd 99 26 88 3d 11 6f 10 3e ae 61 20 3c
       -0.083877854 0.06647987 0.14104868 0.009788914
0000d0 19 99 70 bc 72 3f 6c 3d 7f 6f eb bd 93 b9 11 bd
       -0.014684939 0.057677694 -0.114958756 -0.035577368
0000e0 e6 42 f7 bd 77 d4 82 3c 06 6e 3d 3d ae f7 fd bc
       -0.12073307 0.015970452 0.046247505 -0.031001892
0000f0 f3 6f 91 bd 5c ce b2 bd 71 c4 ea bd d6 74 00 3e
       -0.07101431 -0.08730766 -0.114632495 0.1254457
000100 2a d5 85 bd 6b 91 4f bd d4 65 d9 bc d0 3c cc bd
       -0.065347984 -0.05067579 -0.026537813 -0.099725366
000110 31 8f 69 3d 32 fa db 3d 32 c0 99 bc 72 01 af 3c
       0.057021324 0.1074108 -0.018768404 0.021362994
000120 86 9f 6b 3d 0d 5f ca bd 3c 3c 8c bd be 67 b3 3d
       0.05752518 -0.09881411 -0.06847426 0.087600216
000130 d2 fd 2d 3c d4 93 a0 bd e4 f5 9d bd 78 59 7e 3d
       0.0106195975 -0.07840696 -0.077129155 0.062097043
000140 13 56 92 bd e0 12 5f 3d 27 25 dc 3d 00 26 c9 3d
       -0.071453236 0.05446136 0.10749274 0.09821701
000150 83 da 75 bc 33 a9 93 3b 0a 1a 3d bc 32 8a e6 bc
       -0.015005711 0.004506254 -0.011541853 -0.028142069
000160 27 17 24 3e 7c f4 8c bd cb c1 5e 3d 38 eb 99 3d
       0.16024457 -0.06882569 0.054384034 0.075155675
000170 5f 90 53 3d f9 a5 23 3d 96 2f df bd 40 5f ab bd
       0.051651355 0.039953206 -0.10897748 -0.08367777
000180 9a 1d 71 bd eb e1 c4 bc 06 3c db 3d 2e 69 91 bb
       -0.05886612 -0.024033507 0.10704808 -0.004437587
000190 6d d3 21 3c 19 dd 8a 3d 8e a2 36 bd ca 4e 07 3e
       0.009877068 0.06780452 -0.044588618 0.1321365
0001a0 8d b5 89 3d f0 1b b0 3c cb 20 31 bb 68 17 28 bd
       0.06724081 0.021497697 -0.0027027603 -0.041037947
0001b0 f2 74 36 3d 34 2b 21 be c8 6b 40 bc dc c5 d2 3d
       0.04454512 -0.15739137 -0.011744447 0.10291645
0001c0 8b 80 cb 3d 33 bb 3f 3d 7b a6 d7 ba c9 a1 b4 bc
       0.09936627 0.046809386 -0.0016452813 -0.022049801
0001d0 46 aa 55 3d 52 eb a2 bd 92 e5 ed bd a6 7f 94 3d
       0.05216434 -0.0795504 -0.11616053 0.072509095
0001e0 b7 25 e8 3c 35 9b 93 3d 8e 55 8a 3d 17 36 7e bd
       0.028338296 0.07207338 0.067545995 -0.062063303
0001f0 6d 70 55 bd 98 9d 71 3d 69 65 61 3d 07 44 7d bc
       -0.05210917 0.058988184 0.055028353 -0.0154581135
000200 2d b9 2a 3b 71 67 4d be 57 57 5f bc 9e 65 cc 3d
       0.0026050315 -0.20058991 -0.013631663 0.099803194
000210 17 e8 0b be 19 de 27 bd e1 55 8b 3d 43 81 de 3d
       -0.13662754 -0.040983293 0.068034895 0.108644985
000220 f9 2d 37 be eb fb 4f bd 60 5d 37 be f3 1e 04 3d
       -0.17888631 -0.050777357 -0.17906713 0.032256078
000230 ee 12 7f 3d 6a b6 54 bd 0f 37 af bc 98 2e 16 bd
       0.062273912 -0.051931776 -0.021388559 -0.03666553
000240 78 05 72 3d 44 03 a2 3c e6 02 a5 bd 7d 4b d0 3b
       0.059087247 0.019776948 -0.080571935 0.006356655
000250 55 24 c0 3c 6e 24 7c bd de bb ac 3c 9f bd 48 bc
       0.023454824 -0.06155818 0.021085676 -0.01225224
000260 02 ff 48 3c 1d 17 15 3d 61 b5 78 3d a0 80 11 bd
       0.01226783 0.036398996 0.06071985 -0.035523057
000270 e4 8c 49 3c d2 73 fe 3d da 9f b5 bd 18 15 12 3d
       0.012301657 0.12424435 -0.0886838 0.035664648
000280 56 fe 42 3e d0 de 23 bd 5b 99 de bd 9d c3 27 3e
       0.19042334 -0.040007412 -0.10869094 0.16383214
000290 1d a5 0c 3b 05 46 80 3d cb 8b 71 bd 2d a7 48 3d
       0.002146072 0.06263355 -0.058971208 0.048987556
0002a0 2b 69 14 3d 70 f8 20 bd d1 af 75 3d 5c 07 60 bc
       0.03623311 -0.03929943 0.059982125 -0.01367363
0002b0 1b 41 67 bd ef 0e 69 3e b1 83 a6 bc 69 04 2a 3d
       -0.056458574 0.22759603 -0.020326467 0.041508112
0002c0 c6 0d a4 bd d8 33 2a bd c2 e2 34 bd bb 50 d6 bd
       -0.080104396 -0.04155335 -0.044161566 -0.10464617
0002d0 ca 56 4c bd 75 39 91 bc bb 4e 47 3d 42 44 d4 3d
       -0.049887456 -0.017727593 0.048659068 0.10364582
0002e0 a0 c8 a0 3c a2 66 98 bd 33 62 3b be ed 49 4e 3d
       0.019626915 -0.07441451 -0.18299179 0.05036347
0002f0 12 b1 da bd e7 9b 93 bd 66 cd 73 3d d6 11 1f 3d
       -0.10678305 -0.072074704 0.059522055 0.03883537
000300 62 d8 52 3d 9a 2e 42 bd e0 30 0d be 00 af ca bb
       0.05147589 -0.047407724 -0.13788176 -0.0061854124
000310 ae 06 b3 3d f1 c3 a5 bd 44 d5 df bc 04 f3 fc bc
       0.087415084 -0.080940135 -0.027323373 -0.030877598
000320 01 8d de bd 45 a4 c4 bd e1 c5 57 3d 56 b5 0b 3e
       -0.10866738 -0.096016444 0.052678946 0.13643393
000330 57 72 92 bd 21 82 0a 3c 89 aa ce 3d 74 4f 00 3e
       -0.07150715 0.008453877 0.10091121 0.12530309
000340 86 a1 13 be da b1 39 bc 2d 3a 46 3c 47 38 39 bd
       -0.14417085 -0.011333907 0.012098831 -0.045219686
000350 1a 03 01 3d 8c cc 03 3e 97 d1 92 3d 40 83 2d be
       0.0314971 0.12870997 0.07168882 -0.16944599
000360 fd 3a 29 3d 11 de ac ba e5 d9 a8 3d d4 f6 d7 bd
       0.04131602 -0.001318874 0.08244685 -0.105451256
000370 e7 28 f9 bd a0 b6 0a 3e 3c 1b 72 bd 6a 76 52 bc
       -0.12166005 0.13546228 -0.059108004 -0.012845615
000380 a0 21 19 3d 20 e6 00 bc 9f c2 ca 3b 23 31 c6 bd
       0.037385583 -0.007867366 0.0061877514 -0.09677341
000390 51 70 cc 3d 65 de 86 bc f2 4a 3c 3d 0c 08 b8 bc
       0.0998236 -0.016463468 0.04596991 -0.022464775
0003a0 c9 b4 95 bd 99 72 3b 3c d7 45 07 be 0c 69 24 3d
       -0.07309873 0.011440896 -0.13210236 0.040139243
0003b0 e0 b2 09 bd cc 0c 37 bd ba 40 7b 3d 1a af de 3c
       -0.033617854 -0.04468994 0.061341025 0.027183104
0003c0 f3 14 e3 bd 5b 08 ea 3c e3 8b 0e 3e 45 46 4b 3d
       -0.1108798 0.028568437 0.1392055 0.04962756
0003d0 69 fe b4 3d e6 66 84 bc db 58 9f bc b3 1a 82 bd
       0.088375874 -0.016162347 -0.01945155 -0.06352749
0003e0 8d 2c 31 3d a3 f4 98 bd fa c7 ee bc ed c2 a4 bd
       0.043255378 -0.07468536 -0.02914809 -0.08044992
0003f0 74 49 20 3c df 4c fd bd 45 a0 12 3c 99 02 4c 3d
       0.009783138 -0.123681776 0.008949344 0.049807165

gc2.bias f4 [200]
000000 65 61 a3 bb ea 0f 70 bc 95 fa 65 bc 61 6d 9e 3a
       -0.0049859756 -0.014652232 -0.014036794 0.0012087041
000010 81 d0 d9 bb 65 e5 03 bc aa 35 8c bc 1e 0c 3c bc
       -0.00664717 -0.008050297 -0.017115433 -0.011477498
000020 c9 77 36 3c e0 a5 e1 3b f4 73 8c 3c 47 47 10 3c
       0.011136957 0.006886229 0.017145135 0.008806056
000030 dc 3f a6 bb 0a d9 10 bc 64 17 ee 3c d8 c9 17 bc
       -0.0050735306 -0.008840809 0.029063888 -0.009264432
000040 1f d8 a7 bc 81 d5 1a 3d 42 d5 9f 3c c6 5e 14 bd
       -0.020488797 0.03780127 0.019510869 -0.036223195
000050 7d 65 07 bc 22 14 e9 3b 34 35 73 3c d4 c2 a1 3c
       -0.008263943 0.0071129957 0.014844228 0.019746222
000060 26 0d c3 38 c7 52 eb bc 05 50 b2 bb 3c b9 c9 3b
       9.300774e-05 -0.028725995 -0.005441668 0.006156115
000070 8a b4 81 bc b1 78 5b bc d2 67 1a 3c 37 11 a1 bc
       -0.015833158 -0.013395474 0.009424167 -0.019661529
000080 e4 44 02 3d 2d 03 4a 3d cb 2b 1d bd e3 e9 b9 3c
       0.03180398 0.049319435 -0.038371842 0.022694534
000090 b3 67 a2 3c bb 37 a2 bc 58 19 3b 3c b3 48 b0 bc
       0.019824838 -0.019801965 0.011419617 -0.02151904
0000a0 f6 86 a2 bc eb 66 f1 3b 8b 2b 2e 3c c3 6f 4b 3c
       -0.019839745 0.007367005 0.010630499 0.012416783
0000b0 ae c7 22 bc dd 1c 69 3c 02 1f c8 bc 67 bb 30 3c
       -0.009935303 0.014228073 -0.024428848 0.010786868
0000c0 67 99 5f ba 7a 1d 18 bc 4d 3c d0 3a 43 9c 8b 3c
       -0.00085296336 -0.0092843715 0.0015887112 0.017042285
0000d0 6f d0 3b 3c de 6b 24 bd e1 46 8f bc 51 99 3f 3c
       0.011463269 -0.040141933 -0.017489852 0.011694268
0000e0 6e ab dc 39 43 a2 10 bc b0 26 ac ba 49 dc 8c 3c
       0.00042089395 -0.008827749 -0.0013134088 0.017194884
0000f0 52 95 97 bc 9f 99 bc bc 76 c9 57 3c 5e 76 e0 3c
       -0.018503819 -0.023022471 0.013170591 0.027400192
000100 7f 45 20 bb b1 5c b9 bc e7 d0 26 3b cc 32 ad bc
       -0.0024455485 -0.022627207 0.0025454105 -0.021142386
000110 fb 86 7a bc 44 cf dc ba 2a 48 56 3b f3 da 64 bc
       -0.015290971 -0.0016846438 0.0032696822 -0.013968217
000120 bf 5a bc bc 00 30 c0 39 05 c9 97 bb 54 ec 66 3d
       -0.02299249 0.00036656857 -0.0046321177 0.056377724
000130 69 91 29 bc 86 46 85 3c 8a a5 02 bc 47 e1 92 bc
       -0.01034961 0.01626898 -0.007974038 -0.017929686
000140 94 63 9a bc 7d 7a 4c bc c0 81 5e bc 59 f7 5e bc
       -0.01884631 -0.012480375 -0.0135807395 -0.013608777
000150 85 62 08 3b 60 d6 04 3c 23 87 56 bc 03 81 7a bc
       0.0020810675 0.008107752 -0.013093743 -0.015289548
000160 f8 0e 52 3d 37 2d 36 3c 68 47 0b 3c 60 5f 3b 3b
       0.051283807 0.0111191785 0.008500911 0.0028590783
000170 7a c8 b2 3c 2a 62 18 3c e5 45 24 bb 1f 98 14 3c
       0.02182411 0.009300748 -0.0025066074 0.009069472
000180 aa db 69 3c 0a 9d 34 3d 13 54 70 3c 4e e6 c9 3c
       0.014273563 0.044095077 0.014668482 0.02464595
000190 52 a5 01 3d 88 a1 ed 3c 03 cf a6 37 56 c1 5d 3d
       0.031651802 0.029007688 1.988514e-05 0.054139458
0001a0 5d 0e d0 3c 88 86 2f bb 34 94 c7 bc b1 2a 57 bc
       0.025397474 -0.0026783068 -0.024362661 -0.013132737
0001b0 78 d0 18 3c 40 07 39 3d 62 80 0c 3d c0 a3 96 3c
       0.009327047 0.04517293 0.034302123 0.018388629
0001c0 71 c4 d1 3a b4 b7 c9 3b af 64 08 3d 27 b7 28 3c
       0.0016003979 0.0061559323 0.033299144 0.010297573
0001d0 16 49 26 b9 40 dd 18 3c e9 4d 4d 3b 99 6c ff 3b
       -0.0001585822 0.009330094 0.0031326956 0.0077949283
0001e0 44 71 f1 bc 5d 7b ca 3c 25 07 2e bc 8e ea 11 bd
       -0.029472955 0.024717027 -0.010621821 -0.03562408
0001f0 7f 88 28 3d e1 1c b2 bc 42 ec 82 3a 2d d5 0f 3a
       0.041145798 -0.021742286 0.0009988623 0.0005486783
000200 db 3c ab bb 08 d2 a1 3c a5 8f f0 bc 4b 64 54 3d
       -0.0052257604 0.019753471 -0.02936537 0.05185346
000210 75 fe 23 bb ff 98 85 bb 25 5b 5b 3c bb 1b 16 3d
       -0.0025023494 -0.0040770764 0.01338843 0.03664754
000220 e5 13 07 bc 97 aa 8d 3c 3b 1c 84 bc c4 bc a0 3b
       -0.008244489 0.017293258 -0.016126743 0.004905315
000230 7a 5c 75 3b cc b6 cd bc 30 bd 21 3d b0 53 f9 bc
       0.0037439154 -0.025111578 0.039487064 -0.030435413
000240 d8 4d c1 3c 71 ab 34 bc d9 fd 21 bd e9 4c 39 3c
       0.02359669 -0.011027203 -0.03954873 0.011309841
000250 71 6d 41 3c d3 29 f6 bc e6 0b 07 3c 47 f0 89 bc
       0.011805878 -0.03004924 0.008242583 -0.016838206
000260 ed 57 5b bc 77 26 ee bc 6e 38 5e 3a 92 e4 b3 ba
       -0.013387662 -0.029071076 0.00084770366 -0.0013724735
000270 10 a3 10 3c ed 7b fc 3c fe 1b d1 3c 1f 80 5b 3c
       0.00882794 0.030820811 0.025526043 0.013397246
000280 c0 75 1a 3c 48 5d 17 3d 30 5f 97 3b c2 95 52 3c
       0.009427488 0.036954194 0.0046195015 0.012853088
000290 60 71 0d 3d b7 28 11 3d 09 6a 03 3d 2a 4f 14 3a
       0.03453195 0.03543922 0.032083545 0.00056575483
0002a0 07 f7 3c bb a4 bd 8c bc d0 be d6 3b c3 fa 91 bc
       -0.0028833763 -0.017180271 0.0065535083 -0.017819768
0002b0 6d 0b db 3c dc c0 75 3a 1b 97 50 bc ca 73 fe bc
       0.026738847 0.00093747466 -0.012731339 -0.031061072
0002c0 36 0e cf bb ca 58 44 3c ae c2 f0 3b 5c 34 27 bc
       -0.0063188327 0.01198406 0.0073474264 -0.010205355
0002d0 38 b7 b9 bc 07 a5 26 3d 80 d4 0e 3c 13 09 03 3c
       -0.022670373 0.040684726 0.008717656 0.007997769
0002e0 8a c7 48 3d f0 99 8a bc 25 47 a4 bb 56 e8 dd ba
       0.04901842 -0.016919106 -0.005013364 -0.0016930203
0002f0 d4 32 62 bc f6 01 2b 3c 7e ab 86 3c 1c bc 00 bd
       -0.013806064 0.010437479 0.016439196 -0.031429395
000300 9a 26 9d bc 0c b3 79 bc ef 6c 9c bc f8 9f f1 3b
       -0.019183446 -0.015240442 -0.019094912 0.007373806
000310 4a 20 55 bb 6d 30 0a 3d fe 10 2f 3c cb aa ef 3b
       -0.0032520466 0.03373759 0.010685204 0.0073140613

gc3.weight f4 [200, 100]
000000 a2 1f d2 bd d1 ed e5 bb ed 90 f6 3c 25 84 dd bd
       -0.1025994 -0.0070168753 0.030098403 -0.1081622
000010 fc 2a 35 3e 6f 95 8f bd 56 7b 19 3d 72 cf 37 3d
       0.17692178 -0.07010924 0.037471138 0.04487557
000020 8a 9a 42 3d 25 b1 df 3d d5 1d cb bd de 69 e9 bd
       0.04751066 0.109224595 -0.099177994 -0.11397146
000030 99 72 c1 bd 70 8d 91 ba ca da 8e 3d c9 de 98 bc
       -0.09445686 -0.0011104774 0.069753245 -0.01866092
000040 76 3e 17 bd be 50 72 3b 28 5c 3f bd 66 d3 b8 bd
       -0.0369248 0.0036974396 -0.046718746 -0.09024696
000050 4a 29 d9 3b 3e 2e 3a bc 8f 93 66 3d da ef 47 3d
       0.0066272365 -0.011363564 0.056293067 0.048812725
000060 af b1 ed 3d 36 a4 69 3d 0c 7e 34 3d 57 81 58 bd
       0.11606156 0.05704137 0.04406552 -0.052857723
000070 2d 6a 2e bd 04 c6 ca 3d 1b b9 f6 bd 69 05 44 bd
       -0.042581726 0.0990105 -0.12047025 -0.047856722
000080 d7 4d 05 be 88 9d 44 bd 96 43 8b 3d 50 9c 92 bc
       -0.13017975 -0.048001796 0.068 -0.017896801
000090 07 a4 ce bd 57 c1 6b bd c3 ea 12 3d 07 a9 d2 39
       -0.100898795 -0.05755743 0.035868417 0.00040180256
0000a0 c4 68 14 bd 9f 42 f4 bd 0f 30 82 3d e7 37 66 3d
       -0.036232725 -0.119267695 0.06356823 0.056205656
0000b0 45 39 51 be 48 bd e0 3c e0 3b 1a 3e 2e fb d7 bd
       -0.20432003 0.027434006 0.15061903 -0.105459556
0000c0 73 13 65 3d e2 fd 8c 3e ba 7f de 3d af 79 ae bd
       0.05592675 0.27537447 0.10864206 -0.08519303
0000d0 15 ec ea bd e4 6c 27 3e 25 6c bc bc a4 0c a9 3c
       -0.1147081 0.16350132 -0.023000786 0.02063591
0000e0 f8 8a e1 3b 39 80 14 3d 1e 9b b5 bd 26 1e 15 be
       0.0068830214 0.036255095 -0.08867477 -0.14562282
0000f0 e4 ef 82 bd 9d 5b ac 3d 5a 2e 95 3c 52 19 37 3d
       -0.06393412 0.08415911 0.018210579 0.04470188
000100 92 ef 6e 3b 95 43 9e bd 4d e6 7a 3d 3e 6f a1 3d
       0.0036458713 -0.07727734 0.06125479 0.07882546
000110 62 1c 15 bd b8 d1 0c 3e 67 7d e0 3d d4 53 2a be
       -0.03640402 0.13751876 0.109614186 -0.1663354
000120 78 95 37 3d 9d ef 71 3d dc 9c 8d bd ec 68 1a bd
       0.04482028 0.059066404 -0.06914684 -0.037697718
000130 6d cf 4a 3d d0 4f 2e be 0a 12 5f be 31 ea ac 3d
       0.049514223 -0.17022634 -0.21784225 0.08443106
000140 c3 1f 0b bd e5 ab ae bd 64 82 32 bd 24 15 ee 3d
       -0.033965837 -0.0852888 -0.04358138 0.11625126
000150 37 92 af bd 74 35 12 3e 9b cb 07 3d 93 98 09 3e
       -0.0857281 0.14278203 0.033153158 0.13437109
000160 a0 ca 9b bd 37 cb 42 3c bd a9 8f bd 6c 3b 6a 3d
       -0.07607007 0.0118892705 -0.07014797 0.057185575
000170 6d d9 7c bd d6 d0 01 be cd 11 66 bc 8c c2 3b be
       -0.06173079 -0.12677321 -0.01404233 -0.18335932
000180 81 83 cc 3c 08 31 5b 3c d1 d0 ed 3d b7 9e d3 bd
       0.02496505 0.013378389 0.11612094 -0.10333007
000190 b1 7d f1 bd e1 7b aa bd 0f a7 8e bc 9e 54 b7 bd
       -0.11791552 -0.08324409 -0.017413644 -0.08951686
0001a0 4c d7 a5 3c c1 ed f7 3d 75 99 ad bd 68 92 c0 bc
       0.020244263 0.12105895 -0.08476535 -0.023507312
0001b0 3b c1 58 bc 00 fa 30 bb 3a 4c 25 3d 12 c2 f7 3c
       -0.0132296635 -0.002700448 0.0403559 0.030243907
0001c0 4a db 19 3b 59 9e 11 3d b8 8c 1c 3e 4a 70 a2 3c
       0.0023476654 0.035551403 0.15288055 0.019828934
0001d0 6c 94 29 3d 96 4a 62 3d 6a 7b b6 3d 1e 8b 29 bd
       0.04140131 0.055246912 0.08910258 -0.041392438
0001e0 17 46 cb bd 7c dc d4 bd 15 f7 66 3d 05 34 d0 3d
       -0.09925478 -0.103936166 0.05638798 0.10166172
0001f0 1d 8b 94 bd 57 3d 29 3d 0e c8 49 3e 7a 1c 05 3d
       -0.07253096 0.041318264 0.19705221 0.03249786
000200 cf 60 01 3d 66 de c2 3d ed a9 22 3e 38 c6 1d be
       0.031586464 0.095150754 0.15885134 -0.15407646
000210 9a 4c 95 bc 77 89 97 3c 9e b9 9d bc 41 ab ac ba
       -0.018225003 0.018498166 -0.019253548 -0.0013173596
000220 ef 88 f2 3c 72 4f 3f bd a6 8d 24 bd fa 07 64 bd
       0.02960631 -0.046706624 -0.04017415 -0.05567167
000230 a6 55 e5 bd 06 9d 52 bd 44 0b d0 bd 0e 79 15 bd
       -0.11197977 -0.05141928 -0.10158399 -0.0364924
000240 f9 22 86 bc f9 43 08 3e 52 8c 19 3e 8f 4d 09 3e
       -0.016374098 0.1330718 0.14994934 0.13408493
000250 17 56 ed 3d 9b 69 1c 3c f8 06 00 bd 25 84 2e 3d
       0.11588686 0.009546663 -0.031256646 0.04260649
000260 20 d8 49 bd 95 1c 2b 3d 36 72 b1 bc eb 0d b7 bd
       -0.04927838 0.041775305 -0.021660905 -0.089382015
000270 79 0f 8c bd 57 07 72 bd e7 d9 43 bd 01 fb 24 bd
       -0.06838889 -0.05908903 -0.04781523 -0.04027844
000280 6a cb 81 bd 52 b4 31 3c 91 ab c1 bc af fa 48 3d
       -0.06337626 0.010846214 -0.02364138 0.049067196
000290 43 64 66 3d 17 d0 15 be 75 88 63 bd d1 19 06 bd
       0.05624796 -0.14630161 -0.055550057 -0.032739464
0002a0 21 ba 48 3e a2 b0 de 3c a5 1a 38 3e 31 13 0e be
       0.19602253 0.027183834 0.17978914 -0.13874508
0002b0 a7 a8 a3 bb fd 00 97 bd f8 a3 8e 3d 65 2f 63 bd
       -0.00499447 -0.073732354 0.06964868 -0.05546512
0002c0 a2 bb 3c 3a 6f 3a a9 3c a6 5c eb bc af 1c 80 bd
       0.00071995903 0.020657746 -0.028730702 -0.06255471
0002d0 8b cc 3d bc 6a 31 a9 3d 5a 1e fb ba 6d 89 c1 bc
       -0.011584411 0.08261378 -0.0019158826 -0.0236251
0002e0 9b 80 77 3e 03 8f 17 3c 87 d0 a3 3d 30 f7 a1 3d
       0.24170153 0.009250405 0.07998758 0.079084754
0002f0 49 74 05 3e 5b 08 22 3d 72 31 f3 bd 78 85 85 3d
       0.1303264 0.03955875 -0.11874665 0.06519598
000300 a5 d2 95 bd 5b b3 b0 3d ba 3e a8 bd 67 12 80 bd
       -0.07315568 0.08627959 -0.08215089 -0.0625351
000310 a7 a2 6a bc 8d f7 b5 bd bc 58 8e 3d ee 94 8b 3d
       -0.014321006 -0.08885107 0.069505185 0.068155155
000320 15 2d f0 bc e7 e7 1a 3e 65 77 18 3c 25 82 95 3d
       -0.029318372 0.15127526 0.00930581 0.07300214
000330 97 35 83 3d b8 ee a3 3d ab 8e 3c 3d 20 d3 ba bd
       0.06406706 0.08004516 0.046034496 -0.091223
000340 3b 89 ff bb 6d 72 c9 3d d7 f1 fb bc 56 09 93 3d
       -0.0077983416 0.09836278 -0.030754967 0.07179515
000350 5b ab 55 bd e7 12 5a 3d 73 d9 69 3d 41 09 51 3d
       -0.05216537 0.053240683 0.05709214 0.051034216
000360 50 8b b6 bd d5 1c 27 be 35 94 66 be 3d e6 16 3c
       -0.089132905 -0.16319592 -0.22517474 0.0092101665
000370 a2 b0 f3 bd 2a ae ec 3d 72 96 28 be e0 a6 83 3c
       -0.118989244 0.11556657 -0.1646364 0.016070783
000380 12 de ce 3d 7b 22 7c 3d 65 43 d2 3d 81 24 29 3e
       0.1010095 0.06155632 0.10266761 0.16517831
000390 fe 87 96 3d 8d 73 7a bd 07 79 c5 bd 3f 0a 0d 3d
       0.07350157 -0.061145354 -0.09642225 0.0344336
0003a0 6c 14 8c bd 74 ed f3 3b 11 b8 0a 3e 0d 77 45 3d
       -0.06839833 0.007444078 0.13546778 0.04820924
0003b0 7c b1 33 3d 94 22 d5 bc 3b 6f e3 3d d6 f9 96 3d
       0.043870434 -0.026017465 0.111052 0.07371871
0003c0 09 6b 9f bd 61 bc 5b bc 10 1b d3 bd d5 b2 12 3d
       -0.07784087 -0.013411612 -0.10307896 0.03581508
0003d0 6c fb 23 3d 89 04 99 3d c5 72 df 3d e8 a7 a1 38
       0.040034696 0.07471568 0.109105624 7.708353e-05
0003e0 98 f3 d8 bc 79 80 fb 3d e0 4f 1e 3d e0 61 60 3c
       -0.026483342 0.122803636 0.038650393 0.01369521
0003f0 a3 ff 80 3d df b2 f3 3b be 04 e4 bd 6c b1 22 be
       0.06298759 0.0074370946 -0.11133717 -0.15887994

gc3.bias f4 [100]
000000 65 36 62 bc 0c 6f 93 bc 2d 28 59 bc c7 21 03 3d
       -0.013806914 -0.017997287 -0.013254208 0.032014634
000010 75 9c 58 bc 31 1f 75 3c 39 31 f5 3b a6 96 28 bc
       -0.013220896 0.01496105 0.0074826744 -0.010289824
000020 61 b4 7f bc 10 03 3a 3c 9b 41 42 bc 0e d6 5b bc
       -0.0156069705 0.011353269 -0.011856462 -0.013417734
000030 37 bb c6 bc 17 6f 8f 3b 87 83 59 bc 71 ab 31 bc
       -0.024259193 0.0043772566 -0.0132759875 -0.0108440975
000040 b1 08 76 3b 28 ab 51 3c 9a 65 e5 bc 83 f8 37 bc
       0.0037541802 0.0127971545 -0.028002549 -0.011228683
000050 f5 55 0c bd 59 be 5a 3c ae 31 84 3c 52 11 88 bc
       -0.034261663 0.0133510465 0.01613697 -0.016609821
000060 66 c4 df bc de 1a 82 bc 68 90 8b bc d5 51 de bb
       -0.02731533 -0.015881952 -0.017036632 -0.0067846575
000070 11 c9 92 bc 9f 25 d2 bc 83 22 17 bb 98 3b f0 bc
       -0.017918142 -0.025652705 -0.0023061342 -0.029325292
000080 90 05 6b 3c 5e bb 52 3c 3b 18 36 bc d3 d2 1e 3c
       0.014344588 0.012862055 -0.011114175 0.009693819
000090 dd 38 c3 bc f5 54 98 3b 17 1e a5 bc ef 8d e1 3b
       -0.023830825 0.0046487995 -0.02015595 0.006883375
0000a0 2a 24 3c 3c 49 6b a4 bc 06 11 af 3a 47 14 61 bc
       0.011483232 -0.020070689 0.0013356514 -0.013737745
0000b0 6a 3a 4a bc 42 ac 58 3c 68 8f 24 3c 54 36 ec 3b
       -0.012343029 0.013224663 0.010043956 0.007208625
0000c0 c7 a0 2c 3a 35 72 0b bc b6 bf a2 3c 0c 9e 91 3c
       0.0006585237 -0.008511116 0.019866806 0.017775558
0000d0 ed 6e 77 3c 7d fd 0a 3b c1 b3 aa 3b 08 2f 35 3b
       0.01510213 0.002120822 0.0052094166 0.002764644
0000e0 8a 82 8b 3c 1f ee ea bc 37 d1 6a bc 58 55 a6 bb
       0.01703002 -0.028677998 -0.014332107 -0.0050760917
0000f0 34 77 4b bb c1 8f bf 3b be b9 e1 3b 0b 6f 77 bc
       -0.0031046392 0.005845994 0.0068885973 -0.015102158
000100 3a 88 81 3c c8 6f 1a bc 6c 97 eb bc 63 4f 35 bb
       0.015812028 -0.009426065 -0.028758727 -0.0027665726
000110 47 5c f6 bc ad 89 f3 bc 46 79 98 bc 4e f1 62 bc
       -0.030073298 -0.029728735 -0.018612515 -0.013851477
000120 ff 68 f6 bc 26 16 46 bc 97 bb 51 bc 90 e3 d0 3b
       -0.030079363 -0.012090242 -0.012801073 0.006374784
000130 24 8a 95 bc 5b 12 7c bc a2 07 f8 3b 26 d6 b7 3c
       -0.018254347 -0.015385236 0.0075692693 0.022440981
000140 46 ce 8c ba 7f 7e 72 ba e6 de ed bc 17 55 ba bc
       -0.0010742627 -0.0009250417 -0.02903695 -0.022745652
000150 67 b2 e4 3b b7 07 e0 bc 86 e7 aa 3c 36 70 af bc
       0.006979275 -0.027347429 0.020862352 -0.021415811
000160 49 52 44 3c 2d 94 5c 3c 0c 07 b0 b9 b0 ca a4 3b
       0.011982509 0.013463062 -0.00033574586 0.005029045
000170 58 25 03 bc b7 f2 e3 bc b0 92 f2 bb ac 84 6e bc
       -0.008004509 -0.027825696 -0.0074027404 -0.014557999
000180 49 5a 95 bb dc 0a b0 bc 01 b4 70 3b 0e 93 5d 3c
       -0.004557882 -0.021489553 0.0036728384 0.01352383
