best_models/MOGONET/fold_1/C1.pth (torch, 1895 bytes, 2 tensors)

clf.0.weight f4 [2, 100]
00000000: 59aa 953d 368f 5cbe 7130 91bc 8e88 97bb
00000010: 771c 4e3d daa6 643e f4e0 a3be e064 903e
00000020: d5fe 19bd 2134 03bc 0756 42be c36d 21bc
00000030: d5ed 90bd 0dd8 103d 214a ed3d 9b30 53bd
00000040: 07be f0bc 42f8 973e 5ec1 f2bc 3eb0 8d3b
00000050: 1ed4 c33d 7679 973e 3654 ae3e 76c1 523e
00000060: 8f22 803e 53d4 60be ce73 f5bd 9ad6 f03d
00000070: ea12 28bc 76a2 13be 64a9 2e3e 0242 473e
00000080: c222 53be 9e66 0b3e cfb8 363e f5d9 9dbd
00000090: 2b93 513d 2917 453e 6885 b6be 12cd 1fbe
000000a0: 57cd 00bd c6b1 9abe e311 8abe 1e5e a83e
000000b0: 341b 4e3e 0b80 aabc dc0a 82be d33b bfbd
000000c0: 91b9 113d b72d acbb 9561 8e3e beda a93e
000000d0: 30ce f0bd 8065 083e be39 b9bd 3fde 873e
000000e0: 7ff5 5e3e ef47 343e e376 043e 0666 88bd
000000f0: 7f54 4f3e af72 443e b03c 8c3d ef12 753e
00000100: 151a 553e 9a89 00be 02cc 803e 4e97 2dbd
00000110: f9c9 923d 063c 4c3d 91f5 1fbd e322 0f3e
00000120: c84c fdbc 1432 b23d b20d b7bc ab85 78be
00000130: bc47 d3be 37a0 153e 39f6 3a3e 137b 073e
00000140: 82d6 9dbe dfc2 2c3d 386b 5f3e e97a 1e3d
00000150: 59f4 39be 0f70 333c bca6 8b3d 6c0a b13e
00000160: 9d74 03bd af95 bbbd 9f46 be3e 0c29 33be
00000170: ce9b c63d 6adc b7bd 611c aabd 748e 81be
00000180: 4fa3 77be 965b a5be c4d4 2a3e a4cb 49be
00000190: de37 ccbc 2164 813d f740 72be f91a 723e
000001a0: 2eb0 fe3c 0bd9 dc3d af8f c73d 53b9 03be
000001b0: f8c3 ce3d fcd3 35be 23d1 41bd 6766 37be
000001c0: 2f0b 803e 5a90 56be f270 8abd f800 32be
000001d0: eac9 0cbe 6625 b93e 21b7 94bd 506a 56be
000001e0: 4a53 5e3c 21f3 0fbe 9540 69be d041 673d
000001f0: b5d2 2cbe 8b8d ba3d 26af 7dbe 5b76 0cbc
00000200: bd0b 273d ce9d d93d 2ff0 5b3e 98ec 54bc
00000210: 7303 2c3c 8166 8ebd d542 883d c7ec 163e
00000220: 3e8e 97bd 9291 84be d4c4 5a3e e35b ab3c
00000230: 8661 0abe 00ee ec3d a1ca 5fbd b785 0dbe
00000240: e91e 05bd 8560 793e 6030 063d fb8a 02be
00000250: 184f 5c3e 0979 4a3e d24b 19be 4dea f5bd
00000260: 1ab9 083d 92cf a2bd 94f9 58bc dafa 8ebe
00000270: 0679 97bc 6e4a 9b3d 4ff0 4c3e fa42 5e3d
00000280: c22d acbe 2fcc a9be 9929 43bd f110 b3bd
00000290: cfdb 6a3e cedb 8d3e 13e2 03bc f110 283e
000002a0: 1837 0b3e c78a b4be 12df 0d3e 5ce2 6fbe
000002b0: 637b 873e f27c 7e3e 9336 02be bb24 153d
000002c0: efbb 13bd cb8b d8bd e495 5dbd 873d 9cb9
000002d0: 4cf1 803e c306 9abe 3164 9e3d f054 ebbe
000002e0: b301 c83d 37a2 43be a1cd 3dbe d936 0dbe
000002f0: f257 06be d665 a13d 78e5 d2bc d22b fa3d
00000300: 3348 9dbd bb63 4bbd b536 423e 889f 043e
00000310: f32a 0e3d 5ee8 613e 3b7f 67bd dd15 7e3e
0.07307882 -0.21539006 -0.017723294 -0.004624433 0.050320115 0.22329274 -0.32007563 0.28201962
-0.037596542 -0.008008034 -0.1897813 -0.009852829 -0.07076613 0.035362292 0.115864046 -0.051560026
-0.029387487 0.29681593 -0.02963322 0.004323988 0.095619425 0.29584855 0.34048623 0.20581612
0.25026366 -0.21955995 -0.119849786 0.11759682 -0.010258416 -0.14417443 0.17056805 0.19458774
-0.20618728 0.13613364 0.17843936 -0.07707588 0.05116574 0.19247116 -0.35648656 -0.15605572
-0.031445827 -0.30213755 -0.2696677 0.32884306 0.20127565 -0.020813009 -0.2539891 -0.093375824
0.03557736 -0.005254473 0.27808824 0.331747 -0.11758077 0.13319969 -0.090442166 0.26536748
0.21773337 0.17605565 0.12935977 -0.066600844 0.20247076 0.19184373 0.06847513 0.23933004
0.20810731 -0.12552491 0.25155646 -0.042380624 0.071674295 0.04986193 -0.03905255 0.13978152
-0.030920401 0.08700958 -0.022345398 -0.2426974 -0.41265666 0.14611898 0.18257989 0.13230543
-0.3082772 0.04217803 0.21818244 0.038691435 -0.18159617 0.01095201 0.068189114 0.34578264
-0.032093633 -0.09159409 0.37163255 -0.17496127 0.09697686 -0.089775875 -0.08306194 -0.25303996
-0.24183391 -0.32296437 0.16682726 -0.19706589 -0.024928983 0.06317926 -0.23657595 0.23643102
0.031089868 0.10783585 0.09744202 -0.12863664 0.10095972 -0.17756647 -0.04731859 -0.17910157
0.25008532 -0.20953503 -0.06759824 -0.17383182 -0.13748899 0.36161345 -0.072614916 -0.20938993
0.013569662 -0.1405759 -0.22778542 0.056459248 -0.16877253 0.091090284 -0.24773845 -0.00857314
0.04078268 0.10625802 0.21478342 -0.0129958615 0.010498869 -0.06953145 0.06653372 0.14738761
-0.074001774 -0.2589231 0.21364146 0.020917838 -0.13513765 0.115688324 -0.0546366 -0.1382054
-0.03250018 0.24353226 0.032760978 -0.1274833 0.21514547 0.19772734 -0.1497033 -0.1200758
0.03337965 -0.07949747 -0.013243098 -0.2792576 -0.018490326 0.07582556 0.20013545 0.054263093
-0.3362866 -0.33163592 -0.047647092 -0.08743466 0.22935413 0.2770676 -0.008049506 0.16412713
0.13595235 -0.3526213 0.13854626 -0.23426193 0.26461324 0.2485235 -0.12716131 0.036411982
-0.0360679 -0.105735384 -0.054098025 -0.0002980048 0.25184095 -0.30083284 0.07733954 -0.4596324
0.09765949 -0.19104849 -0.18535472 -0.13790454 -0.13119486 0.07880752 -0.025744185 0.12215389
-0.076797865 -0.049655657 0.18966182 0.12951481 0.03470893 0.22061297 -0.05651782 0.24813028

clf.0.bias f4 [2]
00000000: ff15 bbbc fe13 bb3c
-0.022837637 0.022836681
