best_models/MOGONET/fold_1/C2.pth (torch, 1895 bytes, 2 tensors)

clf.0.weight f4 [2, 100]
0	0xbebcae3d	-0.36851683
1	0x3e28cf72	0.16485384
2	0xbda67e7d	-0.081295945
3	0x3e367667	0.17818604
4	0xbcdbbf79	-0.0268247
5	0x3e8cdf0c	0.2751392
6	0xbc7e209d	-0.015510705
7	0xbd2b0b78	-0.041758984
8	0x3e9d748c	0.3075298
9	0xbc1c743b	-0.009549196
10	0x3d05f29d	0.032702077
11	0x3e870b74	0.26375926
12	0xbe531994	-0.20615226
13	0xbe763b13	-0.24045973
14	0xbe06508d	-0.13116665
15	0xbe3910ac	-0.18072766
16	0x3e8f4ea5	0.2798969
17	0x3c06dab8	0.008230858
18	0xbe06cc00	-0.13163757
19	0x3d92c7c1	0.07167006
20	0xbd69fd90	-0.05712658
21	0xbe5a8c5c	-0.21342605
22	0x3db79e66	0.08965759
23	0x3c80ff7c	0.015746824
24	0x3e202c88	0.15641987
25	0x3df7346b	0.12070545
26	0x3e25b87c	0.16183656
27	0xbbc82436	-0.0061078323
28	0x3e5c3d4e	0.21507761
29	0xbe0f7f61	-0.14013435
30	0x3d94484d	0.07240353
31	0x3c294eb9	0.01033371
32	0xbeb54430	-0.35403585
33	0xbd59bffa	-0.0531616
34	0x3e3ddac0	0.18540478
35	0x3ccd0ba4	0.025029965
36	0xbe62963e	-0.22127625
37	0xbe98d137	-0.29847118
38	0xbd0d6bc7	-0.034526613
39	0x3cca84a3	0.02472145
40	0x3c307535	0.010770132
41	0x3e420acf	0.18949436
42	0xbe496ea5	-0.19671114
43	0xbdb640b4	-0.0889906
44	0x3e16ca11	0.1472552
45	0xbe863f5a	-0.26220208
46	0x3eb33983	0.35004815
47	0xbc39aa80	-0.011332154
48	0xbded3d05	-0.11583904
49	0xbc55a735	-0.013040354
50	0xbe0509f0	-0.12992072
51	0xbe6592b9	-0.22419252
52	0xbdfac485	-0.122445144
53	0x3e1f10de	0.15533778
54	0xbe44e3c0	-0.19227505
55	0xbdf65cc2	-0.12029411
56	0xbcb34e1d	-0.021887833
57	0xbd4844e3	-0.04889382
58	0xbd8f8d66	-0.070093915
59	0x3e7b9672	0.24569109
60	0xbdadc729	-0.084852524
61	0xbc0154c3	-0.007893744
62	0xbe8f5b54	-0.27999365
63	0x3e39bb43	0.18137841
64	0xbe763c60	-0.24046469
65	0x3e2ca080	0.16858101
66	0x3e3bd25e	0.18341967
67	0xbda6c3ad	-0.08142791
68	0xbe82e252	-0.25563294
69	0xbdb0a766	-0.08625679
70	0x3df86c89	0.121300764
71	0x3cc46972	0.023976061
72	0xbe4224c8	-0.18959343
73	0xbe6cfae0	-0.23142576
74	0x3e0f5fe5	0.14001425
75	0xbda811c9	-0.08206517
76	0x3e020ee3	0.12700991
77	0x3dccba9f	0.09996533
78	0x3ebedd21	0.37278083
79	0xbde96583	-0.11396315
80	0xbe7a5b8d	-0.24448986
81	0x3d54f4b6	0.051991187
82	0xbe2f02cd	-0.17090912
83	0x3e1fabba	0.15592852
84	0x3dc718bb	0.09721514
85	0xbe5fa9fe	-0.2184219
86	0xbe6b30e7	-0.22967874
87	0x3d619bac	0.0550801
88	0x3e1e2e51	0.15447356
89	0x3bab2540	0.0052229464
90	0xbe30a886	-0.17251787
91	0xbc045170	-0.008076057
92	0x3d63c093	0.055603575
93	0xbe6a4cbd	-0.22880836
94	0xbe0d7673	-0.13814716
95	0x3f04620f	0.51712126
96	0x3e354b87	0.17704593
97	0xbd95fb21	-0.0732329
98	0xbe3a3df5	-0.18187697
99	0x3c91bed1	0.017791184
100	0x3d269cbf	0.04067683
101	0xbb932cba	-0.004491416
102	0xbd83c16d	-0.064333774
103	0x3cf4b936	0.029873472
104	0xbd2d43cb	-0.04230098
105	0xbc9eb62d	-0.019373978
106	0xbd5ae3e1	-0.05343998
107	0x3e9ced15	0.3064963
108	0xbe91e899	-0.2849777
109	0x3d8b1222	0.06790568
110	0x3db68b0b	0.08913239
111	0xbd40359b	-0.046926122
112	0x3ea7acda	0.32749063
113	0x3e57ee92	0.21087101
114	0x3d86ecb7	0.065881185
115	0x3e249956	0.16074118
116	0x3e19a982	0.15006068
117	0x3debea6f	0.11519324
118	0xbdf3ee37	-0.1191067
119	0xbe2626f9	-0.16225804
120	0xbc3bcc49	-0.01146228
121	0x3d9657dd	0.07340977
122	0x3e8dbfdd	0.27685443
123	0x3e899dad	0.2687811
124	0x3c288c2a	0.010287324
125	0x3d5a92bc	0.053362593
126	0xbdace801	-0.08442689
127	0xbc56c392	-0.013108151
128	0xbe76118e	-0.24030134
129	0xbda3813a	-0.079836324
130	0xbe6e12e0	-0.23249388
131	0x3e3f2736	0.18667302
132	0x3d0f378d	0.034965087
133	0xbdf775f3	-0.12083044
134	0xbda87751	-0.08225883
135	0xbea414bc	-0.3204707
136	0x3e9e2841	0.30890086
137	0x3e2a6c2f	0.16642831
138	0xbe8538d4	-0.2601992
139	0x3e2e28b0	0.17007709
140	0x3de31afc	0.11089131
141	0x3e67a668	0.22622073
142	0xbba75254	-0.00510625
143	0x3df27db9	0.11840386
144	0xbdcfcf6c	-0.101469845
145	0xbe2a593d	-0.16635604
146	0xbe9c69f4	-0.30549586
147	0xbdbf57a7	-0.0934289
148	0x3e0eecde	0.13957545
149	0xbe293d6e	-0.1652734
150	0x3e144164	0.1447807
151	0xbdd317b6	-0.10307257
152	0x3c763ced	0.015029174
153	0xbdf8197c	-0.12114236
154	0x3e1c57af	0.15267824
155	0xbd23c61c	-0.039983854
156	0x3ca5d42c	0.020242773
157	0x3e8433e1	0.2582083
158	0x3c90a383	0.017656093
159	0xbc8eb8fd	-0.017422194
160	0x3e4ac002	0.19799808
161	0x3e4a7aab	0.19773357
162	0xbb8df65d	-0.0043323473
163	0x3cf5e141	0.030014636
164	0x3e24125d	0.1602263
165	0xbe504634	-0.2033928
166	0xbeb15655	-0.3463618
167	0xbe79168a	-0.24325004
168	0xbcf6d6c7	-0.03013171
169	0x3dd0a049	0.10186822
170	0xbe7ced1e	-0.24699828
171	0xbe94d7e2	-0.29070956
172	0xbd9c9a75	-0.07646648
173	0x3e0af7d1	0.13571097
174	0xbe9314a2	-0.2872668
175	0x3d19f870	0.037590444
176	0xbf013ba5	-0.50481635
177	0xbd761438	-0.060077876
178	0x3e3980b2	0.181155
179	0x3e079458	0.13240182
180	0x3e8f6d32	0.28012997
181	0x3d2543a6	0.040347718
182	0x3df86fbb	0.12130686
183	0xbe871ae9	-0.26387718
184	0x3e5fd4bb	0.21858494
185	0xbb6b9ea9	-0.0035952723
186	0x3e16e40f	0.14735435
187	0xbe9d3a62	-0.30708605
188	0xbe0df2fb	-0.13862221
189	0xbe527316	-0.20551714
190	0x3b6e9c66	0.0036409139
191	0x3d27197e	0.040795796
192	0x3dab0e0b	0.08352288
193	0x3d12cfc8	0.035842687
194	0xbdf47e24	-0.11938122
195	0x3e2ccc12	0.16874722
196	0xbd83cc5d	-0.064354636
197	0x3e068173	0.13135318
198	0x3e1b33db	0.151565
199	0x3dccb9c9	0.09996373

clf.0.bias f4 [2]
0	0xbc03129e	-0.008000044
1	0x3c030d1d	0.007998732
