best_models/MOGONET/fold_1/C3.pth (torch, 1895 bytes, 2 tensors)

clf.0.weight f4 [2, 100]
0	0xbeb628dd	-0.3557805
1	0x3ded7896	0.115952656
2	0x3e806188	0.2507441
3	0xbddc5e89	-0.10760219
4	0x3db90144	0.090334445
5	0xbe89818b	-0.26856646
6	0xbc5fd8db	-0.013662542
7	0x3d401184	0.046891704
8	0xbd8d56e7	-0.06901341
9	0x3e0652a1	0.13117458
10	0xbc83c08f	-0.01608303
11	0x3e764a46	0.2405177
12	0x3dceacc0	0.10091543
13	0xbdfd2a90	-0.12361634
14	0x3e1887aa	0.14895502
15	0x3dc72c91	0.09725297
16	0xbc6e96e0	-0.014562339
17	0xbe09ca1f	-0.1345601
18	0xbe31170f	-0.17293952
19	0x3da46259	0.08026571
20	0x3e467241	0.19379522
21	0x3dbd90a8	0.092561066
22	0x3c11283f	0.008859693
23	0x3df2a631	0.11848105
24	0xbdb33bbf	-0.0875163
25	0xbe8b2c76	-0.27182359
26	0x3dcba91f	0.09944367
27	0x3e2c3c93	0.16819982
28	0xbe5fef91	-0.21868731
29	0x3e70ef0f	0.23528694
30	0x3dab26c3	0.083570026
31	0x3e181d8d	0.14855023
32	0x3e6d711d	0.2318768
33	0xbd320ad8	-0.043467373
34	0x3cea4787	0.02859856
35	0x3e3b0ac8	0.18265831
36	0x39fa1fd5	0.00047707433
37	0xbcfce6fe	-0.030871864
38	0xbaf0b5bf	-0.0018364711
39	0xbc5c56d2	-0.013448434
40	0xbd9d97d3	-0.07694974
41	0xbe4c1547	-0.19929992
42	0x3e1869b0	0.14884067
43	0x3e6a0565	0.2285362
44	0x3c2f7941	0.0107100615
45	0x3db93b31	0.09044493
46	0xbe0edb6c	-0.1395089
47	0x3d6c1070	0.057632864
48	0xbd7704f7	-0.06030747
49	0xbd4e7ccd	-0.050411988
50	0x3daf6d2f	0.08565747
51	0xbe3bf91c	-0.18356746
52	0xbc7f8b32	-0.015597152
53	0xbd602fdd	-0.054733146
54	0xbe78a4b3	-0.24281578
55	0xbe01e60d	-0.12685414
56	0xbd7a527f	-0.06111383
57	0xbca195d1	-0.019724758
58	0xbcee0362	-0.029054347
59	0xbc71c479	-0.014756315
60	0x3d9cc7d8	0.07655305
61	0xbe31975b	-0.17342894
62	0xbe0257d3	-0.12728815
63	0xbe36a8fd	-0.17837901
64	0xbcb17569	-0.02166243
65	0xbd6facac	-0.058514282
66	0x3a7694eb	0.0009406346
67	0xbd14cb72	-0.036326833
68	0xbd51b70a	-0.05119995
69	0xbdebb6e1	-0.11509491
70	0x3e21a149	0.15784182
71	0x3de38530	0.11109388
72	0xbb46a914	-0.003031318
73	0xbd7942c0	-0.060854673
74	0xbeae42f8	-0.34035468
75	0x3cfc9b67	0.03083582
76	0xbd9b7fd2	-0.07592739
77	0xbdc2223d	-0.09479187
78	0xbdf0c8a0	-0.11757016
79	0xbe70373f	-0.23458575
80	0xbe1a6284	-0.15076643
81	0x3de48055	0.1115729
82	0x3bfe9731	0.0077694883
83	0xbd7faf70	-0.06242317
84	0x3e2d4fe4	0.16925007
85	0x3e13a9f5	0.14420302
86	0xbb85c100	-0.0040818453
87	0x3d32bb56	0.04363569
88	0xbcd04473	-0.025423264
89	0xbccf1c0f	-0.025281934
90	0xbdca98a7	-0.098923974
91	0x3dc0ff3e	0.094236836
92	0x3e855064	0.26037896
93	0x3c19dacf	0.009390547
94	0x3d138cce	0.036022954
95	0x3c1ca3ef	0.009560569
96	0x3d5a760e	0.053335242
97	0xbe8feb3a	-0.2810915
98	0x3e5b7e34	0.21434861
99	0x3e4037d2	0.18771294
100	0x3e1946b8	0.14968383
101	0xbd912085	-0.07086281
102	0xbe0a1484	-0.13484389
103	0x3e0e29f1	0.13883187
104	0xbe2caab9	-0.16862
105	0xbe0ccc88	-0.13749897
106	0xbc444552	-0.011979418
107	0x3d292a90	0.041300356
108	0x3d27c957	0.040963497
109	0xbd462fbb	-0.048385363
110	0xbe1beab5	-0.15226252
111	0x3e030305	0.1279412
112	0xbe24b9d7	-0.16086517
113	0x3e104639	0.14089288
114	0xbd43c95f	-0.047799464
115	0x3e1f5f7c	0.15563768
116	0x3e320d26	0.17387828
117	0x3dc74546	0.0973001
118	0xbb3a5fc5	-0.002843843
119	0x3e8837e4	0.2660514
120	0x3e33818a	0.17529884
121	0x3df0a169	0.117495365
122	0xbdf241b9	-0.11828942
123	0x3dee2563	0.11628225
124	0xbc8972c6	-0.016778361
125	0x3d10f000	0.03538513
126	0x3e2f76e9	0.17135204
127	0xbd2d81ac	-0.042359993
128	0x3dc275cb	0.094951235
129	0x3ecbc4bb	0.3979853
130	0xbeb26530	-0.34842825
131	0xbde3eb73	-0.11128893
132	0xbdd94c1a	-0.10610218
133	0x3d44dd6c	0.048062727
134	0xbe435220	-0.19074297
135	0x3e90c502	0.28275305
136	0x3b2c4e2e	0.0026291716
137	0xbd541539	-0.051778052
138	0xbea1578b	-0.31512102
139	0x3e5c2cfc	0.21501535
140	0xbc93f56c	-0.018061362
141	0x3d5ee522	0.054417737
142	0x3d854c56	0.065087005
143	0x3e790d90	0.2432158
144	0x3df92036	0.12164347
145	0xbe528a1b	-0.20560496
146	0x3e084d1e	0.13310668
147	0x3ccc5a8e	0.024945524
148	0xbe0cd3cc	-0.13752669
149	0x3ea36d02	0.31919104
150	0x3dabbe3c	0.08385894
151	0xbde591e4	-0.11209467
152	0xbdcbbfbe	-0.09948681
153	0xbdf03465	-0.117287435
154	0x3e6fe258	0.23426187
155	0xbe8747c8	-0.26421952
156	0x3dce0a8c	0.100606054
157	0xbe5a1f71	-0.21301056
158	0xbe298250	-0.16553617
159	0xbd3b8df5	-0.045789678
160	0xbd97d72b	-0.07414087
161	0x3db504e5	0.08838824
162	0xbc2bc554	-0.010484058
163	0xbd416548	-0.04721573
164	0xbdaddd41	-0.084894665
165	0x3e941d73	0.28928718
166	0x3cd8f53e	0.026484128
167	0x3cc910ab	0.02454408
168	0x3e9386ec	0.28813875
169	0x3dd97bcd	0.10619316
170	0x3e3eaf7b	0.18621628
171	0x3e8d91a4	0.27650177
172	0x3e1ea5c9	0.1549293
173	0x3d8c6a2f	0.068561904
174	0xbda7fcf4	-0.08202544
175	0x3dbd6a35	0.09248773
176	0x3df2409c	0.118287295
177	0xbe7d8be9	-0.24760403
178	0x3ca3da7a	0.020001639
179	0x3dc3977d	0.095503785
180	0x3dea15ca	0.11429937
181	0x3e11fa93	0.14255743
182	0xbd63468a	-0.055487193
183	0x3e0e7c91	0.13914706
184	0xbe73def4	-0.23815519
185	0x3eb9ab43	0.36263475
186	0xbc9ec60e	-0.01938155
187	0xbd6a53b6	-0.05720874
188	0xbd754ea1	-0.05988944
189	0x3d982434	0.0742878
190	0x3e18c02b	0.14917056
191	0xbe1da5c7	-0.1539527
192	0xbdd5157a	-0.10404487
193	0xbde0c2fa	-0.10974689
194	0xbd3ee356	-0.046603523
195	0x3e3c15cd	0.18367691
196	0x3be344e3	0.006935702
197	0xbdddcc87	-0.10830026
198	0x3d0a1916	0.03371533
199	0x3d7c7065	0.061630625

clf.0.bias f4 [2]
0	0x3c12454f	0.008927657
1	0xbc124b5b	-0.008929099
