best_models/MOGONET/fold_1/E1.pth (torch, 392727 bytes, 6 tensors)

gc1.weight f4 [186, 200]
00000000: e21e a0bc 8fc6 f43c 5ca7 1dbe 8201 bd3c
00000010: 9023 44bb 4eec 803d 8533 95bd 1b20 913d
00000020: 1a64 debc 4190 fabc f74a 19be 563c 15bd
00000030: 2715 8bbd 681f afbc 2085 b83d 28b1 0c3e
00000040: 9eac 86bc b7f6 c0bd d4d8 19be 6ba1 e2bc
00000050: cd9f c33d 130b 42bd b60b 033e e0ae ecbd
00000060: ac10 f5bc 513c 843c 8e4c 9b3d bd02 31be
00000070: f2f9 27bd 4fde 2cbe 749e e33c c3bc 94bc
00000080: ac1e 62bd c4ed be3d df89 b73d 4bef 97bd
00000090: e004 ac3d 8418 88bd cd5b 8d3d c0ed 9d3d
000000a0: ef9b fbbd 2a49 18be de63 7f3d 324e 7c3d
000000b0: 2939 cc3b 75a2 543b d616 38bd cda0 23bc
000000c0: 50a9 0f3d 0ac9 64bd 3bd9 943c 8881 123e
000000d0: 824f a03c 6d29 013e f22a ed3d 56f7 023e
000000e0: 0725 aa3d f370 a13c 13a0 5cbd cee3 943c
000000f0: d4b4 0f3e 7847 133e bf8d b03d e7ec 9ebd
00000100: 526e 17bd 53e6 42bd 1be3 713d 8490 003e
00000110: 426f 7b3d f8bf cfbd c57c c3bc 1293 89bd
00000120: a0ba c0bd 4094 b43d 336d 9d3a 4acd 163d
00000130: 1e3d 0e3e cfa9 63be 68b5 e33c bb12 bcbc
00000140: f544 3739 2d65 bfbd 44bf 72b8 9e3a 593d
00000150: 1176 34bd b1aa 7c3d 490a 2f3d 3a5c 9cbd
00000160: ff2b 703d d881 1f3c c03e 6f3d f247 17bb
00000170: 5914 193d 3199 793d e4f9 8d3d 2683 16be
00000180: 5183 11bd 2a50 373d 7337 c73d 191f 893d
00000190: 0ad6 9fbc 0c00 0ebe a2dd adba d70f 3cbd
000001a0: 5748 26be 1f5f e2bd 27b6 983d fc9f 8f3c
000001b0: 062d 37bd 6e12 ecbc 9aef 70bc d017 20bd
000001c0: ed50 463d 3bf6 18bd ac1f 5a3d b298 08be
000001d0: 3684 443e a9e0 c23c 00c9 d1bb 8a4a c33c
000001e0: 35f3 b0bd 4271 74bd 340f 64bc b77c e13d
000001f0: 6aa1 8fbd 1c4a aabc cc22 aa3d 5bdd dabd
00000200: c8d4 2c3d adb8 d73c 29cd 843d 3193 4cbd
00000210: ba43 1e3b 2fae 0f3c d1bb 593d d22d afb9
00000220: cded b0bd a2e4 9a3b 4f01 0c3e e02d 0b3d
00000230: f5d7 1cbd e4f2 19bd 45b0 f4bd 2507 393e
00000240: 464c 3b3d 4afa e1bd 1bb9 48bc da0a 9e3d
00000250: e944 023c 88db a43d dec9 c53d 9312 c0bd
00000260: e325 02bd acde 363d 1a06 babc 0282 2ebd
00000270: cbed 033d 84fe 9cbd 94c1 33be 5d9b 243e
00000280: 5af2 62bd 4a7a 2cbd 92b6 003e 5d1d 353d
00000290: f656 38bd f56f ca3d a1fc 38bd 56db f33c
000002a0: 5e17 493d b6a1 2c3c 9dbc 03bd 369b 4f3d
000002b0: 7028 4b3d 3f9b d9bd d2f6 91bd c5e1 24bd
000002c0: c055 c6bd 1fa3 d33c b7bf 64be 6457 003e
000002d0: 2085 093e dfeb b5bc 20ac 76bd 36a0 e2bd
000002e0: f862 16b9 011a 163e ae95 9bba eb5e babd
000002f0: 42b7 d53d 7ef8 203e 2c55 de3d dfe5 4cbe
00000300: 2290 8e3d d7cd 0d3e b20e 37bd 6cf6 3f3e
00000310: 2d49 db3c 3bd6 333d d860 2dbd f4d2 8bbc
00000320: 5725 733d 2181 abbd 114e 88bc 29df d6bc
00000330: c401 09be 2a33 b0bb 8dcf 7abd 7b51 e33d
00000340: 98ce ebbc 2fdd 0e3d b27e 1ebd 3565 be3d
00000350: 5e75 84bd 8a1e edbd 4557 62bb 6e1a e8bd
00000360: ea35 a53c d7dc 02be 27e0 babd eb94 7cbd
00000370: a7ea c73d f76a 08be 0be7 57bc 2cc2 a03d
00000380: 5d62 583d d431 bebc 9fd2 e03d b175 8d3d
00000390: 1a13 ea3d db14 893d 90f1 473d 9f70 013e
000003a0: 3767 513c a16b 39bd 788a 9cbc 7429 51bd
000003b0: c473 8f3d 6cd5 28bd 2257 053d dc2d 06bd
000003c0: 1e48 883d cbae 77bd 2b7a a43d 25f4 b9bd
000003d0: 67b6 c9bd 1053 c7bb 139e 6b3d 857b 5538
000003e0: b697 a7bc 39ec d0bd 228f dd3c fc71 b23d
000003f0: 0122 8e3d 0c68 823c 2718 a43c 64d1 3abd
-0.019545976 0.029879836 -0.15395874 0.023072008 -0.0029928423 0.062950715 -0.07285217 0.07086202
-0.027147342 -0.030586364 -0.14970003 -0.036434494 -0.06791144 -0.02137728 0.090097666 0.13739455
-0.016439732 -0.09422057 -0.1502412 -0.02766486 0.09551964 -0.047373842 0.12797436 -0.11556792
-0.029915176 0.016142042 0.07582961 -0.17286201 -0.04100985 -0.16881679 0.027785517 -0.018156415
-0.055205032 0.09322694 0.08961844 -0.074186884 0.08399367 -0.06645301 0.06902275 0.07711363
-0.12285601 -0.1487166 0.0623511 0.06159801 0.0062324 0.0032445465 -0.044943653 -0.009987068
0.03507358 -0.05585579 0.01816999 0.14307225 0.019569162 0.12613459 0.11580457 0.12789664
0.08307844 0.019707179 -0.053863596 0.018175032 0.14033824 0.14382732 0.08620786 -0.07760029
-0.036970444 -0.047582936 0.059054475 0.12555128 0.0613854 -0.10144037 -0.023863206 -0.067175046
-0.09410596 0.08817339 0.0012010693 0.036816873 0.13890502 -0.22232746 0.027796462 -0.02295815
0.00017477928 -0.093454696 -5.7875426e-05 0.053034417 -0.04405791 0.06168622 0.042734418 -0.07634778
0.058635708 0.009735547 0.058409452 -0.0023083654 0.03737292 0.06093711 0.069324285 -0.14698467
-0.035525624 0.044754185 0.09727373 0.066953845 -0.019511241 -0.13867205 -0.0013264904 -0.045913544
-0.16238533 -0.11053299 0.07456618 0.017532341 -0.044720672 -0.028817382 -0.014705563 -0.03908521
0.04841702 -0.0373442 0.05325286 -0.13339499 0.1919106 0.023788767 -0.006402135 0.023839254
-0.08640138 -0.059678324 -0.01391964 0.110101156 -0.07013209 -0.020787291 0.08307418 -0.106867515
0.04219511 0.026333177 0.06484444 -0.04994506 0.0024149255 0.008769556 0.05315763 -0.0003341274
-0.08639107 0.004726962 0.13672374 0.033979297 -0.03829189 -0.037585154 -0.11947683 0.18069132
0.045727037 -0.11034067 -0.012251164 0.077169135 0.007951 0.08049685 0.09657644 -0.09378543
-0.031774413 0.04464595 -0.022707988 -0.042604454 0.0322092 -0.076657325 -0.17554313 0.16074891
-0.055406906 -0.04210881 0.12569645 0.044217456 -0.045004807 0.09884635 -0.0451628 0.029767673
0.04909455 0.010536602 -0.032162298 0.05068513 0.04959911 -0.10625314 -0.07127155 -0.040254373
-0.09684324 0.025834618 -0.22338758 0.12533337 0.1342969 -0.022207199 -0.060222745 -0.11065714
-0.00014341983 0.14658357 -0.001187017 -0.091001354 0.10435344 0.15719792 0.10856089 -0.20009564
0.06961085 0.13848053 -0.04469175 0.18746346 0.026768291 0.043905478 -0.042328686 -0.017068364
0.059361782 -0.08374239 -0.016638787 -0.026229458 -0.1337958 -0.005377193 -0.061233092 0.110995255
-0.028785035 0.034878906 -0.038695045 0.092966475 -0.064676985 -0.115780905 -0.003453688 -0.11333166
0.02016731 -0.12779556 -0.09124785 -0.061665457 0.09761553 -0.13322054 -0.0131776435 0.07849535
0.05282818 -0.02321712 0.10977673 0.069072135 0.114294246 0.06693431 0.048814356 0.12640618
0.012780956 -0.04526866 -0.019108996 -0.051064923 0.070045024 -0.04121916 0.0325538 -0.03275858
0.0665438 -0.06046943 0.08031114 -0.0907977 -0.098492436 -0.0060829 0.0575238 5.0898194e-05
-0.020458084 -0.10201306 0.02704579 0.08713147 0.069400795 0.015918754 0.020031048 -0.045609847

gc1.bias f4 [200]
00000000: ddde 08be ec45 b5bd 3741 68be 4937 33be
00000010: 3fd8 81bd e815 26be 8278 b7bd 53aa 29be
00000020: 4c2b 1ebe 6d2a d4bd af83 01be 6c0b f6bd
00000030: 373e 65bd bb5d 08be 03e6 5cbd 87be b1bd
00000040: 6544 69bd f2ce e8bd 73ab aabd e126 d3bd
00000050: dae1 18be f8de 05be 7cc0 bebd a4c3 2cbe
00000060: 8981 e4bd 60b5 26bd c8ec c3bd 79ca 94bd
00000070: 7d7e c3bd c032 c5bb d99b 02be 7860 f5bd
00000080: e382 efbd fd4a 23be 53b5 85bd 5567 ccbd
00000090: 00d9 dcbc 0420 aabd d67f a6bd 181a 06be
000000a0: 7efc 0abe e3eb 32bd c1cc 39be 2d4e b9bd
000000b0: f1d8 40be 86ea 06be 068c d5bd 2412 b9bd
000000c0: 72b3 03be fbfa 93bd 0cb3 08be 7d99 d6bd
000000d0: e9f6 f6bd 9e8b 76bd badd d4bd 5df0 92bd
000000e0: f5de cfbd a695 a9bc 3002 89bd cfc6 d9bd
000000f0: 6bce a6bd 460c f2bd a096 0cbe fadf cebd
00000100: 866b 0cbe e21b b7bd 2a76 a6bd 9f84 67bd
00000110: cf3b e3bd ee7f dcbd e00f d7bd bb7a fbbd
00000120: e043 12be 6407 29be fffb 2abe 05dd f7bd
00000130: eb50 01be a376 06be debc 96bd f4ec 08be
00000140: aa42 19be 64b8 1abe 1d2f 04be 870d 20bd
00000150: a31f 91bd 30ce 19be 32ba e8bd d9d3 0ebe
00000160: 6526 36bd 1e33 1ebe 3353 e4bd 565c dbbd
00000170: 7eec e0bd ebf3 d3bd 7fd5 c9bd 1726 c2bd
00000180: 62c5 edbd 3550 bdbd 90f8 b4bd 1653 96bd
00000190: 4042 06be 94f4 24be 3324 34bd eeab 13be
000001a0: dbb6 febd 76fc 1cbe fa80 d0bd bb5e e8bd
000001b0: adfc 14be 9c25 2fbe 6575 03be cebf abbd
000001c0: fa07 fdbd 0706 d1bc 3e1a 8abd 0705 1bbe
000001d0: 6915 c1bd f1c6 b0bd 1ad9 4cbe 365f a3bd
000001e0: 34e8 f3bd 4e81 ebbd 430e c9bd b712 fdbd
000001f0: 956d cbbd bc42 23be a60d ffbd 6aa3 d5bd
00000200: 9ff8 dcbd 340a d2bd a122 03be 9212 b1bd
00000210: 4eab 05be 107e 14be 3a68 bebd 8c79 1abe
00000220: 656e 24be f3cd 28be 042b 3bbe ad46 17be
00000230: 3ee5 f7bd 5ee6 d3bd 4e8c 12be d2b6 ffbd
00000240: 55f2 00be 167d d6bd a930 f2bd 1cd3 cebd
00000250: 20b8 dcbd a1cc e6bd b6b3 06be a4c6 51be
00000260: 4188 d6bd 897c e5bd 9e67 f8bd abdf 36be
00000270: 2cd2 34be 8bc2 b3bd 46c0 f0bd 7451 d2bd
00000280: d9a6 bfbd 515c c8bd 0809 18be 2b09 633c
00000290: 5534 77bd 5fe1 0cbe dafa 63bd d6e3 8dbd
000002a0: 5bfb f2bd d1d2 f2bd c840 ebbd 811e fdbd
000002b0: 77f2 d7bd 625d 2bbe 3c92 1bbe 21d4 e5bd
000002c0: 7bce a3bd 49f8 dcbd 4831 ecbd 5f05 06be
000002d0: 9f7c ffbd cd09 9ebd b295 ccbd 3220 f8bd
000002e0: 6290 bbbd e691 adbd ec55 bcbd aa32 afbd
000002f0: 8bea 16be e7eb bdbd 140f 05bd 9f2d a7bd
00000300: e8a1 f1bd 0eaa 90bd f001 a4bd 469f dabd
00000310: a2d8 ccbd fdb3 27be ace6 a1bd 16a4 53bd
-0.13366266 -0.08851227 -0.22681127 -0.17501558 -0.06340074 -0.16219294 -0.08958532 -0.1656888
-0.15446204 -0.103596546 -0.1264789 -0.12013897 -0.055967536 -0.13317005 -0.053930294 -0.08678918
-0.05694999 -0.11367597 -0.083334826 -0.1031015 -0.14929906 -0.13073337 -0.09314057 -0.16871506
-0.11157519 -0.040700316 -0.09566647 -0.07265181 -0.0954561 -0.0060180128 -0.12754764 -0.119812906
-0.116948865 -0.15946575 -0.065287255 -0.099806465 -0.026958942 -0.08306888 -0.081298515 -0.13095891
-0.1357288 -0.04368199 -0.18144514 -0.09048114 -0.18832757 -0.13175401 -0.10427098 -0.09036663
-0.12861422 -0.07225605 -0.13349551 -0.10478494 -0.12058813 -0.060191743 -0.103938535 -0.07174752
-0.101499476 -0.02070124 -0.0668987 -0.10633623 -0.0814484 -0.11818747 -0.13729334 -0.10101314
-0.13712892 -0.08940865 -0.08128007 -0.05652296 -0.11095392 -0.10766588 -0.10501075 -0.12279268
-0.14283705 -0.16506726 -0.16697691 -0.12102703 -0.12628524 -0.13131194 -0.07360242 -0.1337164
-0.14966837 -0.15109402 -0.12908597 -0.0390754 -0.07086112 -0.1502006 -0.11363639 -0.13948001
-0.04447021 -0.15449187 -0.111486815 -0.10710971 -0.10982607 -0.10349258 -0.09855174 -0.09479921
-0.116099134 -0.09243814 -0.08836472 -0.07340066 -0.1311121 -0.16108924 -0.043979835 -0.14421055
-0.12437221 -0.15330681 -0.1018085 -0.113461934 -0.14549513 -0.1710419 -0.12837751 -0.08386193
-0.12355037 -0.02551557 -0.067432866 -0.15138637 -0.09427912 -0.08631695 -0.20004693 -0.079771444
-0.119095236 -0.11499272 -0.09817173 -0.12357085 -0.099330105 -0.15943426 -0.12453775 -0.104315594
-0.10789608 -0.10255852 -0.12806179 -0.0864612 -0.13053629 -0.14501214 -0.092972234 -0.15085429
-0.16057737 -0.16484813 -0.18278128 -0.14773054 -0.12104271 -0.103466734 -0.14311334 -0.12486042
-0.12592442 -0.10473077 -0.118256874 -0.1009886 -0.107773066 -0.112694986 -0.13154492 -0.20485932
-0.10475207 -0.11205394 -0.121291384 -0.1785876 -0.17658299 -0.087773405 -0.11755423 -0.10269442
-0.093579955 -0.09783233 -0.14847195 0.013857166 -0.060352642 -0.13757847 -0.055659153 -0.06928222
-0.118643485 -0.11856616 -0.114869654 -0.12359334 -0.105442934 -0.16734841 -0.15192503 -0.11222101
-0.079983674 -0.10789544 -0.11532837 -0.13087986 -0.124749415 -0.07716713 -0.099894896 -0.12115516
-0.09158398 -0.084750935 -0.09196076 -0.08554585 -0.14737909 -0.092735104 -0.032485083 -0.081629984
-0.11798459 -0.07063685 -0.08008182 -0.1067491 -0.10002257 -0.16377254 -0.07905325 -0.051670156

gc2.weight f4 [200, 200]
00000000: d503 3fbd 84a8 71bd 1746 e73c a309 9fbc
00000010: 7911 ab3d 4bf5 f937 7126 59bc 9a47 3c3e
00000020: 2ea3 c4bc 6cc6 da3d b6c2 bb3d 1a01 5ebd
00000030: 6b39 9b3d f100 733c 5d35 dbbc 65f4 353e
00000040: 9b78 263c 80cb 96bd d4bd 47bd 78c6 79bc
00000050: da81 9ebd 05f8 133e 2d91 a4bd f2f7 7a3d
00000060: 93f6 9ebd e255 96bd b5ba 93bd 7c7c 013d
00000070: d3e3 fbbc 2cd9 ad3d 7546 59bd b6d1 d7bc
00000080: e267 99bc 5f0f f7bc 6c71 b33d 5460 0abe
00000090: ef6a 5bbe 4875 9c3c 78cb 9dbc 3ae4 a4bd
000000a0: a9a2 b2bd aa2c a0bd c4fc 923b 7792 693d
000000b0: 5257 5a3e 9381 dabd 9776 c1ba acf6 463d
000000c0: c835 48bc c754 e4bc 582f 43bd 70f1 5cbd
000000d0: a809 1b3d 56fc b4bc 1c41 2dbd 9438 52bc
000000e0: a1a2 ca3d bae3 f0bd 224a 12be 4b13 9cbc
000000f0: b8ea 8d3c 760b 8bbd e79c 873d fe04 413c
00000100: a6fa 76bd da22 6e3e b182 b33c 8e10 6c3e
00000110: 389e a93d abf1 8abd 5bfe 81bd dd9d 143b
00000120: 7091 c6bb 58a6 203d 43bf 6c3d f789 acbd
00000130: d7c0 ba3c 131e 21be 68ad aebd fdc9 6dbd
00000140: 5353 3ebd df75 033e 1d81 ad3d ce43 6abe
00000150: 5474 39be 0010 db3d 3b90 d7bb ae06 143d
00000160: 30b3 f93b 7cf7 f2bd fe9a 383e c835 83bd
00000170: d772 7dbc b535 06be 74c3 ab3c 88d5 883d
00000180: d216 ddbd 01b9 0f3d 2208 d1bd c6c0 6b3d
00000190: df29 003e 23cf dfbd 1130 9a3d 1826 0c3e
000001a0: 2432 18bd fb27 f9bd 0efb a13d b9ac 883b
000001b0: d70b 2e3d 4186 dfbd 607d e23c 21cf cb3d
000001c0: c400 df3d 94ef 0f3e eb2b a4bc b9b8 2d3d
000001d0: e6af 7f3d d12b 513c 5a04 0bbc dfdc 053e
000001e0: f1df f1ba aa94 77bc 2e87 333e d545 c93d
000001f0: 1479 0bbe 2926 28be 48d1 cd3d 2fc1 4d3d
00000200: 55aa 773d 8e33 3fbd 7b11 06bd dddf 353e
00000210: 3832 16be 954d 083d 2a76 07be e2f4 bfbc
00000220: a4f1 94bd 1fd2 1d3d 5ef0 8abd 6e56 b73d
00000230: 30e1 4d3e 15e4 8d3d 01c4 483c 2ad4 423d
00000240: 91e9 29bd 447d 9bbd 8af1 34bd b6b4 0f3e
00000250: 99e0 873d 32fb c93d a748 53bd 90ff c93d
00000260: b93e b73d 0940 b33c d713 32bd 6ee1 703d
00000270: 3ec8 24bd 29c6 973d fd34 f03c 27da 2dbc
00000280: d12b 62bd 3f76 0fbe 6340 823d c23f c4bc
00000290: 320b 053e 507d 1abe 679f 803c 1efa f5bd
000002a0: 6f0d 0d3c 689b a4b9 ab8e 2e3c 590d 26bd
000002b0: 5648 423c 95c1 d53b 1c55 253c 01b6 963d
000002c0: d8b3 04be 43ec cabd a85e 83bc 3d4f 173e
000002d0: 6e2f 473d 6628 1ebc a25c ffbc 0ec9 113e
000002e0: 0b9f 9a3c f964 69bd 15f0 af3c 6b9a 15be
000002f0: 07df bc3d 14db 88bd 678a 01be 28af e43c
00000300: 206c 903c 9d8b f9bb 9c8f 60bd 9b69 313d
00000310: c9c8 47bd 549a d73c 6ea3 803e aeeb 913d
00000320: 48ca 573d c77a 06be abbc 86bb 4159 ca3c
00000330: 63de 523d 95d1 c23d e227 253e 6cf3 dc3d
00000340: 8727 d2bd 44fa adbd 6f30 d13d 4e58 15bd
00000350: 00a5 f63c 6693 d73b 2f16 e6bc 89cc 8cbd
00000360: eb5b 8f3c 5d2c dbbd b0cc 93bd 0140 1bbd
00000370: 106e 13be 9164 53bd 6231 31bd 6afb d8bc
00000380: 40ae 14bb 709e 94bc 59d9 7f3d f13d 4ebd
00000390: 9fd2 fcbb 4e80 a23d 87a6 56bd 9b95 7abd
000003a0: 77d5 6b3d b78a 9e3d c079 ef3c 819c e1bd
000003b0: 8570 ffbc de5b cf3c 9723 0fbd 705d 88bd
000003c0: 05ee a0bd 0cf7 2cbd 8c2c febd a216 66bd
000003d0: 2049 5e3d 7fa5 4fbd 5aeb 28bd a9bc 3abd
000003e0: 6607 813d 231c 013e c0fd 3dbd 50cd f73c
000003f0: c6eb d23b 2c65 9cbc d15e 633d bbab c5bb
-0.046634514 -0.0589986 0.028231664 -0.019413775 0.08352942 2.9797337e-05 -0.013253794 0.18386689
-0.024003591 0.10682377 0.091679975 -0.05420027 0.07579311 0.014831767 -0.026758844 0.1776901
0.0101605905 -0.07363033 -0.04876502 -0.015245073 -0.07739611 0.1445008 -0.080355026 0.061271615
-0.07761874 -0.073405996 -0.07213346 0.03161286 -0.030748283 0.08488688 -0.05304571 -0.026345115
-0.018726293 -0.030158697 0.08761868 -0.13513309 -0.2142751 0.019098893 -0.01926206 -0.08051343
-0.08722431 -0.07821019 0.0044856984 0.057024445 0.21322373 -0.106692456 -0.0014760074 0.04857509
-0.012219854 -0.027872456 -0.047652572 -0.05394119 0.037851006 -0.02209298 -0.04229842 -0.012830872
0.098943 -0.117621854 -0.14286092 -0.019052168 0.017323837 -0.067892954 0.066217236 0.011780975
-0.06029763 0.23255482 0.021912904 0.2305319 0.08282131 -0.06784376 -0.063473426 0.0022677102
-0.006059818 0.039221138 0.05779959 -0.08424752 0.022797031 -0.15734129 -0.08529168 -0.05805396
-0.046466183 0.12837933 0.08471892 -0.22877428 -0.18110782 0.10696411 -0.006578473 0.036139183
0.007620238 -0.1186361 0.18027875 -0.06406742 -0.0154692745 -0.13106425 0.020967223 0.06681353
-0.10795368 0.035088543 -0.10206629 0.05755689 0.12515973 -0.1092818 0.07528699 0.13686407
-0.037157193 -0.12165829 0.07909213 0.004170981 0.04249176 -0.10914279 0.027647674 0.09951616
0.10888818 0.14056236 -0.020040473 0.042412493 0.06242361 0.012766794 -0.008484924 0.13072537
-0.001845358 -0.015111128 0.17532036 0.098277725 -0.13620406 -0.16420807 0.10049683 0.050233062
0.060465176 -0.046680026 -0.032731514 0.17761178 -0.14667594 0.033277113 -0.1322867 -0.023432199
-0.07272652 0.038530465 -0.06784128 0.08952032 0.20105433 0.06928269 0.012253762 0.047565617
-0.041482512 -0.07592252 -0.044175662 0.1403378 0.066346355 0.09862365 -0.05158296 0.09863198
0.0894751 0.02188112 -0.043475952 0.058808737 -0.04023003 0.07410843 0.029322142 -0.010611094
-0.055217568 -0.14009951 0.06359937 -0.023956183 0.12992552 -0.15086865 0.015701009 -0.12010597
0.00860916 -0.00031396304 0.010654132 -0.040540073 0.011858067 0.006523321 0.010091092 0.07358933
-0.1295923 -0.099083446 -0.016036347 0.14776321 0.048629217 -0.009653186 -0.0311721 0.14236853
0.018874666 -0.05698106 0.021476785 -0.14609687 0.092222266 -0.06682411 -0.12650453 0.027915552
0.017629683 -0.00761552 -0.054824457 0.043313604 -0.048775468 0.026318707 0.25124687 0.071250305
0.052683145 -0.13132773 -0.0041118464 0.024700763 0.051481616 0.09512631 0.16128495 0.107886165
-0.102614455 -0.08495 0.10214316 -0.036461167 0.030107975 0.0065788506 -0.02808675 -0.068749495
0.017499885 -0.10701821 -0.072167754 -0.037902836 -0.14397454 -0.05160958 -0.043259986 -0.026487071
-0.002268687 -0.018141955 0.06246314 -0.05035204 -0.0077155377 0.079346284 -0.052404907 -0.06117783
0.057576623 0.077413015 0.02923286 -0.11016179 -0.031181583 0.02531236 -0.03494605 -0.06658447
-0.078578986 -0.04222779 -0.124108404 -0.056173928 0.054268956 -0.05069494 -0.041240074 -0.045590077
0.06300239 0.1260839 -0.046384573 0.030249268 0.006436798 -0.019091211 0.055510346 -0.0060324348

gc2.bias f4 [200]
00000000: 0b23 71bd c15c a6bc e9de 19bd 4657 e8bb
00000010: 598e 30bd e72e 97bc 618e 30bd b434 1cbd
00000020: fa24 bbbc a3bc 97bb f570 87bd 9693 3cbd
00000030: 6046 3bbd 855b 2ebd 5441 98bd 90e1 63bd
00000040: 9bce 45bd 6687 64bd 8c5a 593a 4132 333a
00000050: 6ae8 ffbc 1e13 cfbc 5c2e 1bbd 6633 29bd
00000060: 875e 4cbd 57e0 7cbd 287b 1b3c 335e 1abd
00000070: 22bc 35bb 781c 10bd 290c ddbc 1514 80bb
00000080: ecb8 26bd d0ba ae3c d006 65bd 183b 22bd
00000090: 2e62 29bd b9f5 44bd 43b3 1fbd 03ff 62bd
000000a0: d467 a1bd aa99 debc 17d4 e0bc 177d ebbc
000000b0: bbf6 73bd 68a8 333c 5ff1 06bd e496 c93c
000000c0: 0c7a 063d 3458 4d3d 1934 99bd 3ea6 c6bc
000000d0: bfab adbd c570 1dbc e404 42bd 4b7d b63c
000000e0: f4bf 9e3c 689e 2dbc 37b3 51bc 105f 65bb
000000f0: 479a 14bd a246 7ebd 9991 eebc 6efb 723c
00000100: 80da a7bb 991f 7cbd cfd1 f9bc 9538 5ebd
00000110: 9b89 86bc 381f 033c 8d4b 233d 07af 5dba
00000120: 2c40 0bbd 6d38 f5bc e2f7 a3bd a166 76bd
00000130: 71b4 ccbd 09b5 7bbc 90c4 61bd 40c5 b13c
00000140: 998a bf3c dd19 4bbd 24d5 c5bd 513f b5bc
00000150: a677 d5ba 21ed 89bd 38d4 f5bb de63 cdbb
00000160: 3803 a33d c83f 193d 0036 9cbd dc06 d73c
00000170: 5a52 af3d f77f 6fbd a23c 21bd da25 7fbd
00000180: e680 87bd ddeb 39bd c0d2 8bbd cb62 80bd
00000190: e7a6 c33b b6ac 0ebd feba 24bd 7d04 95bd
000001a0: 953b faba aa70 c3bc 6132 1cbb ec40 8abd
000001b0: 8bab d03b 081a d2bc 7a69 1f3d 0324 80bd
000001c0: 2330 8bbc ae35 28bc 905b d6bc 49f4 f8bb
000001d0: 4c1b 99bd 1dab 5bbd a0ec 84bd 31b1 5cbd
000001e0: ec4f b63b 2ecd 34bd 2fde c4bd 4baf 9dbd
000001f0: 301b 8e3c 1bdc 0b3c f498 fd3b dffd 6cbd
00000200: b48d 54bd ffd4 73bd 25e7 18bc 0e78 51bd
00000210: 38fd e03c 4e4a 3fbc 8a4e 01bb 41c3 103c
00000220: c1ec a7bc 0d04 41bd ad3c 7fbd be16 5fbd
00000230: e569 3ebd 5c85 71bd 7e12 97bd a658 5abc
00000240: e17c 14bc 5752 47bd b970 23bd 2f09 64bd
00000250: 9f8b 4e3b eadc 6cbd ac6c e0bc d987 1ebd
00000260: 9ba4 6fbd 49a5 23bd 90ef 28bd 03bd f1bc
00000270: 934b cfbc c364 93bd 824c 303d 1968 a1bc
00000280: 94ba 85bd 31e0 66bb 8452 a9bd fddd 39bb
00000290: 41d1 32bd 4deb 033c 1c67 83b9 b3eb 96bd
000002a0: 78d1 48bd 204d a8bd 7a72 28bd 452f 3cbd
000002b0: 8566 d63c b06b 61bc 1cc4 57bd 2211 30bd
000002c0: 4915 17bd 8b5a 07bd 400b cdbc 0b88 1cbc
000002d0: ade1 4dbc b265 d2bc 2895 b3bc b78b 8fbd
000002e0: 7074 813c 0b13 1bbd ad3f 0e3c 14ca 9abd
000002f0: a73a 30bd 4f6c 23bd 5a3b 2cbd 4238 1ebd
00000300: 9490 6e3c 9b90 84bd f337 303d 549a 1fbd
00000310: d24a 20bc fadd 74bd ba39 48bd 617c 95bb
-0.05887131 -0.0203079 -0.0375661 -0.007090482 -0.043104503 -0.018454982 -0.043104533 -0.0381362
-0.02284478 -0.0046306415 -0.06613342 -0.046039186 -0.04572141 -0.04256775 -0.07434335 -0.055635035
-0.048292737 -0.05579319 0.00082913856 0.00068357965 -0.031238753 -0.02527767 -0.03788601 -0.041308783
-0.049894836 -0.061737385 0.009489812 -0.03768749 -0.0027730544 -0.0351834 -0.026983337 -0.003908644
-0.0407037 0.021329314 -0.0559147 -0.039607137 -0.041353397 -0.048085902 -0.038989317 -0.05541898
-0.07881132 -0.027172882 -0.027444882 -0.02874617 -0.059561472 0.010965444 -0.032945033 0.024608083
0.032831237 0.050132945 -0.0748064 -0.024249192 -0.084800236 -0.009609406 -0.047367945 0.022276541
0.01937864 -0.010596849 -0.012799076 -0.0034999289 -0.036279943 -0.06207908 -0.02912216 0.014830453
-0.005122483 -0.06155357 -0.030495552 -0.05425318 -0.016423037 0.008003049 0.039866973 -0.0008456562
-0.033996746 -0.029934132 -0.08006264 -0.06015647 -0.09995354 -0.015362986 -0.055119097 0.021700501
0.023381518 -0.049585212 -0.09659794 -0.022124918 -0.0016286268 -0.06734682 -0.007502105 -0.0062680086
0.07959598 0.037414342 -0.07627487 0.026248388 0.08560629 -0.058471646 -0.039364465 -0.062291957
-0.06616382 -0.045390952 -0.06827307 -0.06268843 0.005970824 -0.03483268 -0.040217392 -0.07276247
-0.0019091243 -0.023857433 -0.002383374 -0.06750664 0.0063681058 -0.025647178 0.03891895 -0.06256869
-0.016990727 -0.0102667045 -0.026166707 -0.0075974804 -0.074759096 -0.053629983 -0.06490445 -0.05387992
0.0055637266 -0.044140987 -0.09612691 -0.0769945 0.017346948 0.008536364 0.0077391807 -0.057859298
-0.05189295 -0.0595293 -0.009332453 -0.051139884 0.027464494 -0.01167543 -0.001973065 0.008835615
-0.020498635 -0.047123004 -0.062313724 -0.054465048 -0.046487708 -0.058965072 -0.07376574 -0.0133267995
-0.009062977 -0.04866251 -0.039902423 -0.05567282 0.0031516326 -0.057827868 -0.027395569 -0.038703773
-0.05850659 -0.03995255 -0.04124409 -0.029509073 -0.025304591 -0.07196953 0.043041714 -0.019702958
-0.065297276 -0.0035228843 -0.08267692 -0.0028361075 -0.04365659 0.008051706 -0.0002506309 -0.07369175
-0.04902789 -0.082178354 -0.0411248 -0.045943517 0.026171932 -0.013758585 -0.05267726 -0.04298509
-0.036885533 -0.033045333 -0.025029778 -0.00955392 -0.012566012 -0.025683258 -0.02192171 -0.0700907
0.015802592 -0.037859958 0.008682174 -0.075580746 -0.043024685 -0.039898213 -0.04204879 -0.03862787
0.014560837 -0.06472894 0.043022107 -0.03896554 -0.009783464 -0.059782006 -0.048883177 -0.0045619463

gc3.weight f4 [200, 100]
00000000: cd32 993d e8bb 0bbe ba54 30bc 1fd6 28bd
00000010: 31f1 363e 316a 833d e66d 11bd 81d1 c53d
00000020: 7b4f 93bb 951f de3d 178b f9bc 9f3f b83d
00000030: 2fb9 4f3d 56cb 433d d989 bdbd 475e 36bc
00000040: 8fa5 8b3d 7d2a c0bb bb17 173d ad63 413e
00000050: 9dd6 1dbc 2e18 953d ff5e 793c efc1 f53c
00000060: 95b7 b9bc 3248 c5bd 8270 1a3e a6e6 983d
00000070: e56c dabd 1bf3 28bc 7414 163d db55 4dbe
00000080: 559a dbbd fe18 b93d 31b9 aabd 413a aabd
00000090: 6965 8b3d c874 95bc 5b82 ac3d 1212 71be
000000a0: c063 8c3d de6d bc3b 9ad4 3fbd c199 1cbe
000000b0: c64a 023e 0c91 f5bd 747c c03d 0072 023e
000000c0: 42bb 7ebd 0c3d cbbd 94c3 193e f968 47be
000000d0: 5be0 b4bd 262f 80bd 786a 18bc 21ed 76bd
000000e0: 9bca 24be a136 b1bc f878 1e3d 80fa 03be
000000f0: e90a 303e b0a6 8a3e bcc3 803d 44a9 593d
00000100: 35bc 393d 4a75 ee3c c437 ca3d 9ccb 4fbd
00000110: 8d87 41be b733 4539 f8d8 fcbd c14b 133e
00000120: 1e0b 5cbe 6272 913c 5ca8 253d 5428 f2bc
00000130: 4dc2 c0bc fb38 393d 41ad 813d 8a6d 7abb
00000140: d17c 4f3d 8a95 c93d e2e7 bcbc da52 503d
00000150: dac0 bb3d 68f2 06be a9bd 9eb9 5029 8abc
00000160: e1f7 253e adf9 9b3d 50a8 f23c 5425 c6bd
00000170: 64f6 943d 77e7 003e 8ea6 35be 08c3 0a3d
00000180: 9734 723d 8e45 d5bd d9cc 8abd d0a3 bcbd
00000190: ae48 8cbd 66cc e73d d05f 78bd 5199 4f3e
000001a0: 1fc4 be3c 36d8 3dbd 81ca d9bd 84d2 043c
000001b0: 79d8 54bc b66e 4abd 3b68 a7bd 2803 c8bd
000001c0: a893 d33d afcd 12bd 621a 70bd 36bd b93b
000001d0: b95d d1bd 0058 35bd e726 bfbc 90d4 49bc
000001e0: 0baa 24bd bad4 3fbd 15b5 de3d a6de 9ebd
000001f0: 5125 ba3a eef0 733d 6672 d5bd 98cc ff3c
00000200: 6339 443d 8a69 bc3d 1ddc efbd 0c0b e1bd
00000210: d0a6 fe39 c847 b63c fa63 743d 79a2 d53d
00000220: 2ae0 82bd 5b96 edbd 7769 033e c3e1 f539
00000230: 803b 0bbd 2767 4c3b 3832 adbd 4287 cc3c
00000240: 78c9 1bbe eb03 31be f42c 843d 37b4 44bd
00000250: 1a65 c03d 073e e23c 756f 933b 73fc 8abd
00000260: 60ee 6dbb 0b73 1dbe 60ce 723e 1128 90bd
00000270: 196b 57bc 12e3 8b3d 1b28 b2bd 9eae a83d
00000280: c77c 183c dbd6 4abd 82dd bdbc df8c 81bd
00000290: 74c8 fd3d 3bb0 153d a317 5abd 9b71 013e
000002a0: 5edf b93d 2f54 733d b3fa 8b3d 4227 cfbc
000002b0: 73d0 463d b9f5 3e3d d0be 283c d386 8ebd
000002c0: d56d 373d 1433 e3bd c8a5 31bc 7f5d 09be
000002d0: 8c00 af3d 14ef 39bd b2d8 5dbd b1d3 abbd
000002e0: e550 033e 28eb 28bc 5945 04bd f862 ccbc
000002f0: e4b6 d9bc e939 163d 0b69 1d3e 946f 4cbc
00000300: 1eb3 8c3d 37c6 37bd 6fb0 a8bc 904e 173c
00000310: 7ee4 a0bd e7d4 fe3b 9f15 843c 51b7 7f3b
00000320: 9a26 0dbd 2eb9 dc3d 75ea 853d 9947 753d
00000330: d7e9 fe3d a01c 603a 6484 f8bd 3e97 a03c
00000340: 78c3 613d 6be4 9c3d 247a c33c b67f 873d
00000350: baa8 f53d 6819 ddbc dae7 2bbe 72c8 58bb
00000360: f3d2 ddbd c85a ffbc d9c5 533b 539a 1fbd
00000370: ee28 b1bb 2d65 eb3d 9b24 5c3d 6479 603d
00000380: 5179 1abe de29 ad3d 600f e9bc 5274 45bc
00000390: c827 e63d 6c86 37bb 9446 bc3d 11e8 88bd
000003a0: ff57 abbc a9fe 81bd b588 7c3e 588c 3c3d
000003b0: 1a87 423d 0481 5039 1af4 7ebd a48c 0d3e
000003c0: 1058 183e e5b6 7b3d 57f1 d83d 6257 ac3d
000003d0: 3006 0e3e 589c eabd 4c2b 993c 7ae0 d23d
000003e0: 24f3 c23a 0a33 f5bd 6c74 873d becd 1abe
000003f0: 0434 b8bd e0ab be3d 4edf 83bd c3ed 82be
0.074803926 -0.136459 -0.010762388 -0.041219827 0.17865445 0.06416739 -0.035505198 0.096591
-0.004495559 0.108458675 -0.030461831 0.0899651 0.050713714 0.047801338 -0.09254808 -0.011130876
0.06818687 -0.00586444 0.036887866 0.1888568 -0.009633687 0.072800025 0.015220403 0.029999701
-0.022670547 -0.09632911 0.15081981 0.07465868 -0.10665301 -0.010311867 0.0366406 -0.20052283
-0.10722796 0.0903797 -0.08336104 -0.08311892 0.06806452 -0.018244162 0.08423301 -0.2354205
0.06854963 0.005750402 -0.046833612 -0.15293027 0.12723836 -0.11990556 0.093987375 0.127388
-0.0621903 -0.09923753 0.15016013 -0.19473638 -0.08831855 -0.06258993 -0.009302728 -0.060284737
-0.16092913 -0.021632494 0.038689584 -0.12888527 0.17191662 0.27080297 0.06287333 0.05313994
0.045345504 0.029108662 0.09873918 -0.050731286 -0.18899365 0.0001880665 -0.12346071 0.14384367
-0.21488616 0.017754737 0.040443763 -0.029560246 -0.02353015 0.045220356 0.06331874 -0.0038212263
0.050656144 0.098429754 -0.02305979 0.050860263 0.09167643 -0.13178408 -0.00030277416 -0.016865402
0.1620784 0.07615981 0.029621273 -0.096750885 0.07273558 0.12588297 -0.17739317 0.033877403
0.059132185 -0.10413657 -0.06777353 -0.09210932 -0.068498 0.11318283 -0.06063825 0.2027333
0.023286877 -0.046348773 -0.10634328 0.008106831 -0.012991064 -0.04942199 -0.08174177 -0.09766227
0.103308976 -0.035840686 -0.05861891 0.0056683077 -0.10222954 -0.044273376 -0.02333398 -0.012318745
-0.040201228 -0.04683373 0.108743824 -0.077573106 0.0014201795 0.05955594 -0.104222104 0.031225488
0.04790629 0.091998175 -0.11711905 -0.10988435 0.0004857094 0.022251025 0.059665658 0.1043138
-0.06390412 -0.11600944 0.128332 0.00046898247 -0.03399229 0.0031189413 -0.08456844 0.02496684
-0.15213573 -0.17286651 0.06453887 -0.04802343 0.093942836 0.027617468 0.0044993707 -0.06786432
-0.0036305413 -0.15375917 0.23711538 -0.07038892 -0.013148093 0.068304196 -0.08699056 0.082364306
0.009307093 -0.04952131 -0.023176912 -0.06325697 0.12391749 0.03654502 -0.053245198 0.12640993
0.09075807 0.059406456 0.068349265 -0.025287274 0.048538636 0.046621058 0.0102993995 -0.069593094
0.04478248 -0.11093727 -0.010842748 -0.13414572 0.08545026 -0.04539402 -0.054161735 -0.08389986
0.12823828 -0.010309972 -0.032292698 -0.024949536 -0.026576467 0.03667632 0.15372102 -0.012477774
0.068701014 -0.044866767 -0.020591943 0.009235039 -0.078560814 0.007776845 0.016123591 0.0039019177
-0.03446064 0.10777508 0.0653886 0.059882734 0.12446945 0.00085491873 -0.121346265 0.019603368
0.055118054 0.07660755 0.023861952 0.06616156 0.11995073 -0.026989654 -0.16787663 -0.003307846
-0.10831251 -0.031171218 0.0032313971 -0.038965534 -0.0054064905 0.11493907 0.053745847 0.054803267
-0.15085341 0.08455251 -0.028449714 -0.012051659 0.112380564 -0.0028003706 0.09193149 -0.06684888
-0.020915983 -0.06347401 0.24661525 0.04603228 0.047492124 0.00019884488 -0.062244512 0.13823181
0.14877343 0.06145372 0.10592907 0.084151044 0.13869548 -0.114556015 0.018697403 0.10296722
0.0014873487 -0.119726256 0.066140026 -0.15117547 -0.08994296 0.09310126 -0.06439076 -0.25572023

gc3.bias f4 [100]
00000000: bb4b a6bc 0abd d33c 9d29 ebbc c83e 2a3d
00000010: 90d4 3ebd f25a 2bbd b5af 1a3d 30ad e8bc
00000020: cbec be3b 95d4 39bd 194f bf3c a0db 03bd
00000030: 6479 1a3d b527 bfbc 5bdc 13bd 772c 573a
00000040: 7bf2 09bb f834 bb3c a6e5 aabc 715a c5bc
00000050: ab8d 06bd 9ed4 eebc e863 04ba e044 4cbc
00000060: c5c3 81ba 01b7 0a3d b859 11bc 3b31 debc
00000070: 670b b43b 5bd5 0b3d 86ad 9e3c ad14 dfbc
00000080: 73c6 1b3d b7da e63b badd 0abd 58e9 c03c
00000090: 3a39 c6bc 8249 4bbd 9e59 933a 20dd a03d
000000a0: eeb5 433b 85c7 7039 8eb5 d53b 2067 18bd
000000b0: aa82 ddbc 44f0 813d 05a8 0b3d 13f6 71bd
000000c0: 437a aa3b 4937 2d3d 2f99 27bc 2531 06ba
000000d0: e5fb 453d 3517 e7bc 1a9b ba3b c8ed 1fbd
000000e0: be7c b3bc 9da6 e3bc aa91 1a3d d1bd 67bb
000000f0: e3e5 8fba a5f3 c4bc dc6a f4bc 7429 5b3b
00000100: 528f 843c ca66 403d 8712 b3bc 6482 123d
00000110: cee5 3f3c 33ec cabb cac2 fd3b e1a2 cfbc
00000120: 2d25 153c d5d3 c73c a00f 3dbb 109d 713d
00000130: 4da4 ca3c 159b efbb 6d11 d83a 757d a9bc
00000140: da94 1f3c 7cbf ffbc f9fd efbc 87b9 1e3d
00000150: d090 7f3d 962b 10bd 7e6b a9bc b31a 6dbc
00000160: 1cd8 b33a 877a a4bc 7934 90bc 0d7c ef3c
00000170: 4ede 47bd 6b9c 63b9 48e0 4b3d 67fb 6f3d
00000180: 74e2 873d 05c6 663d 2c48 8fbc d8b5 ad3c
-0.020299783 0.025846977 -0.028706366 0.04156378 -0.046589434 -0.04183478 0.037765224 -0.028402895
0.0058265678 -0.04536875 0.023353146 -0.032191873 0.037713423 -0.023334363 -0.03609882 0.0008208225
-0.002104907 0.022852406 -0.020861458 -0.024090977 -0.03284995 -0.029154118 -0.00050502876 -0.012467593
-0.0009900263 0.033865932 -0.008871488 -0.027123084 0.0054945233 0.03413902 0.019369852 -0.027231539
0.038031053 0.007045116 -0.03390286 0.023548767 -0.02419721 -0.04963065 0.0011241918 0.07854676
0.0029863077 0.0002296251 0.006521887 -0.037207723 -0.027039845 0.06344655 0.034095783 -0.059072565
0.005202563 0.042289052 -0.010229393 -0.00051190174 0.04833593 -0.028209308 0.005694759 -0.039045125
-0.021910068 -0.027789408 0.037736572 -0.0035360942 -0.0010978546 -0.02404196 -0.02983611 0.0033441456
0.016181622 0.046973027 -0.02185942 0.03576888 0.011712505 -0.006192708 0.007744168 -0.025346221
0.009103102 0.024393002 -0.0028848425 0.058987677 0.024736548 -0.0073121884 0.0016484685 -0.020689705
0.009740079 -0.031219237 -0.029295908 0.03875115 0.062393963 -0.035197817 -0.02068114 -0.014471698
0.0013721022 -0.020077957 -0.017603146 0.029233957 -0.04879599 -0.00021706677 0.04977444 0.058589365
0.066349894 0.05634119 -0.017490469 0.021204874
