best_models/MOGONET/fold_5/C.pth (torch, 1887 bytes, 4 tensors)

model.0.weight f4 [8, 8]
0	0xbeabe198	-0.33570552
1	0x3f112b01	0.56706244
2	0xbf43b27f	-0.7644424
3	0x3f15f1e7	0.5857224
4	0xbee13bb3	-0.4399086
5	0x3ec15bbd	0.37765303
6	0x3f3819db	0.7191445
7	0x3f6e6794	0.931268
8	0xbf009534	-0.50227666
9	0xbeb20828	-0.34771848
10	0x3e7fe1a8	0.24988425
11	0x3d9d8315	0.076910175
12	0xbdad1404	-0.08451083
13	0x3ea165b6	0.31522912
14	0xbe79bb41	-0.24387838
15	0x3dc1002a	0.094238594
16	0xbf94df38	-1.1630621
17	0xbdde85a8	-0.10865337
18	0xbeced589	-0.4039729
19	0x3f6655ce	0.8997468
20	0xbf93e61a	-1.1554596
21	0x3f30dce8	0.69087076
22	0x3f443433	0.7664215
23	0x3f5e7fc3	0.869137
24	0x3f208217	0.626985
25	0x3e9c328c	0.30507314
26	0x3f9522c6	1.1651237
27	0xbf808197	-1.0039548
28	0x3f91692b	1.136022
29	0xbf5c1e07	-0.8598332
30	0xbf62f273	-0.886512
31	0xbfe28b24	-1.7698712
32	0x3fbac766	1.4592102
33	0x3f2758ad	0.65369684
34	0xbe3ba170	-0.18323302
35	0xbf2ce591	-0.6753779
36	0x3ec034e2	0.37540346
37	0xbf013626	-0.5047325
38	0x3db2679e	0.0871117
39	0xbeef9983	-0.46796808
40	0x3d3e7b14	0.046504095
41	0x3e65444f	0.22389339
42	0xbea263eb	-0.31716856
43	0x3e1d11f2	0.15338877
44	0xbe247f6b	-0.16064231
45	0x3eab354a	0.33439094
46	0x3e5224a9	0.20521797
47	0x3ed292bb	0.4112757
48	0x3de2b93b	0.11070486
49	0xbecbfc98	-0.3984115
50	0xbf07d3d3	-0.53057593
51	0x3f2b57f9	0.6693111
52	0xbe9bb2ac	-0.30409753
53	0x3f1a1d57	0.6020102
54	0xbdfb6751	-0.122755654
55	0xbedb367f	-0.42815015
56	0xbf4298fe	-0.760147
57	0xbe82e9e7	-0.25569078
58	0xbe010c1b	-0.12602274
59	0x3e9eb3be	0.30996507
60	0xbe9b71fe	-0.30360407
61	0x3e803813	0.2504278
62	0x3ecd1a63	0.40059194
63	0x3f3b52ee	0.73173416

model.0.bias f4 [8]
0	0x3eab6cae	0.33481354
1	0xbdeb23ae	-0.11481415
2	0x3f3a74aa	0.72834265
3	0x3f880ed3	1.0629524
4	0x3f0e52c1	0.5559502
5	0xbd3e799c	-0.046502694
6	0xbe294976	-0.1653193
7	0x3f35c839	0.7100864

model.2.weight f4 [2, 8]
0	0xbf376760	-0.7164211
1	0x3f077658	0.52914953
2	0xbfaec2af	-1.3653163
3	0x3fa1b53f	1.2633437
4	0x3ef9e377	0.48806354
5	0xbd36b4ae	-0.044605903
6	0xbe42895b	-0.1899771
7	0xbf19b295	-0.6003812
8	0x3f7f00e5	0.9961074
9	0x3f15f351	0.58574396
10	0x3bae4774	0.0053185765
11	0xbf6d8bde	-0.92791545
12	0xbf3eed8c	-0.7458122
13	0x3f79d5ba	0.97591746
14	0x3e94bc1f	0.29049775
15	0x3fa91d66	1.3212097

model.2.bias f4 [2]
0	0x3ea58f6d	0.32335988
1	0xbea58f85	-0.3233606
