best_models/MOGONET/fold_5/C1.pth (torch, 1895 bytes, 2 tensors)

clf.0.weight f4 [2, 100]
0	0xbd6067ef	-0.05478662
1	0x3ea8159d	0.3282899
2	0xbe5a2324	-0.21302468
3	0xbe52f53d	-0.20601363
4	0xbd22c1aa	-0.039735474
5	0x3d06b323	0.03288568
6	0xbb912eab	-0.004430612
7	0x3e67cb7d	0.22636218
8	0x3cae9122	0.02130944
9	0xbdd749fc	-0.10512158
10	0xbe29b0b2	-0.1657131
11	0xbe48adad	-0.19597502
12	0xbd5391e2	-0.051652797
13	0x3e2450c3	0.16046433
14	0xbe6d8540	-0.23195362
15	0x3df7ebf8	0.12105554
16	0xbdd9de32	-0.106380835
17	0xbdb91d1f	-0.090387575
18	0xbe97540e	-0.29556316
19	0x3e4533f7	0.19258104
20	0xbdf001c8	-0.1171909
21	0xbe33b0d6	-0.17547926
22	0xbe5562fd	-0.20838542
23	0xbe467ae4	-0.19382817
24	0xbd1f9bf8	-0.038967103
25	0xbe17dd5d	-0.14830537
26	0xbe72786a	-0.23678747
27	0xbe7b9d25	-0.24571665
28	0x3ed0af21	0.40758613
29	0xbdea2d6b	-0.11434444
30	0xbceffe5d	-0.029296095
31	0x3d35647c	0.044285282
32	0xbe1006ae	-0.14065048
33	0xbb5dc51f	-0.0033839417
34	0x3e8c42f1	0.27394822
35	0x3d8d38b5	0.06895582
36	0xbd7b5302	-0.06135846
37	0x3dce172d	0.10063014
38	0x3d607b13	0.054804873
39	0x3e25208c	0.16125697
40	0x3e14827e	0.14502904
41	0xbc9b47f4	-0.018955208
42	0x3df15931	0.1178459
43	0xbaa041fc	-0.0012226696
44	0xbd8644f6	-0.06556122
45	0xbd4d6c06	-0.050151847
46	0xbdc875dc	-0.09788105
47	0xbe297acb	-0.16550748
48	0xbed8c55b	-0.4233807
49	0xbe75bdfb	-0.23998253
50	0x3d416856	0.047218643
51	0x3dd81b28	0.10552055
52	0xbd2c1f47	-0.042022016
53	0x3de99bd6	0.114066765
54	0x3bdaba7d	0.006675063
55	0xbe2e07ba	-0.16995135
56	0xbe83c2a0	-0.25734425
57	0xbd82d783	-0.06388762
58	0xbeb56774	-0.3543049
59	0x3e14104e	0.14459345
60	0x3d810565	0.06299857
61	0x3d057ee3	0.03259171
62	0xbd2fe41d	-0.042942155
63	0x3d62d8c5	0.05538251
64	0xbe9ff060	-0.3123808
65	0x3e63db7a	0.22251692
66	0x3e7da1e8	0.24768794
67	0xbd804dbe	-0.06264828
68	0xbe4f8f73	-0.20269565
69	0x3e669e74	0.22521383
70	0xbdf34c2d	-0.11879764
71	0xbbacb373	-0.0052704155
72	0xbecaa303	-0.39577493
73	0x3ead845f	0.33890054
74	0xbdd5b7a3	-0.104354165
75	0x3d2fab85	0.042888183
76	0x3eec4ec8	0.46153855
77	0x3e550c66	0.20805511
78	0x3c2f708a	0.010707984
79	0x3e035e7e	0.12829015
80	0xbca10d84	-0.019659765
81	0xbda65288	-0.0812121
82	0x3d4f41e4	0.050599948
83	0xbeae131d	-0.33998957
84	0x3e8c97e5	0.27459636
85	0xbecb4228	-0.3969891
86	0xbe9b4760	-0.30327892
87	0x3dd375aa	0.10325177
88	0x3dc1d501	0.094644554
89	0x3d16db86	0.036830448
90	0x3d591061	0.052994136
91	0x3e9ac4df	0.30228326
92	0xbd706045	-0.05868556
93	0xbdd5a61b	-0.10432073
94	0xbe1d0146	-0.15332517
95	0xbe47a9bc	-0.19498342
96	0xbeef923f	-0.46791264
97	0x3e344283	0.17603497
98	0x3e5e24bc	0.216937
99	0x3dec6416	0.115425274
100	0x3b263923	0.0025363646
101	0xbe7af982	-0.24509242
102	0x3e7ea2c5	0.24866779
103	0x3e0fa500	0.14027786
104	0x3e85da10	0.2614293
105	0xbe8027eb	-0.25030455
106	0xbdacd355	-0.08438746
107	0x3dafe157	0.08587902
108	0x3e5a05d7	0.2129129
109	0x3ee3bb5c	0.4447888
110	0x3e2b1063	0.1670547
111	0x3df6dd39	0.120539136
112	0x3e3e97d9	0.18612613
113	0xbe027b16	-0.12742266
114	0x3e70d831	0.2351997
115	0xbc086804	-0.0083255805
116	0x3e93803b	0.2880877
117	0x3e2ef808	0.17086804
118	0x3eaceea4	0.33775818
119	0x3d99af60	0.07504153
120	0x3d402ef1	0.046919767
121	0x3e116dc5	0.1420203
122	0xbcb9024a	-0.0225841
123	0x3c964801	0.018344881
124	0x3c82bac3	0.015958196
125	0x3caa80e7	0.020813419
126	0x3e69a57f	0.22817038
127	0xbcc554cf	-0.024088291
128	0xbdf40b9a	-0.11916275
129	0xbd261d64	-0.040555373
130	0x3e5c55b6	0.21517071
131	0x3da7afd5	0.08187834
132	0x3dd800e4	0.10547045
133	0x3e866ad2	0.26253372
134	0xbdd19742	-0.10233928
135	0xbe11da97	-0.14243542
136	0xbdcc1d36	-0.09966509
137	0x3d87991d	0.06621001
138	0x3e67014d	0.2255909
139	0x3e52c5a2	0.20583203
140	0xbdd81394	-0.10550609
141	0x3e552583	0.20815091
142	0xbe1f4534	-0.15553743
143	0xbe18a39d	-0.14906164
144	0xbd8919c0	-0.066943645
145	0xbe18d54c	-0.14925116
146	0x3ae1407e	0.0017185358
147	0x3da89794	0.08232036
148	0x3e209f26	0.1568571
149	0xbcda6355	-0.026658693
150	0xbe268731	-0.16262509
151	0xbd60522f	-0.054765876
152	0xbe4f0808	-0.20217907
153	0xbe4f5c3e	-0.20250031
154	0xbe706cea	-0.23479047
155	0xbd9ed40d	-0.07755289
156	0x3e4adc44	0.19810587
157	0x3de74158	0.1129176
158	0xbe28530e	-0.16437933
159	0xbd3325e5	-0.04373731
160	0xbd93a3e3	-0.07208993
161	0x3d88dea9	0.06683094
162	0xbe6f2e74	-0.23357564
163	0x3ea1d7da	0.31609994
164	0x3db4b2ac	0.088231415
165	0x3c83fc04	0.016111381
166	0x3df1184d	0.11772213
167	0x3e7e8759	0.24856319
168	0x3c44cfd5	0.012012442
169	0xbdcd54b9	-0.10025925
170	0xbe2dc57b	-0.16969864
171	0xbe1fc3ed	-0.15602084
172	0x3d919e35	0.07110254
173	0x3dea5f05	0.11443905
174	0x3d92cb25	0.07167653
175	0xbe398c20	-0.1811986
176	0xbd7d4249	-0.061830793
177	0x3d17d660	0.03706968
178	0xbe81a673	-0.25322303
179	0xbe967708	-0.2938769
180	0x3e377593	0.17915945
181	0xbe95e830	-0.29278708
182	0x3e4c8455	0.19972356
183	0x3ae122ec	0.0017176545
184	0xbe6a9b33	-0.22910766
185	0x3e96e9ab	0.2947515
186	0x3e3e45e7	0.18581353
187	0xbeab2c60	-0.33432293
188	0xbe39647c	-0.18104738
189	0xbe15623f	-0.14588259
190	0xbd54b9d8	-0.051935047
191	0xbd1b0863	-0.037849795
192	0xbddcae8d	-0.107754804
193	0xbd4a9181	-0.04945517
194	0x3df80384	0.121100456
195	0x3e123faa	0.14282098
196	0x3eb70fa5	0.35754123
197	0xbd01b231	-0.031664077
198	0xbe2d7902	-0.16940692
199	0xbe337b3a	-0.17527476

clf.0.bias f4 [2]
0	0x3c437ea9	0.011932054
1	0xbc4380d3	-0.01193257
