best_models/MOGONET/fold_5/C2.pth (torch, 1895 bytes, 2 tensors)

clf.0.weight f4 [2, 100]
00000000: 1078 61bd 621f 083e b6b6 6abe 9787 0b3c
00000010: b4c0 ae3d 6ee3 22bd e1a2 113e f168 1a3e
00000020: 8cec b2bd 4d54 aa3c 367d 16be 722d 923d
00000030: 1986 4cbe e6c9 023e 0b35 2e3e e7ed 163e
00000040: 7860 6bbe d477 b53b 771c 503d 5008 50bb
00000050: b717 1b3d 4abc fa3d 438a d23d 4c4d 78be
00000060: 7ee1 723c 42a6 99bd 2154 1a3e f0bf 8ebd
00000070: a45a 08bd 8a03 b3bd 2b55 323d c497 65bd
00000080: acce 82be 1c1b 683e 86ca 2dbd 4777 f5bb
00000090: ebfd 5f3e 870c 0d3d 1287 473d ad25 583d
000000a0: 405b 763e be6b 99be 0e6d 133e c001 bfbd
000000b0: 2a2f 3f3d 5889 8b3e e9af 233d a2be 533d
000000c0: f25e 673e 1f13 20be 96be 7cbe 139e 58be
000000d0: 6200 803e fc81 fa3d 05c5 86bd a63e 823d
000000e0: 378c d1bc f5a3 b03c d7fc 843e 3b70 b1bc
000000f0: 13cd abbb da21 bebe 0e7c 823d a8d6 3cbe
00000100: a9db 1ebe 3682 733e c1f5 da3c 8023 273e
00000110: 82ab fa3d 799c a83d a511 b03c d9aa e0bc
00000120: 5f8f 193e 229b fabd 09b7 34bc 3512 413d
00000130: 9b95 0d3e f5d2 d03c 0921 59bd ece7 96bd
00000140: f07d c5bc b4c6 013e 295f e83b 532e 8b3e
00000150: 5796 ec3d e1f0 9e3c 5bb2 6dbe df45 f93a
00000160: 1c8e b53d 54a1 c6bc ce16 573e c3f8 29be
00000170: 77fa 15be 12ec 9dbd 0483 c83b 0ae5 afbd
00000180: 9bdf 99bd 4e5b 073e a4e3 783d 5b11 97bc
00000190: 20b1 2cbe eae5 133e 6f6a 02be 1995 0cbe
000001a0: 4dd9 ad3e 89e2 6d3e 32a3 aabc bf46 8bbd
000001b0: 764f 583d 9b3a 103e d321 31bd 6102 85bd
000001c0: dede 403d df00 16bd 8eb6 223e 4cc8 1fbd
000001d0: 353b 96be 1934 513e 0017 6cbe f93b 8b3e
000001e0: d9f3 dabd b46f d1bc cee3 8b3e efa9 2e3c
000001f0: f561 2bbe b9ae 68be 3cda a6bc b7dc 9e3d
00000200: a02d 83bc 7978 8d3d ceaf 9dbe 4e3b 963e
00000210: 1ccd 833e a876 3bbe d45c 643c 72c3 06be
00000220: fd1d 15be 673f 773d 6750 c1bd c7bf 4dbe
00000230: ed0d 6abe 57b3 d63d 0d5f bfbd 39e5 edbd
00000240: 3db2 29bd 4267 34be fe11 3c3e 65d0 9abe
00000250: 0f93 a2be 5f67 be3d 1084 09be ffc4 35be
00000260: 542c 49be 5cb1 aebd d5f8 87bd 6f17 41be
00000270: 2c70 eb3d 7d71 513e 09de be3d 6000 d7bd
00000280: 06ea 6bbe c4f0 0f3d 97c6 93bd b535 253d
00000290: bfb8 023d 7774 003e e06f a6bd 00cc a2be
000002a0: c059 27bd 1c4c f1bd d64f 0f3d 81da 1d3d
000002b0: 8e86 9c3b 1d01 9abc 3c24 d5bd f104 25bc
000002c0: 6eb6 32bd e077 96bd c614 803e 88cb 1d3e
000002d0: a2a7 01be 0da9 9c3d 109f a53d 454e 86be
000002e0: 7b78 1cbe 51d1 a0bc ee6a 12bd 0f37 0ebe
000002f0: c8fc 773d bbed 4d3e 3176 c53d d051 02be
00000300: 7748 a73d caae 01bd f73e c13c c29b 973c
00000310: f4b0 f23c c71b b9be bb9c 853e 4c04 d83e
-0.05504614 0.13293222 -0.22921261 0.008516214 0.08532849 -0.039767675 0.1422229 0.15079094
-0.08736524 0.02079215 -0.14696202 0.07137574 -0.19973029 0.1277233 0.17012422 0.1473919
-0.22986019 0.0055379663 0.050808396 -0.0031743236 0.037864413 0.122429445 0.102802776 -0.24248236
0.014824269 -0.07502414 0.15071155 -0.06970203 -0.033289567 -0.087409094 0.043538254 -0.056052938
-0.25548303 0.22666591 -0.04242947 -0.0074910256 0.21874206 0.034435775 0.048712797 0.052770305
0.24058247 -0.29965013 0.1439707 -0.09326506 0.04667584 0.27253222 0.039962683 0.051695473
0.22594813 -0.15632294 -0.24682078 -0.2115405 0.25000292 0.12231824 -0.06580547 0.063596055
-0.025579555 0.021562556 0.25974151 -0.021659961 -0.0052429526 -0.37135202 0.06371318 -0.1844126
-0.15513481 0.2378014 0.026728513 0.16322136 0.12239744 0.0823297 0.021492789 -0.027425217
0.14996098 -0.122366205 -0.011029967 0.047136504 0.13826601 0.025491217 -0.05301002 -0.07368454
-0.024107903 0.12673455 0.007091422 0.2718378 0.115521125 0.01940197 -0.23212568 0.0019018016
0.08864996 -0.02424685 0.21004793 -0.16598801 -0.14646326 -0.077110425 0.006119134 -0.085886076
-0.075133525 0.13218424 0.06076397 -0.018440893 -0.16864443 0.14443174 -0.12735914 -0.13728751
0.3395485 0.23230948 -0.02082977 -0.06800603 0.052810155 0.14084856 -0.043245148 -0.06494594
0.047087543 -0.036621924 0.15889952 -0.039009377 -0.29342046 0.2043003 -0.23055649 0.27194193
-0.106910415 -0.02556596 0.2732224 0.0106606325 -0.16736586 -0.22722901 -0.020367734 0.07756942
-0.016012967 0.06907744 -0.3079819 0.2934212 0.25742424 -0.18306983 0.013938148 -0.13160494
-0.14562221 0.0603632 -0.09439164 -0.20092689 -0.22856875 0.10483425 -0.093443014 -0.116159864
-0.041429747 -0.17617515 0.18366238 -0.30237117 -0.31752822 0.0929706 -0.13429284 -0.1775093
-0.19645816 -0.08529922 -0.06639258 -0.18856595 0.114960045 0.20453449 0.093196936 -0.104981184
-0.23038492 0.03514172 -0.072156124 0.040334422 0.03191447 0.12544428 -0.08126807 -0.31796265
-0.040857077 -0.11782095 0.034988247 0.03853846 0.0047767824 -0.018799359 -0.10407302 -0.010071979
-0.04363101 -0.07347083 0.2501585 0.15409672 -0.12661603 0.076494314 0.080869794 -0.2623159
-0.15280335 -0.01963106 -0.035746507 -0.1388819 0.060543805 0.20110218 0.09641684 -0.12726521
0.081681184 -0.031660832 0.023589594 0.018506888 0.029625393 -0.36154005 0.26096138 0.42190778

clf.0.bias f4 [2]
00000000: abce cebc 9dcb ce3c
-0.025245031 0.025243575
