best_models/MOGONET/fold_5/C3.pth (torch, 1895 bytes, 2 tensors)

clf.0.weight f4 [2, 100]
00000000: 3695 b8bd 7628 eb3d 588c 933d 9cbc 17be
00000010: 89f7 733d deec 8abd 68fc 483d 6b35 663e
00000020: 3337 50bd 8eed 933d b1cf 763e 3251 f7bc
00000030: b955 903d f2aa 98bc 3bca 0f3d 8924 323d
00000040: bf3a 2cbd 1632 27bd 5b04 fe3d 53a7 d9bc
00000050: 750f 393e f119 963d 0591 2dbd f37c d1bd
00000060: bf56 813b b251 e2bd 378a 8b3c 6ed0 d63d
00000070: 1fd9 a3bd 996a 37bd 3638 793d db99 d4bd
00000080: 0c40 433c 79d2 693c 2933 083e 8651 b83d
00000090: c881 02be 309a 7abe 1f67 dc3d f217 663e
000000a0: 3fb6 173c 3b7b e0bd 9035 713d ffef 11be
000000b0: cbee f1bd 017c 6bbd d75f 8a3d 2604 bd3d
000000c0: c6b7 be3d 3d7a 00be 7a09 0fbc 5ac4 30be
000000d0: 8756 833e fcf3 36bd 1239 babc fd3e d0bc
000000e0: db71 bbbd 529c e33d dc12 eb3d 8b99 0abd
000000f0: 4af9 4f3d fee0 af3d 16b8 fcbd db92 67bd
00000100: 4a06 4ebe c1ee 99bc b396 653d 6499 ba3d
00000110: b0f3 d2bd d7e5 993d 467c 09bc 5839 a1be
00000120: 77ea 0a3d eb45 a9bd ad1d 983c 3916 00be
00000130: 4148 4a3e 5b39 65bd 2dc6 b1bd 3909 653e
00000140: 771b d93d 10da 8e3e fabb ce3c 6bfd 723d
00000150: f232 03bd 2805 93bc 0434 0fbe 4708 ee3d
00000160: efce 143e f5fa 553d ccb0 3cbe 565e 76be
00000170: 6d36 363e 57ef 9a3e 3307 ff3d abb7 75bd
00000180: 2efc 223e 3348 973b 8a95 90bd 1b08 0abe
00000190: c10e 6ebe 3577 c7bd a95c 0ebe b4e9 0fbe
000001a0: ad28 453e ecf7 bd3e b319 e0bc 5d9c a7bd
000001b0: 4a6a a7be bbc8 15be f123 353c 57e5 313e
000001c0: e0ac 953d 1126 84bc 2e0e 9cbe e1f0 b4bd
000001d0: 6002 933d c6fe 8abd df75 48be 7e72 c4be
000001e0: e1e8 c0bd 284c 0d3d 7fc2 f13c 78e9 aa3b
000001f0: 5d69 3c3d 0b09 88bc 0b79 73bd 8782 c9bd
00000200: 6a3c 983d 36cf 3f3d e111 fe3c edde 1e3e
00000210: c0c6 3fbe 1424 3ebd 88f4 c7bd 56b4 e93d
00000220: 4de7 9e3d 54f4 b33d a6b4 d3bc 92ef 043e
00000230: 9893 c8bd aee5 543e 5e3c 543e 05ad 493e
00000240: 0df8 0c3e 12c2 2ebd 53f0 e1bc b8ea 05be
00000250: 4d04 193e cd95 09be 621f a9be 3efe 103e
00000260: 4935 1b3e a96a 8abd 0839 243d d316 a23d
00000270: cb52 443c 2606 6abd 225a db3d d4fc b73d
00000280: 008b 173d 2ce6 45bd da8a 023d 7b84 92be
00000290: 5aec 6dbe d65b 8d3d e48e 43be be99 3abe
000002a0: a623 f7bc 8a2d 833d 13a3 043e 2de4 8fbb
000002b0: faff ddbd 2f1e 73be a310 97be 2fbc 32be
000002c0: 02ad 0abe 35db 7f3d 0f68 013e 54f4 48bb
000002d0: d8ae 2d3e 0f94 a0be d212 3e3d 8a30 63be
000002e0: 1862 c0bc 1de7 1fbe a27f 8abd dc16 31be
000002f0: 94c6 a73b 032a c6be da53 dc3d 1cf6 273d
00000300: e609 843d 34e4 55bd 4cac 6dbe 0cf4 813d
00000310: f298 843d c1b8 f63d f8dd 2bbe 0b7b 633c
-0.09012835 0.11482327 0.07204503 -0.14818043 0.05956224 -0.0678346 0.04906884 0.22481315
-0.050833892 0.07223044 0.24102665 -0.030190084 0.070476 -0.0186362 0.03510497 0.043491874
-0.042048212 -0.04081925 0.124031745 -0.026569044 0.18072303 0.07329167 -0.04237463 -0.1022891
0.0039471085 -0.110507384 0.01703368 0.104889736 -0.08000397 -0.044779394 0.060844623 -0.10380908
0.011917125 0.014271372 0.13300766 0.08999924 -0.1274482 -0.2447288 0.10761856 0.22470072
0.009259759 -0.10961004 0.05888897 -0.14251707 -0.11813124 -0.057491306 0.06756561 0.09229307
0.09312396 -0.1254663 -0.008730287 -0.17262402 0.25651953 -0.044666275 -0.022732291 -0.02542066
-0.091525756 0.111138 0.114782065 -0.033837836 0.05077485 0.08587836 -0.12339799 -0.056536537
-0.20119587 -0.018790605 0.05605192 0.09111288 -0.10300386 0.075145416 -0.0083914455 -0.31489062
0.03391501 -0.08265289 0.018568838 -0.12508477 0.19754125 -0.0559629 -0.08680377 0.223668
0.10600942 0.27900743 0.025236119 0.05932371 -0.032031007 -0.017946795 -0.13984686 0.116226725
0.14532064 0.052241284 -0.18426818 -0.24059424 0.177942 0.30260727 0.12452545 -0.059989613
0.15916511 0.004616761 -0.07059772 -0.13479654 -0.23247816 -0.09739534 -0.13902535 -0.14053994
0.19253798 0.37103212 -0.027356004 -0.08184121 -0.3269828 -0.14627354 0.011055932 0.17372642
0.07308364 -0.016131433 -0.30479568 -0.088350065 0.07178187 -0.067868754 -0.19576214 -0.383686
-0.09419418 0.034496456 0.029511688 0.00521582 0.04599892 -0.016605875 -0.059441607 -0.09839349
0.07433398 0.04682847 0.031014385 0.15514727 -0.18728161 -0.046421126 -0.097634375 0.114113495
0.07758961 0.08786836 -0.025842976 0.12982014 -0.09793776 0.20790741 0.20726153 0.19694908
0.13766499 -0.04266555 -0.027580416 -0.1307782 0.14943047 -0.1343605 -0.33031756 0.14159486
0.15157045 -0.06758625 0.04009345 0.079145096 0.01198263 -0.05713477 0.10710551 0.0898377
0.036997795 -0.048315212 0.0318707 -0.286167 -0.23234692 0.06902282 -0.19097477 -0.1822271
-0.030168366 0.0640517 0.12952833 -0.0043912143 -0.10839839 -0.23741983 -0.2950488 -0.17454599
-0.1354256 0.06246491 0.12637351 -0.003066321 0.16961229 -0.3136296 0.046404667 -0.22186485
-0.023484275 -0.15615506 -0.06762625 -0.17293876 0.005120108 -0.38703927 0.10758181 0.041006193
0.064472005 -0.052219585 -0.23210257 0.06345376 0.064744845 0.12046958 -0.16783893 0.013884316

clf.0.bias f4 [2]
00000000: 84ee ea3b 13fc eabb
0.0071695466 -0.007171163
