best_models/MOGONET/fold_5/E1.pth (torch, 392727 bytes, 6 tensors)

gc1.weight f4 [186, 200]
00000000: cd28 173d 21c9 b63c 033a 5fbd 2614 ccbb
00000010: bf71 de3d 8882 dd3d 94c5 ecbc ad58 22bd
00000020: 21a9 78bd 8671 f5bd ace4 f5bd 4de8 87bc
00000030: d29f 0cbe 9347 20bd 5ea0 b5bb 315f 8d3d
00000040: 2160 00bc ff8b 193d e4ce 7bbd 63df a2bd
00000050: 5ff6 3a3d da33 85bd 3eef 61be 617b dc3d
00000060: 2792 0bbd 17d9 44bd 4573 193d eabe 9e3d
00000070: edd3 1abe 2545 35bd a155 f0bb 0e92 8d3d
00000080: af75 9a3d 9982 a7bc 38bb d3bc 2746 0ebe
00000090: 7ab8 34bd 8ae2 1d3d 478a a43d d924 5e3c
000000a0: c6ae e23d 8fa8 f8bb d075 f1bd 6f0a 7cbd
000000b0: befb 1d3d 3a34 9a3c fddc cb3b 8705 bf3d
000000c0: c103 f03d b825 523d bd0c 86bd f601 93bc
000000d0: a414 083e ba11 1abd 5dae d43d bdb3 003e
000000e0: c80a a73d 39e5 b73d 70e4 d33c 221d 6bbc
000000f0: cc82 9bbd 80a0 15be 7c0e 093d a981 b3bc
00000100: 3524 453b 1329 313d 7f87 25bd 6bee 993c
00000110: 5c66 ad3d e64b d43d b4e9 46bd aa66 a4bd
00000120: 4657 0c3d b9aa 94bc fe42 bf3d f566 833d
00000130: dc1b 84bd a03a bfbd ca5c c73d f021 b3bd
00000140: 6316 913d 8b02 ec3d 79ce bd3d 4be0 063d
00000150: 2646 eebc 11ef cbbc 7cab d93c 8b5a 2ebd
00000160: a0ab 13bd b267 6c3c 31a1 a63d dc04 93bc
00000170: c558 aebd d1a0 27be 59eb 053d 47ac 653d
00000180: 54a0 82bc 55ab 883d 3d6e e23c 23a2 29bd
00000190: 28e6 eebb aba0 2c3d 7037 0fbe 444b e0bd
000001a0: 9b87 ea3d 1f98 a53d b031 133e dd13 093d
000001b0: e408 60bb 78da 72bc ea89 51be 8d29 6dbd
000001c0: af45 183e 76d1 2c3c 5c58 083e cbec 60bd
000001d0: a303 9cbd 2d3f 3cbd 40ab fdbd 10d6 3d3d
000001e0: 1023 6dbd e396 8e3d 0323 243d 2d01 8ebd
000001f0: 9452 5c3d 8701 ecbd 2d43 61bc ecf5 9fbd
00000200: cb7e 003e a1f0 01be 0c2a b43d 5cb1 d4bc
00000210: 636a 883d aa44 83bd 1ce7 61bc 15ed 153b
00000220: 99ef 9b3d 4650 113d e2c1 123d 1db0 9fbd
00000230: d5c4 603d 8c9c 6e3d 7bc8 e53b b6be 893d
00000240: 86f2 b43c 5949 173e ecae 63bd c23d d23d
00000250: 662d a0bd 4e05 a3bd 79f5 8ebd 09d8 e53c
00000260: cc24 94bd 3187 b03d 47ec 163d 9d61 a73d
00000270: 1662 debc 1bb2 49ba 79aa 1fbd 1db7 933d
00000280: 3652 01be 0018 a33d 1500 e03c 0f60 d83d
00000290: 325e 5c3c eb7e 683d 3cf2 19bb 243a 8a3d
000002a0: 504d 3e3d 1d01 063e 8250 07be b5ff 093d
000002b0: b673 073d 440a c4bd 5f39 f2bd a624 563b
000002c0: 70d4 873c ef52 8abd a42c 363e 1f30 82bd
000002d0: 2301 033d e92e 223e a7ae 773d d368 10bd
000002e0: cf3c 01be 1f6e 183d ec55 f8bd db8f fabd
000002f0: e768 5b3d 84d2 2ebd 8b62 a13c 0343 31bd
00000300: 774f 3dbe 3693 653e 37fa 9a3d 25aa 4c3e
00000310: 3407 0f3e 4e83 0e3d af4e 12bc b7f4 ef3c
00000320: 6abc dfbd 4301 96bc a9dd 963a ccfe ca3d
00000330: a7e8 d03d 16ef 1d3e e7ea b23d 17cd a93c
00000340: 9867 98bd 994a b9bd e920 723d 47b0 cbbc
00000350: d261 c2bd e322 ecbd d701 a8bd 602c b0bd
00000360: ee24 0f3e 7392 aa3d 7579 e7bd ef9b ebbd
00000370: 9f7e 71bd 2ec7 be3d 00dd 09be f687 b4bd
00000380: cb9d 2dbd 26a1 6bbd 1ea1 ea3c 9714 353e
00000390: 05ce a63c 99e0 bf3d abae 683d 30f4 3ebd
000003a0: 248f b43c b198 ffbb e376 6d3d b6f6 4c3e
000003b0: d99d 8c3c 5c27 e73d 596c a73c b09c 953d
000003c0: b1ce 013e 5189 9d3b 50d4 82bb 9ac1 a13d
000003d0: 98f4 1d3c 9950 593d 10ff adbd 34a3 8cbc
000003e0: 2c6a adbd b838 193e 27dd f93c e19f 04bd
000003f0: 95bc 703d 92a0 f73d 3c3a d53c 4234 aabc
0.036904145 0.022312703 -0.054498684 -0.006227988 0.10861539 0.108159125 -0.028902806 -0.03963535
-0.06070817 -0.119845435 -0.12006506 -0.016590262 -0.13732842 -0.03913076 -0.005542799 0.06902922
-0.007835419 0.037487026 -0.061476603 -0.07952764 0.045645114 -0.065040305 -0.2206392 0.1076572
-0.03407493 -0.048058596 0.037463445 0.07751258 -0.15119906 -0.044255394 -0.0073344265 0.06912623
0.075419776 -0.020448016 -0.025846109 -0.13893948 -0.044121243 0.038546123 0.08034187 0.01355859
0.11068492 -0.007588453 -0.11790049 -0.061533388 0.03857016 0.018823732 0.006221412 0.09327226
0.11719466 0.051305503 -0.065453984 -0.017945271 0.13289124 -0.03761456 0.1038482 0.12568565
0.08156353 0.089792676 0.025865763 -0.0143502075 -0.07593307 -0.14612007 0.03346108 -0.021912413
0.0030081396 0.043252062 -0.040412422 0.018790444 0.08466789 0.10366039 -0.04856272 -0.08027394
0.034262918 -0.018147813 0.093389496 0.06416122 -0.06450626 -0.09337354 0.09734495 -0.087467074
0.07084348 0.115239225 0.09267897 0.032928746 -0.029086184 -0.02489427 0.026571028 -0.042566817
-0.036052346 0.01442902 0.081362136 -0.017946653 -0.08513025 -0.1636994 0.03269515 0.0560725
-0.015945591 0.06673304 0.027640456 -0.04141439 -0.0072906204 0.042145412 -0.13985991 -0.10951856
0.11451646 0.080856554 0.14374423 0.03346621 -0.0034184987 -0.014822595 -0.20462766 -0.057900954
0.14870332 0.010547986 0.13314956 -0.054913323 -0.07617881 -0.045958687 -0.12386179 0.046346724
-0.057894766 0.06962373 0.040072452 -0.06933818 0.05378969 -0.11523729 -0.013748926 -0.07810578
0.12548368 -0.12689449 0.08797082 -0.025963478 0.06660917 -0.06409581 -0.013788011 0.0022876908
0.07614059 0.035476945 0.035829432 -0.07797263 0.054875214 0.058254763 0.0070124245 0.06725828
0.0220883 0.14774074 -0.05558674 0.102656856 -0.07821159 -0.07959996 -0.06980414 0.028057115
-0.07233581 0.08619536 0.036846425 0.08172915 -0.02714638 -0.0007694081 -0.038980935 0.072126605
-0.12629017 0.07963562 0.02734379 0.10565197 0.013450192 0.056761663 -0.002349033 0.06749371
0.04646045 0.13086362 -0.13214305 0.033691127 0.033069335 -0.095722705 -0.11827349 0.0032675653
0.01658079 -0.067540996 0.17790467 -0.063568346 0.031983506 0.15838207 0.060469296 -0.03525622
-0.12620853 0.037214395 -0.12125763 -0.122344695 0.05356684 -0.042681232 0.01970031 -0.043276798
-0.18487345 0.22419438 0.07567256 0.1998678 0.13967592 0.03479319 -0.008929892 0.029291494
-0.10924609 -0.018311149 0.0011510152 0.0991188 0.10200625 0.15423235 0.0873621 0.020727677
-0.07441634 -0.090474315 0.059113417 -0.024864329 -0.09491314 -0.115300916 -0.08203476 -0.08602214
0.13978931 0.08328714 -0.11302463 -0.11504351 -0.058958646 0.09315334 -0.13463211 -0.08814995
-0.04238681 -0.05752673 0.02864128 0.17683636 0.02036191 0.093690105 0.0568072 -0.046619594
0.022040911 -0.0078001847 0.057974707 0.20015988 0.017165111 0.11286804 0.020437406 0.073052764
0.12676503 0.004807629 -0.003992595 0.07898255 0.009640835 0.05305538 -0.08495915 -0.017167665
-0.08467516 0.14963043 0.030500961 -0.032379035 0.058773596 0.12091173 0.026028745 -0.020776872

gc1.bias f4 [200]
00000000: 7eea f8bd c152 aebd 20c3 28bc 0165 6bbd
00000010: 1fea 66bd 1eb9 8ebd 99c4 02bd c6a3 e0bd
00000020: dd19 91bd e15f 9cbd bbfd 30bd ae79 c1bd
00000030: 38f4 83bd 2502 98bd fc2c 11be 72ac d3bd
00000040: 42ff 2ebe afc8 21be c0f5 97bd bfed b1bd
00000050: 3fad cfbd 3658 d3bd be71 c8bd 58f0 09be
00000060: 8682 6cbd 712b 75bd 45f0 83bd c51d 04be
00000070: e33b f0bd d640 e5bd b763 f4bd 221f b6bd
00000080: a27e 9abd e811 aebd da58 1dbd 27e7 c7bd
00000090: 598c b1bd e103 b5bd d981 37bd 0af7 07be
000000a0: d8b1 20be 8c90 04be 0f92 c6bd d1a8 01bd
000000b0: c13e 1bbd f260 8dbd 5b95 cfbd deb5 dabd
000000c0: bad3 81bd 2ce7 bcbd 9124 bcbd 3360 bfbd
000000d0: 48bb 07be fe98 c0bd 0793 9dbd 9d2a b3bd
000000e0: 5071 c1bd 35a2 cbbd e1d1 96bd 8486 dabd
000000f0: 2566 99bd 3268 3bbe 9561 70bd 226d a9bd
00000100: 7bb5 bdbd 6ba5 aebd a2c0 bbbd 575a 0ebe
00000110: fef5 04be aac0 f1bd 68d3 a2bd 491d 09be
00000120: 0566 91bd b0f4 d8bd abba 98bd 3b2e e4bd
00000130: dbff 28be 3e50 efbd 65b1 b8bd 95f2 89bd
00000140: b21b f1bd 8bde e9bd 3313 a7bd a513 edbd
00000150: c18c dfbd 53cd acbd f27a dabd b04c 0cbe
00000160: b665 c0bd 8f21 f7bd 01fa 0bbe 98da dabd
00000170: 1e0b 04be 7aad cfbd e4a9 9ebd b518 04be
00000180: e5f4 52bd c4a7 96bd 67df d7bd 711b 97bd
00000190: 8b8c babd f7c1 d9bd fffc 0cbe a14c fdbd
000001a0: 3f76 ccbd ede1 e1bd 89d4 06be 4f6a b4bd
000001b0: e7ef 87bd f648 a7bd 347f b0bd e424 67bd
000001c0: 623a e2bd c4f6 abbd dac0 5abd 8b48 b6bd
000001d0: fbb4 bdbd f350 d8bd cd58 bebd af06 12be
000001e0: 5906 91bd c746 0bbe 9aed c5bd 0fc8 c6bd
000001f0: 7ca3 c2bd 3b9f fcbd f829 41bd 7bdb 22be
00000200: bb63 bdbd 3bf4 4dbd 5034 83bd bc48 0ebe
00000210: aae6 1cbe f5f1 04be b606 2abd 0d51 7abd
00000220: 821e d2bd e91c 00bd 00e6 c2bd b779 dcbd
00000230: 7569 debd 6a91 acbd 08c5 a2bd c3ad 9ebd
00000240: 928b bdbd 990d 85bd 8302 efbd 2308 90bd
00000250: 1cab 0ebe dda0 29bd e994 98bd 9824 64bd
00000260: af5f 05be 68c2 e7bd d761 adbd f9d0 dabd
00000270: 80c9 9bbd 4f37 b0bd deef 17be 8695 9fbd
00000280: fb47 c2bd 95af 29bd 3efa a4bd 6de6 dabd
00000290: 8966 b6bd 6b45 b9bd 02eb 0dbd ceea bebd
000002a0: ff82 cdbd be42 06be b96b 9fbd 792f eabd
000002b0: a62c 02be 8649 17be 618b b3bd 1a12 f8bd
000002c0: 2f9d 83bd 3627 8cbd ce63 05be d889 16bd
000002d0: d7b9 19bd 6756 57bd 5ef5 fbbd 5d70 82bd
000002e0: 700c a8bd 28e7 02be bfb0 babd f4e9 38bd
000002f0: 3536 a6bd 3a32 bfbd cd8a e8bd 56c6 bebd
00000300: c1e0 dcbd 3320 87bd ff25 03be 650c c9bd
00000310: c95e f5bd 2ce2 b5bd 544c d4bd 2af5 bbbd
-0.12154101 -0.08511878 -0.010300428 -0.05746937 -0.05637562 -0.06968902 -0.03192577 -0.10968737
-0.07085011 -0.07635475 -0.043210726 -0.09447037 -0.064430654 -0.07422284 -0.14177316 -0.10335626
-0.1708956 -0.15799211 -0.0741992 -0.086879246 -0.10140466 -0.10319559 -0.097873196 -0.1347059
-0.057741664 -0.059855882 -0.06442312 -0.12901981 -0.117301725 -0.11194007 -0.119330816 -0.08892657
-0.075436845 -0.08499509 -0.038414814 -0.09760886 -0.08669347 -0.088386305 -0.044801567 -0.13277832
-0.15692842 -0.12945765 -0.09695827 -0.031655136 -0.037901644 -0.069032565 -0.10135909 -0.1067922
-0.06339212 -0.0922378 -0.09186662 -0.093445204 -0.13255036 -0.09404181 -0.07694059 -0.08748362
-0.09445441 -0.09943048 -0.0736425 -0.10670188 -0.07490186 -0.18301466 -0.05868681 -0.082727686
-0.0926313 -0.08527645 -0.09167601 -0.1390165 -0.12984464 -0.11804326 -0.07950479 -0.13390078
-0.07099537 -0.105935454 -0.07457479 -0.1114163 -0.16503851 -0.11685227 -0.0901821 -0.06735722
-0.117728606 -0.114194 -0.08157959 -0.115760125 -0.109155186 -0.084376 -0.10667981 -0.13701129
-0.093944 -0.12066948 -0.13669588 -0.10686225 -0.12894866 -0.1014051 -0.07747248 -0.1290005
-0.05150308 -0.073562175 -0.105406575 -0.07378281 -0.09108838 -0.10632699 -0.13768385 -0.123681314
-0.09983491 -0.1102942 -0.13167013 -0.08809339 -0.066375546 -0.08168213 -0.08618012 -0.056431666
-0.11046292 -0.08396676 -0.053406574 -0.08900555 -0.09263035 -0.10562315 -0.09294281 -0.14260362
-0.07081289 -0.13601218 -0.096644595 -0.09706127 -0.095038384 -0.12335058 -0.047159165 -0.15904038
-0.09247538 -0.050281744 -0.06406462 -0.13894933 -0.15322366 -0.12982924 -0.041510306 -0.061112452
-0.10259725 -0.03127757 -0.09516525 -0.10765403 -0.10859958 -0.08426173 -0.07947737 -0.07747986
-0.092551365 -0.06496734 -0.11670401 -0.07032802 -0.1393246 -0.041413177 -0.07450277 -0.05569896
-0.13024782 -0.11316377 -0.08465927 -0.106843896 -0.076067924 -0.08604299 -0.14837596 -0.07792191
-0.094863854 -0.041427214 -0.080555424 -0.106884815 -0.08906276 -0.090464436 -0.03464795 -0.09322129
-0.10034751 -0.13111398 -0.07784218 -0.11434836 -0.12712345 -0.1477414 -0.08766819 -0.121128276
-0.06426465 -0.068434164 -0.13026354 -0.03675255 -0.037530746 -0.052572634 -0.123026595 -0.06369088
-0.08205497 -0.12783492 -0.09115743 -0.04514499 -0.08115808 -0.09335752 -0.11354599 -0.09315173
-0.10785056 -0.065979384 -0.12807463 -0.09816817 -0.119809695 -0.088810295 -0.10366121 -0.09177621

gc2.weight f4 [200, 200]
00000000: cdb3 6d3d c05c f13d b3ca 83bb 64bb 2abd
00000010: 3614 2dbd 1be5 5dbd c2da 8ebd 9ac9 8bbd
00000020: a7a6 43bd 813d 283d 1a2c 43bd e0c9 9cbd
00000030: c8e4 a2bd a7d6 e8bd d064 1ebd 9fd4 80bd
00000040: 8865 23bd c5e4 06bd c43d 473a 182f d63a
00000050: c3b4 5d3c da17 2bbd 4abe b33d 75ed 8ebd
00000060: 04ea 743d b8f6 ebbd 0ff1 b13b 13ea c2bd
00000070: 5730 f5bd 9a05 04bd e086 e8bc c7be 1abd
00000080: 6c6e 993d 777f 14be 9107 693d 06c1 0e3b
00000090: f0cc cbbd 09ef 35be 3dd3 013d e708 c03c
000000a0: ebad d1bd ffbf d6bc 88cb 8b3d e76d c1bc
000000b0: 6465 dd3c f76d 7abd d525 21bd d84c 863c
000000c0: bf9e 103c f257 2dbd c3f7 c8bd f9db e2ba
000000d0: 6fe6 323c 7d5b 91bd d366 0a3d 185c dd3a
000000e0: f978 8ebd 3fd4 11bd 7f68 3b3d 6733 363c
000000f0: 164b 5cbe 8836 cebd 51b5 2bbd 3588 aabd
00000100: 9508 5b3d 6148 bdbd 7c4b 57be e28b babd
00000110: 8a13 b9bb ea65 403d 2af3 fb3d cc6a 993d
00000120: 0c4d 073c 06ed babc c7b4 72bd 6661 e0bc
00000130: a5e4 cdbb e8ec 403b 5559 a7bb 3e20 81bb
00000140: e8db d73c 0411 be3a 17e7 3a3d a273 a0bb
00000150: d32f 4d3d 875f 3a3d 4955 c0bc d71c 14be
00000160: cafb 883d 3ddd 1a3e 90f0 923d 21b6 e2bd
00000170: 2c7a adbc 2815 89bd 2777 2b3e 0b92 173d
00000180: 13f3 063e 228f 7c3b 55ef 3dbd ba65 613d
00000190: 1a04 0cbd cd04 363d e805 2fbd b60f ac3c
000001a0: d6b8 30bc 7891 813d 2835 473d 1997 4b3c
000001b0: 1526 d73d 5c77 a4bd d78d a83d df89 603d
000001c0: f985 ccbd cc8b 93bd 01f8 d93d 409c e6bd
000001d0: ab46 b9bd 81de 61bc 0dcc c2bd db4c 953d
000001e0: b1a7 b4bd 3662 f8bc d1ec 163e 7dfd 113d
000001f0: f156 eabc 2be4 7d3d 253a 4ebc c6cd 7abd
00000200: 4a93 083d 2e6d 5abd e9cb 42bd 9944 df3d
00000210: 1a0d 083e fa01 89bc 5c49 653d ffcc c33d
00000220: f4ef 1dbc 2bda e1bd 02e9 97bd 6a8b 33bd
00000230: cb44 9c3d e0aa b7bc 4c84 24bd c6bb 0ebd
00000240: 8e87 78bd a4a4 23bd c307 b3bd e22f 103d
00000250: ebed 3a3d 80bf 20bd 9b43 7a3c b760 0c3c
00000260: 0b53 b1bc 7929 103d ae3c 803d dfa7 50bc
00000270: 9dce 8dbd 110c 44bd 5216 8a3c e2a4 80bd
00000280: 99ab 1dbc c384 0d3c 72a5 923d 0d6f 9a3d
00000290: dee7 52bc 886a f2bd b254 72bd 620f 113e
000002a0: a9f3 86bd 5f69 35be 3abb 7bbd c702 3f3c
000002b0: a535 b03d c285 cbbd 468c 8e3c f230 003d
000002c0: 9a9f 0f3e a5f6 dcbd 9de9 38bb 4bdf 113d
000002d0: edb8 553d 28f2 2b3e b0f0 683c 17d9 cebc
000002e0: 071b 61bd 1264 ecbd 1f2c b0bc dde7 1d3e
000002f0: e235 ce3d 4de8 163d 3e65 37bd 855c abbb
00000300: a7fb fabd 2d91 d63d fd6c 663d fffc 9fbb
00000310: f1c2 7d3d 412b aabd 8718 3ebd c608 cdbc
00000320: 8521 d43c 721c 77bd 9e65 e13d ea93 073c
00000330: 5e5a 15bd 95a1 223d fd46 823d dec3 f73d
00000340: a41c 89bd 83fe 753d dcf8 653d 7a93 afbd
00000350: 02a9 243d fd9e a63c 0515 27bd ed97 ebbc
00000360: e554 27bd 1682 9a3d 6170 8ebd 6079 a73c
00000370: 5cab 083e 4c48 eebc 9e22 31be 1df3 07be
00000380: 6e0b d8bd 9050 b53b 766e d2bb ae4b 01bd
00000390: 901f 03bb ba1c aa3d 8c68 a73c bd7d 3d3d
000003a0: a380 47bd 0185 dd3d 2e21 4b3c f9dd f7bd
000003b0: 2bd6 5a3d fe07 3a3d 0832 eabd 5bad 273d
000003c0: e674 d43d fc3e cb3d ad22 78bd b8ff f93d
000003d0: aff1 5f3e 2968 10bc 7003 aa3d b2f5 f83c
000003e0: b69f 26be e1bc 223c d452 ab3d 6468 d3bd
000003f0: 3226 c73d 1d6b 833e c81c dc3c 6bba efba
0.0580328 0.11785269 -0.0040219664 -0.041682616 -0.042255603 -0.05417357 -0.069753185 -0.06825562
-0.047766354 0.04107428 -0.04764948 -0.07655692 -0.07953793 -0.11369067 -0.03867036 -0.06290554
-0.03989175 -0.032933015 0.00076004514 0.0016340939 0.0135318665 -0.041770793 0.08776529 -0.06978885
0.059793487 -0.11521667 0.0054303478 -0.09517302 -0.11972111 -0.032231905 -0.028384626 -0.037779596
0.074917644 -0.14501749 0.05689198 0.0021782531 -0.09951198 -0.17766966 0.031695593 0.023441745
-0.1023825 -0.026214598 0.0682593 -0.023611976 0.027025886 -0.061140027 -0.03934272 0.016394064
0.0088269105 -0.0423202 -0.09812882 -0.0017307989 0.010919197 -0.07097528 0.033789467 0.0016888408
-0.069566675 -0.035602804 0.045753952 0.011120654 -0.21513018 -0.10068995 -0.041920964 -0.08326761
0.05347498 -0.09242321 -0.21024889 -0.09108712 -0.005648081 0.046972193 0.12302239 0.07491073
0.0082581155 -0.0228181 -0.059254434 -0.027390193 -0.00628336 0.0029438082 -0.0051070848 -0.003940611
0.026349977 0.0014500921 0.04563054 -0.004896597 0.050094437 0.04550126 -0.023478167 -0.14464127
0.0668865 0.15123458 0.0717479 -0.110698946 -0.02117642 -0.06693488 0.16744672 0.03700451
0.13178663 0.0038537462 -0.046370823 0.055028655 -0.0341836 0.044438172 -0.042730242 0.021003585
-0.010786256 0.06326574 0.048634678 0.012426161 0.105053104 -0.080305785 0.08230179 0.054818984
-0.09986491 -0.072043985 0.10643006 -0.11260271 -0.09046682 -0.013785959 -0.09511576 0.0729005
-0.08821047 -0.030320268 0.14738776 0.035642136 -0.02860591 0.061985176 -0.012587105 -0.061231397
0.03334359 -0.053326778 -0.047557745 0.10901756 0.13286248 -0.016724575 0.055978164 0.09560584
-0.009639729 -0.1102794 -0.074174896 -0.043834127 0.07630309 -0.022420347 -0.04016523 -0.034847043
-0.06067615 -0.039951935 -0.08741715 0.035201915 0.045637053 -0.03924513 0.015274907 0.0085679805
-0.021646043 0.0351958 0.06261574 -0.012735336 -0.06924174 -0.04786307 0.016856346 -0.06281449
-0.009623432 0.00863761 0.071604624 0.075407125 -0.012872664 -0.118367255 -0.059162803 0.14166024
-0.06589443 -0.17715977 -0.06145785 0.011658377 0.08603982 -0.09937622 0.017400872 0.031296678
0.14025727 -0.10789231 -0.0028215416 0.03561334 0.052178312 0.16791594 0.014217541 -0.02525
-0.054957416 -0.115425244 -0.021505414 0.1542048 0.10068871 0.036842633 -0.044774286 -0.005229535
-0.1225503 0.10476909 0.056256283 -0.0048824544 0.06195349 -0.08309031 -0.04641011 -0.025028598
0.02589489 -0.060329862 0.1100571 0.008275012 -0.036463134 0.039704878 0.06361196 0.120979056
-0.06694916 0.060057174 0.056145534 -0.08573051 0.04020024 0.020339483 -0.04079153 -0.028758967
-0.040852446 0.07544343 -0.06955028 0.020443618 0.13346618 -0.029087208 -0.17298362 -0.13276334
-0.10549055 0.0055332854 -0.0064218594 -0.031566314 -0.0020007826 0.083062604 0.020435594 0.04626249
-0.048706662 0.10816384 0.012398047 -0.12102885 0.053426903 0.04541778 -0.11435324 0.04093681
0.10373859 0.09924123 -0.060579944 0.122069776 0.21869539 -0.008813896 0.08301437 0.030390594
-0.16271862 0.009932728 0.083654076 -0.10322645 0.09724082 0.25667658 0.026869193 -0.001828981

gc2.bias f4 [200]
00000000: d515 ffbc ae8a 8b3b 20f4 bdbc 969e 7dbc
00000010: eafb bfbb 97c3 3abb 5adc d8bb cbc8 41bd
00000020: c904 b1bb 6d39 1d3c 6c57 bebc 963f 77bc
00000030: 2e2e 36bd f3cf 9e39 a427 00bd 18ec eebc
00000040: 1184 993c 2ce5 5dbc f908 cf3a e07e e7bc
00000050: d7cc 42bd 5c33 4cbd 73e4 64bc 4216 bf3b
00000060: a87e 7e3b 23ce 12bd e275 4abb 4d65 75bc
00000070: 873a 05bc 7c1e eebc d7ff 8abb 5597 93bc
00000080: d04b 5ebc e298 90bd 7bc3 49ba 339e aebc
00000090: 98b3 e4bc 8162 7bbc 6287 20bd 4235 7dbc
000000a0: e614 24bd c64e dc3c d437 5d3c ca5b 16bd
000000b0: fc05 b8bb 4798 5f3c 4969 573d 36df 65bc
000000c0: e543 47bc e319 e33c d7ff dfbc 1e33 19bd
000000d0: 9b92 283d 4ada aebc abdc b1bc 7669 4e3b
000000e0: c6cb 0dbd b06a 3cbc 95fd 68bc 200b 07bd
000000f0: e039 d2bc 002d 31bd ef8f c5bc a367 21bd
00000100: 04f9 9dbc ee40 21bc 893e 42bc 1cc5 08bd
00000110: 4093 33bc 3e28 c7bc f66c c63b d3c0 9fba
00000120: 99d4 f83c e650 6cbd 966a 98bc a506 243a
00000130: b74b 14bc 59e7 fc3c d0cd 113d f384 01bc
00000140: a341 32bd 253d 01bb d35c 1bbd 4041 0fbd
00000150: 9cdf 15bc f38b b0bc 41d9 593b c874 abbc
00000160: 5050 e13b 2741 30bc a67b 33bc 161e 593c
00000170: 6ce9 9c3c d428 00bd efdc d0bc 3330 3dbd
00000180: e0bc 8ebb 23be 34bd e001 ddbc d585 8fbd
00000190: 2ac0 6c3a 1f1b 54bd 4241 59bc 54a3 81bc
000001a0: 7a7c 72bc fc56 a13c 7546 29bd 5952 3abc
000001b0: 659e abbc 57f6 5cbc f13a 4dbd 7d0f 27bd
000001c0: f84e 13bd 384b 45bc bc3b a5bb b3f9 01bd
000001d0: 2758 1fbd 3279 c6bc 1067 96bc 443e 14bd
000001e0: 37e5 51bc eaf9 163c b576 d9bb ef3e 1a3c
000001f0: 4f41 2ebd 23b4 c4bc da83 34bd 2479 4c3d
00000200: 7010 aebb 5595 d6bc 36e6 36bd ef69 93bc
00000210: 165d 3ebc a752 e2bc 451f 5bbc 1a9d 923c
00000220: 738c c6bc ff07 09bd a409 3fbd 891e 32bd
00000230: 00b8 0bbd f4ff 41bd 1023 dd3c 786b b63c
00000240: ceaa 663a e7fc 95bc 37b3 33bc 4f46 dfbc
00000250: 3040 99bc a415 a1bc 2a15 e93c fd18 0abc
00000260: 1cc4 05bd e96d d6bb 228b 3ebd 7879 50bd
00000270: 685b 3abd 14e9 e4bc acda b5bc 07cb dabb
00000280: 259f 0abd b011 7abb 431c 89bc 9e08 dfbb
00000290: d422 39bd fed8 4c3a 7097 3cbb 0fb5 53bc
000002a0: 38ca 80bc 8005 bebc 50a8 19bd 6ab2 a5bd
000002b0: 18a6 6dbc 4f49 06bd d598 43bd 11f4 343d
000002c0: 0d12 f33c 8c94 303b 6198 363c fa05 9abc
000002d0: a3eb a63b 243b 1a3c c42f 48bd 3f1e baba
000002e0: 374d 97bc 041e 7d3c 8899 a2bb 7205 fe3c
000002f0: efcc 0dbd 9f17 2d3d f89a 0bbb 4a16 053d
00000300: 32b8 78bd e26c c0bc 9d15 e3bc 7c79 0ebc
00000310: bb53 6b39 eb62 0dbc 4e2c a4bc fd4b 003d
-0.03113834 0.0042584753 -0.023187697 -0.015479704 -0.005858888 -0.0028497928 -0.006618065 -0.04731063
-0.0054021818 0.009596211 -0.023235045 -0.015090844 -0.044477634 0.00030291043 -0.031287804 -0.029165313
0.018739732 -0.013543408 0.0015795521 -0.02825874 -0.04755863 -0.049853668 -0.013970482 0.0058315108
0.0038832817 -0.03584112 -0.0030893018 -0.014977765 -0.00813163 -0.02906727 -0.0042419243 -0.018016497
-0.01356788 -0.0706041 -0.00076966704 -0.02131567 -0.027917668 -0.015343309 -0.03919161 -0.015454592
-0.040058993 0.02689303 0.01350208 -0.03670863 -0.005615948 0.013647146 0.052590642 -0.014030268
-0.012162183 0.027722305 -0.027343674 -0.037402265 0.04115544 -0.021344323 -0.021711668 0.0031495965
-0.03461816 -0.011500046 -0.014220615 -0.032969594 -0.025662363 -0.043255806 -0.024116484 -0.039405476
-0.019283779 -0.009842141 -0.01185573 -0.033391103 -0.0109604 -0.024311181 0.0060554696 -0.0012188203
0.030374812 -0.05769434 -0.018605512 0.00062570936 -0.009051255 0.030872034 0.03559667 -0.007905233
-0.043519627 -0.0019720283 -0.03793032 -0.034974337 -0.009147551 -0.021551108 0.0033241066 -0.02092971
0.006876029 -0.010757721 -0.010954773 0.013251802 0.019154273 -0.031288937 -0.025495974 -0.046188544
-0.0043560117 -0.04412664 -0.026978433 -0.07007948 0.000903132 -0.051783677 -0.013260188 -0.015824951
-0.014800185 0.019694798 -0.04132696 -0.011372172 -0.020949552 -0.013486466 -0.05010504 -0.040786255
-0.035963982 -0.012041859 -0.0050425213 -0.031732272 -0.038902428 -0.024227712 -0.01835969 -0.036192194
-0.012810997 0.009214858 -0.0066364654 0.009414419 -0.042542752 -0.024011677 -0.044071056 0.049920216
-0.005312018 -0.026194254 -0.04465314 -0.017994849 -0.011618873 -0.027627302 -0.013374154 0.017897177
-0.024236893 -0.03345489 -0.046640053 -0.04348615 -0.034111023 -0.047363237 0.026994258 0.022268042
0.00087992556 -0.01830907 -0.010968021 -0.027255205 -0.018707365 -0.01966364 0.028452475 -0.008428809
-0.032657728 -0.006543864 -0.046519406 -0.05089709 -0.045497328 -0.027943172 -0.022198997 -0.006677035
-0.03384318 -0.0038157515 -0.016737109 -0.006806447 -0.04519923 0.0007814317 -0.0028776787 -0.012921586
-0.015721425 -0.023195982 -0.03751403 -0.080906704 -0.014504932 -0.032784756 -0.047753174 0.044178072
0.029671693 0.002694401 0.011144728 -0.018801678 0.005094008 0.009413514 -0.048873678 -0.0014199688
-0.018469436 0.015449051 -0.00496215 0.031008456 -0.034619268 0.042258855 -0.0021302085 0.03249196
-0.060722537 -0.02348942 -0.027720267 -0.008695956 0.00022442538 -0.008629541 -0.020040657 0.031322468

gc3.weight f4 [200, 100]
00000000: 0051 9d3d 909f 90bd 9b87 583d fe0a cfbc
00000010: 4922 a33d 77b2 783d 9aa9 f33d 5a75 16bb
00000020: 4057 bf3c 3c59 19bd 1768 fbbc ff9c 91bd
00000030: e56c 7bbd b25d b1bd 373e 72bc f36e ab3d
00000040: 67d3 06be 28cf 64bd e852 a23d 7f6b 0abd
00000050: 39dc 823d 17a7 86ba 1d5c 91bd 1d89 abbd
00000060: aa34 3fbe 3cab 1dbd ec90 ebbd d9ee 843d
00000070: fed5 a2bc 2bb4 30bd 7829 3ebd ec5b 09be
00000080: e2ca cc3d 41f0 5ebe 5924 b7bd 6bcb c0bc
00000090: 5958 9b3c 31d7 04bd 8d1c c5bc dbbf fabd
000000a0: aa02 ecbd 5d2d a03d 2096 12bc ac6b edbc
000000b0: 9431 acbc b6a4 473b fb15 12be 1ef9 3cbd
000000c0: 7676 56be a559 1c3d 1eb5 dfbd 5d17 18be
000000d0: d88e 303e 14c2 cd3d 6ea9 d33c c09d 92bd
000000e0: dc24 01be 0538 8e3d 6f31 f1bd a56c 233e
000000f0: 81be fabd e33e dc3d 3b68 e0bd bdf1 b7bc
00000100: e273 e2bd 42e4 bf3c 2d50 2a3b cd7f da3c
00000110: 3957 6c3d 9e55 07be c03e e8bc fbd8 05bb
00000120: 40f6 7dbe 898d bcbd fe28 93bc ab18 12be
00000130: 0c98 213d 0226 9fb8 d7a2 b3bd dff1 1f3e
00000140: 031a bcbd f27c 5abe aca3 7ebc e7ff 153e
00000150: 53a9 823d e2e9 903d a892 59bd 8479 033d
00000160: 12c3 8339 c9d6 3ebd 8ac8 a5bc 8278 05bd
00000170: 5070 de3c 3a22 90bd 2379 a0bc 8cc1 003e
00000180: f10a 02be 2f57 06bc 4fac 733d e8bc 46ba
00000190: 88f8 76bd b6a1 febb 3539 64bd c5c7 16be
000001a0: 2428 863e 033a 19be c259 88bc bfc2 a4bb
000001b0: 255b 533c 3572 1a3e 7178 323d b737 9dbc
000001c0: e389 c5bd 2bde ccbd 08f8 763d 0a86 313d
000001d0: a547 813c 51ec 0e3e 262d d23d 72b5 103b
000001e0: 4104 18be 65ab 253d a09b b93d d5b2 f5bc
000001f0: ccd0 d53d 1547 82bb 04a1 033d 4444 3f3d
00000200: e922 e3bd 54ba 933c f951 773c d89f 313e
00000210: c858 c23d 7cdb 823e b9d1 a73c 9bae abbb
00000220: c151 38bc 2f77 cd3c c80d d93d e45b 2a3e
00000230: c43d 20be 4e7c 91bd 8259 2d3d 246c 3bbc
00000240: 10f5 8f3c 2ed7 5c3d 2fdd 093e d4f5 bd3b
00000250: 4004 29bc ee41 3cbe 33ad 2bbc 48f2 9b3d
00000260: 3903 1b3c 33dc 10be 6342 043d c493 59be
00000270: 0113 adbc 33aa e0bd 3f8a 023b c19e 113b
00000280: 8340 103d 5288 72bb 4242 02be eb2c 643e
00000290: 749e d73d 3b0d 5fbd 8f03 6b3c 379f 853c
000002a0: e090 3fbe 8358 823c 0fb3 0dbd 9729 d83b
000002b0: 9b2a 223e 67da 333d f778 bd3d 0815 163e
000002c0: ca25 0ebd 6365 563d ed62 85bc b8a2 1a3c
000002d0: c195 fd3d 0f8b 71bb 857b a43d aaff 4abe
000002e0: 0e54 c53d 3888 91bd 34a0 93bd 68c6 b73d
000002f0: 638f 013d 1789 c23c 38f9 e63c e181 6f3d
00000300: 61c5 393d 01ae d03d a5da 51bd d7e9 19be
00000310: 7674 bebd c66f 9d3d 5578 d2bd 92a5 7b3d
00000320: b5f6 86bd 3638 18be eddf a8bd 35f9 2ebd
00000330: 27cc b63c dfa8 1bbe 232f 3fbc 4ff4 c5bc
00000340: 0b9c 87bd 87f0 0abe 8e23 1bbe cd61 453c
00000350: d107 a5bd 08d5 1e3b d354 e73b 2ea6 b0bd
00000360: 88d4 463d 292c edbd 272d 2cbe 5f7d 463e
00000370: e6bc b2bd 1468 963c 3d45 483d 9070 d73c
00000380: 4226 b73c 9e7d 4b3d 514a 403d 7ee1 99bd
00000390: 85cd 5ebc ddc6 953d 5dab 9bbd 2ba1 c13a
000003a0: b706 d7bd 95da 4abd 2eff 8abc c63e c33d
000003b0: 285e 64b6 fc7d dc3d 8dd3 9fbc ae17 453d
000003c0: d4b1 883d 0dc8 28bd fb76 673e ed99 8c3d
000003d0: 4bd8 70bc c525 bbbd ae0d d1bd 9b63 19bc
000003e0: 4e94 d0bb 3df1 b63d 84a6 10bd 6bb8 6f3e
000003f0: aabb 09bd 7afa efbd a20d 3f3b a3a0 973d
0.07681465 -0.07061684 0.0528637 -0.025273796 0.07965524 0.060717072 0.11897583 -0.002295813
0.023357034 -0.037438616 -0.030689282 -0.07110023 -0.061383147 -0.08660449 -0.014785341 0.08370771
-0.13166581 -0.055861622 0.07925969 -0.033793923 0.063896604 -0.0010273185 -0.07097647 -0.08375762
-0.18672433 -0.03849338 -0.11502251 0.06490869 -0.01987743 -0.04314057 -0.046426266 -0.13413972
0.09999634 -0.21771337 -0.0894248 -0.023534497 0.018963026 -0.032431785 -0.024061466 -0.12243625
-0.11523946 0.07821152 -0.008946925 -0.028982006 -0.021019734 0.0030463166 -0.14266197 -0.046136014
-0.20943627 0.03817143 -0.10923217 -0.14852662 0.1724199 0.10046783 0.025837626 -0.07158995
-0.12611717 0.06944279 -0.11777007 0.15959413 -0.12243367 0.10754182 -0.109573804 -0.022454137
-0.11057259 0.023424271 0.002598773 0.026672268 0.05770037 -0.13216254 -0.028350234 -0.002042352
-0.24800968 -0.09206683 -0.017963883 -0.14267223 0.039451644 -7.58879e-05 -0.087712936 0.1561961
-0.09184649 -0.21336725 -0.015541952 0.146484 0.06379952 0.070758596 -0.053118378 0.03209831
0.00025131606 -0.046591554 -0.020237226 -0.03258563 0.027153164 -0.07037778 -0.019589012 0.12573832
-0.12699486 -0.008199497 0.0594905 -0.000758125 -0.06029561 -0.0077707423 -0.05571862 -0.14724644
0.262025 -0.14963536 -0.016644362 -0.0050280984 0.0129001485 0.15082629 0.043571893 -0.019191606
-0.096454404 -0.10003313 0.060295135 0.04334072 0.015781233 0.13957335 0.10262518 0.0022080806
-0.14845373 0.040446658 0.09062886 -0.0299925 0.104402155 -0.003975759 0.03213598 0.046695963
-0.11090643 0.018033184 0.015095227 0.17346132 0.0948959 0.25558078 0.020485746 -0.0052393205
-0.01124996 0.025081245 0.10598332 0.16636616 -0.15648562 -0.07103787 0.04232169 -0.011439357
0.01757291 0.05391615 0.13463281 0.0057971273 -0.010315955 -0.18384525 -0.010478306 0.07614571
0.009461218 -0.141465 0.032289874 -0.21247774 -0.021127226 -0.10969963 0.0019918827 0.002221987
0.035217773 -0.0037007523 -0.12720588 0.2228276 0.105282694 -0.054455977 0.01434411 0.016311271
-0.18707609 0.015911346 -0.03459459 0.006596755 0.15836565 0.043909457 0.09251588 0.1465646
-0.034704007 0.052342784 -0.016282523 0.009438209 0.12382079 -0.0036856567 0.08031372 -0.1982409
0.09635173 -0.0710606 -0.07208291 0.0897339 0.031630885 0.02374701 0.028195009 0.05847347
0.04535425 0.101894386 -0.051233906 -0.15030609 -0.09299557 0.07687335 -0.10276858 0.061437197
-0.065900244 -0.14865193 -0.082458355 -0.04271813 0.022314144 -0.15201138 -0.011668953 -0.024164347
-0.0662156 -0.13568316 -0.15150282 0.012047243 -0.080581315 0.0024235863 0.0070596724 -0.08625446
0.04854253 -0.115806885 -0.16814099 0.19383763 -0.08727436 0.018360175 0.048894156 0.026298791
0.02235711 0.049680345 0.046945874 -0.07513712 -0.013598804 0.07313321 -0.07601044 0.0014772763
-0.10499328 -0.049524862 -0.016967382 0.095334575 -3.4029454e-06 0.10766217 -0.019510055 0.048118286
0.06674543 -0.04120641 0.22603981 0.068652965 -0.014700006 -0.09138063 -0.10207687 -0.009362127
-0.0063653355 0.08932731 -0.03531505 0.23410194 -0.033626236 -0.117176965 0.0029152413 0.07403686

gc3.bias f4 [100]
00000000: e79e c7bc 0f29 acbb 811f e53c 49b5 f03b
00000010: 1159 bfbc 1a1b 683c bdec 893c 2687 b03c
00000020: 7d29 8cbc c99d a53c 6517 5039 7200 debb
00000030: 79f0 c4bc ec75 b23b 82b5 56bc c6db aa3c
00000040: 4369 f53b 3c23 10bc ea5d b4bc da6a adbc
00000050: 5a30 373b 6180 c239 3ca3 febc 7642 073d
00000060: e913 73bc 7bec 2c3c f004 87b9 9583 c3bc
00000070: de5a 1a3c cd38 a3bc 983f e23c 6c2a 00bd
00000080: 5298 333c 8c14 6f3c f964 ed3c 2f79 903c
00000090: a3c6 25bc ca44 863b c2b3 39bc fa6e 9cbb
000000a0: 8be2 4cba 1450 51bc 0960 003c 10e8 2e3b
000000b0: 30dc 6f3b 8a9b a83c 4b23 97bc 4155 8bbc
000000c0: a31f 283c 3e30 d0bb 76bc 803b d4e8 13bc
000000d0: 03ed 6e3a ba6a bc3c 17e5 b63b f453 a1bb
000000e0: 0cc9 1f3c 4fc2 d8bb 801b 303d 1fa0 343c
000000f0: 9daa 36bc 8696 76bc 3b77 593c 30ee a0bc
00000100: 1aa8 093c 0757 9c3c b989 703c e534 3cbc
00000110: 8da5 18bd 0f0d fa3c 88f0 863c bef8 723b
00000120: 033a fe3b 0534 e03c e86a 6a3d 0d7c f4bb
00000130: a0cb 573c 7e89 483b 1b16 853c 2801 9a3c
00000140: 4e2f 33bc 8a7a 1d3d 2ac4 283d 231c afbb
00000150: ba66 153d ba40 37bb c889 45ba 1183 b63c
00000160: e8d6 853c e531 943c 99c2 bbbb 344e 003d
00000170: d22b 43bc 0040 64bc b69e 3d3c 3abf eb3c
00000180: feeb 9cba 4758 593c 8583 ff3b 1905 9e3c
-0.024367763 -0.005253918 0.027969124 0.0073458296 -0.0233579 0.014166618 0.016836518 0.021548819
-0.017109627 0.02021684 0.00019845141 -0.0067749554 -0.024040448 0.0054461863 -0.013104798 0.02085675
0.007489355 -0.008797463 -0.022017438 -0.021169115 0.0027952404 0.00037098213 -0.031083696 0.033022366
-0.01483629 0.010554428 -0.00025752885 -0.023866454 0.0094210785 -0.019924546 0.027618214 -0.031290457
0.010961609 0.014592301 0.028978812 0.01763591 -0.010118159 0.0040975558 -0.0113343615 -0.0047739716
-0.000781574 -0.01277544 0.007835397 0.0026688613 0.0036599748 0.02058198 -0.018449446 -0.017008426
0.010261449 -0.006353407 0.0039287163 -0.0090276785 0.0009114297 0.02300011 0.005581509 -0.004923338
0.009752523 -0.0066149603 0.042994976 0.011024504 -0.011149076 -0.015050536 0.013273056 -0.019644827
0.008401895 0.019084467 0.014681273 -0.01148722 -0.037267257 0.030523805 0.016472116 0.0037074531
0.0077583804 0.027368555 0.05723086 -0.007461077 0.013171107 0.003059953 0.016245892 0.01879938
-0.010936571 0.03844694 0.0412027 -0.0053439303 0.03647492 -0.0027962164 -0.00075354846 0.022279294
0.016337827 0.018090198 -0.005729985 0.03132458 -0.011912303 -0.013931274 0.011573484 0.028777707
-0.0011972187 0.013265676 0.007797661 0.01928954
