best_models/MOGONET/fold_5/E2.pth (torch, 838359 bytes, 6 tensors)

gc1.weight f4 [743, 200]
-0.12686367 -0.026711548 0.074094124 -0.03502306 -0.09388141 -0.11887443 0.12732999 0.0307545
-0.015213495 -0.004359782 0.042468965 -0.008387299 0.044377178 0.10024055 -0.09507746 0.0076804953
-0.041314486 0.049518406 -0.082687 -0.08634566 0.010771753 -0.004580016 -0.02697922 0.06153191
-0.12328399 0.030374097 -0.13177213 0.09190955 -0.062403716 -0.05413925 0.06145646 0.08692272
0.090392716 -0.011028479 -0.0055435863 -0.060688905 0.040650364 0.018863685 -0.08780056 0.09489392
0.05561486 0.008267194 -0.070635 0.04217057 -0.0032780953 -0.0012521287 0.062184837 0.050748114
0.0032184725 0.042787544 0.036794428 0.02535119 0.015573228 -0.017058404 -0.045766108 0.0045607723
-0.024490159 0.07208392 -0.12442915 0.13689776 -0.016850166 0.08032216 -0.0027925821 0.024549013
0.07949836 -0.019491544 0.052207902 0.05450071 -0.034460794 0.0024252674 0.012645467 -0.04126186
-0.017699411 0.058631666 0.06784899 -0.0049160537 0.0884171 -0.038496025 -0.04184138 0.02986048
-0.0011794595 0.01945795 0.025031192 -0.029805556 0.0070850174 0.017853249 -0.050842214 0.016703593
-0.010917802 0.10325153 -0.008731398 -0.04460988 -0.08031915 0.015627429 0.057596646 0.02791075
-0.009546439 0.0076910844 -0.015131131 -0.05877156 -0.01488197 -0.011467399 0.086428404 -0.117500626
-0.034602057 0.038512625 -0.078690626 0.0611639 -0.05913612 -0.08949641 0.00052347814 0.017355338
-0.033846553 -0.106387116 0.006114798 0.10590311 0.007980939 -0.042720504 -0.113623835 0.07330918
0.06838293 -0.0806188 -0.00918221 0.01097369 -0.06432812 0.029725753 0.076486565 -0.024291543
0.04255643 -0.037955943 0.023207687 -0.019972721 0.019778457 -0.01184842 0.08380782 -0.014653993
0.013819782 -0.027610177 0.14319992 0.0570824 0.018178212 0.04153301 -0.025314195 0.063939005
-0.069487825 -0.012910436 -0.026035193 -0.09750354 -0.033308458 -0.03398608 -0.055757158 0.03272146
0.07887486 -0.005271309 -0.03360445 0.057250597 -0.0854722 -0.078951344 0.058229357 0.0226876
0.04727024 0.037028022 0.057891697 -0.07562269 -0.05125126 -0.054240596 -0.006308455 -0.07316361
0.01912389 -0.04409949 0.07472011 0.032070316 -0.0067268177 0.07829543 -0.091082476 0.011089721
-0.043001473 0.06091739 -0.06771766 -0.030488938 0.051668182 0.06046745 0.013619601 0.07090134
-0.095294595 -0.016511815 -0.0031816151 -0.027104948 0.031792365 0.0018170446 -0.072399676 0.054748487
-0.043396227 -0.00989214 -0.048067193 0.015277796 0.049105123 0.0337375 -0.01641265 -0.011873813
-0.046424687 -0.10808064 -0.0027082914 -0.026457895 -0.022616861 0.002341514 0.0010582226 -0.019035242
-0.1063762 0.0019502493 -0.09578779 -0.09682467 -0.039810188 -0.041438095 -0.051869802 -0.0018363873
0.04466168 0.093861945 -0.079771206 0.018783946 -0.024043443 -0.07632921 -0.10686693 0.057765625
0.07192921 0.10521277 0.0046906904 0.1334331 0.047940902 -0.008053799 -0.006602306 0.013358425
-0.0049197054 -0.013974869 0.04525773 0.0021089388 0.050574284 0.10777664 -0.0027496677 0.07746351
0.03149787 0.07060276 0.0137023525 0.12251197 -0.04839934 0.05604877 -0.011063908 -0.0071451915
0.0037200295 -0.082759954 -0.006750306 -0.031597875 -0.049028873 0.0529099 0.017342227 0.09887218
00000000: 8de8 01be 2dd2 dabc a9be 973d 5774 0fbd
00000010: e644 c0bd 7074 f3bd cb62 023e dcf0 fb3c
00000020: 0642 79bc 81dc 8ebb f0f3 2d3d e26a 09bc
00000030: d8c4 353d eb4a cd3d f9b7 c2bd aaac fb3b
00000040: 6139 29bd d0d3 4a3d cd57 a9bd fed5 b0bd
00000050: 027c 303c f513 96bb 8603 ddbc e208 7c3d
00000060: 517c fcbd 19d3 f83c 46ef 06be 133b bc3d
00000070: 0a9b 7fbd 1ec1 5dbd c5b9 7b3d 8a04 b23d
00000080: d11f b93d cbb0 34bc f9a6 b5bb ee94 78bd
00000090: ff80 263d 0488 9a3c c8d0 b3bd be57 c23d
000000a0: 68cc 633d 2073 073c 15a9 90bd 0cbb 2c3d
000000b0: 50d5 56bb 781e a4ba 87b5 7e3d 41dd 4f3d
000000c0: 02ed 523b fe41 2f3d c1b5 163d 4cad cf3c
000000d0: da26 7f3c 11be 8bbc 3e75 3bbd 8872 953b
000000e0: 969f c8bc bca0 933d b6d4 febd ed2e 0c3e
000000f0: 5c09 8abc f27f a43d c103 37bb 031b c93c
00000100: 09d0 a23d bbac 9fbc f4d7 553d 233c 5f3d
00000110: c326 0dbd 3cf1 1e3b ef2e 4f3c 3202 29bd
00000120: 5bfe 90bc c227 703d 69f4 8a3d d916 a1bb
00000130: 0614 b53d 02ae 1dbd de61 2bbd f79d f43c
00000140: 1898 9aba 4766 9f3c 370e cd3c c82a f4bc
00000150: 6f29 e83b fa40 923c ed3f 50bd f9d5 883c
00000160: 95e0 32bc 8a75 d33d 230e 0fbc d9b8 36bd
00000170: 5e7e a4bd 1805 803c 76ea 6b3d 16a5 e43c
00000180: ab68 1cbc 7e05 fc3b 90e8 77bc 73ba 70bd
00000190: 82d3 73bc c2e1 3bbc 6001 b13d 2ba4 f0bd
000001a0: e3ba 0dbd 6abf 1d3d 8d28 a1bd ff86 7a3d
000001b0: b738 72bd e549 b7bd 063a 093a c82c 8e3c
000001c0: afa2 0abd 7de1 d9bd a55e c83b bbe3 d83d
000001d0: 7cc2 023c b2fb 2ebd 9db3 e8bd 2023 963d
000001e0: 590c 8c3d 781b a5bd fb70 16bc feca 333c
000001f0: 76be 83bd 6c83 f33c fda4 9c3d 0fff c6bc
00000200: a74f 2e3d b177 1bbd 0c1e be3c d59d a3bc
00000210: 6e06 a23c e01f 42bc 6fa3 ab3d 4d17 70bc
00000220: 5e6c 623c bd2e e2bc 00a3 123e 3ccf 693d
00000230: 79ea 943c 841e 2a3d b75f cfbc 74f2 823d
00000240: a24f 8ebd 4b86 53bc c247 d5bc f0af c7bd
00000250: 736e 08bd fd34 0bbd 9e61 64bd f006 063d
00000260: 2589 a13d f2ba acbb d2a4 09bd 9a7f 6a3d
00000270: 0c0c afbd 3eb1 a1bd e881 6e3d 59db b93c
00000280: 709e 413d b2aa 173d d81f 6d3d 12e0 9abd
00000290: d7ec 51bd 632b 5ebd 28b7 cebb ced6 95bd
000002a0: b4a9 9c3c aba1 34bd db06 993d 2a5c 033d
000002b0: a36c dcbb 5b59 a03d 7389 babd a9b1 353c
000002c0: 5022 30bd 8384 793d 8eaf 8abd f0c3 f9bc
000002d0: 04a2 533d b8ac 773d bf24 5f3c b934 913d
000002e0: d029 c3bd c943 87bc a582 50bb 320b debc
000002f0: b638 023d e629 ee3a 4846 94bd f33f 603d
00000300: 3ec0 31bd a412 22bc 1be2 44bd b94f 7a3c
00000310: 7422 493d 5530 0a3d d273 86bc 628a 42bc
00000320: d027 3ebd 6259 ddbd 977d 31bb 3abe d8bc
00000330: ff46 b9bc 1674 193b 0fb4 8a3a ccef 9bbc
00000340: c4db d9bd 829f ff3a 642c c4bd 034c c6bd
00000350: 0210 23bd feba 29bd 6e75 54bd efb2 f0ba
00000360: 2aef 363d b13a c03d 165f a3bd cae0 993c
00000370: c1f6 c4bc 7d52 9cbd 0ddd dabd a69b 6c3d
00000380: 9f4f 933d cb79 d73d 5db4 993b b0a2 083e
00000390: ae5d 443d 15f4 03bc 2858 d8bb 4cdd 5a3c
000003a0: 7b35 a1bb d9f6 64bc 2b60 393d 1f36 0a3b
000003b0: fb26 4f3d 00ba dc3d c533 34bb 30a5 9e3d
000003c0: e903 013d 2e98 903d d57f 603c 8ee7 fa3d
000003d0: 633e 46bd 6593 653d 6545 35bc 3622 eabb
000003e0: bdcb 733b 0d7e a9bd ac31 ddbb c66c 01bd
000003f0: 80d2 48bd 0db8 583d 4911 8e3c 7f7d ca3d

gc1.bias f4 [200]
-0.08190526 -0.041776035 -0.08515021 -0.043758593 -0.04576649 -0.054454044 -0.021559479 -0.08030615
-0.0723862 -0.025134956 -0.03524476 -0.06123573 -0.08222727 -0.05898787 -0.046915345 -0.070895605
-0.05746387 -0.025031053 -0.06898599 -0.06727356 -0.010908577 -0.021308847 -0.07498132 -0.03074922
-0.02866811 -0.027304662 -0.101198755 -0.035202164 -0.0591769 -0.01878396 -0.0365697 -0.027794309
-0.062275767 -0.04542675 -0.033890564 -0.03249705 -0.053795233 -0.037478145 -0.042963583 -0.011000038
-0.048377063 -0.025919698 -0.04835497 -0.0306688 -0.03122314 -0.044425644 -0.047245175 -0.036438175
-0.014068443 -0.053978372 -0.017469097 -0.032078397 -0.05033211 -0.087663084 -0.02765646 -0.019650372
-0.0154884355 -0.015834536 -0.043330494 -0.016458053 -0.051573113 -0.051787272 -0.043333743 -0.037069935
-0.015051914 -0.041177284 -0.022919359 -0.058814634 -0.06486677 -0.029546529 -0.022433296 -0.06424431
-0.04564357 -0.016674777 -0.052541412 -0.015956739 -0.03245014 -0.01820757 -0.06496311 -0.03973525
-0.01994714 -0.07412788 -0.049423754 -0.046666276 -0.04368422 -0.06073169 -0.021932045 -0.049185134
-0.048988532 -0.023404334 -0.04940955 -0.052737024 -0.044685192 -0.016839616 -0.046880156 -0.06629943
-0.03302666 -0.050755613 -0.021460107 -0.09892704 -0.033834647 -0.060614035 -0.04594029 -0.06254713
-0.055821232 -0.05247693 -0.07575324 -0.033220343 -0.07358675 -0.041778933 -0.052438803 -0.08113973
-0.040674012 -0.07790515 -0.09560502 -0.0720157 -0.051734388 -0.054717273 -0.02388472 -0.011855008
-0.07596008 -0.036820237 -0.046973858 -0.039911397 -0.06736899 -0.07052735 -0.081060976 -0.057308618
-0.04287359 -0.049593825 -0.080032945 -0.03315281 -0.015514305 -0.052094687 -0.04155253 -0.04347135
-0.038919378 -0.059364796 -0.029078312 -0.027325034 -0.039438028 -0.045854058 -0.06413262 -0.057500817
-0.073247544 -0.030318154 -0.03289777 -0.063879564 -0.042307556 -0.05857518 -0.009944166 -0.04211559
-0.024604568 -0.024311272 -0.055443853 -0.026501438 -0.053259525 -0.044742797 -0.016280947 -0.043302182
-0.046537325 -0.019679157 -0.033711955 -0.04204314 -0.06783772 -0.08174967 -0.049080737 -0.018226601
-0.06757762 -0.04023786 -0.050017677 -0.040446084 -0.043998417 -0.049517557 -0.038874727 -0.024864653
-0.050020058 -0.012485582 -0.052233305 -0.031665865 -0.0380664 -0.02705669 -0.054211386 -0.03221804
-0.036363993 -0.02899819 -0.042785674 -0.059251122 -0.004776032 -0.044236947 -0.04443277 -0.025443487
-0.047463883 -0.057022974 -0.063544884 -0.07768831 -0.062052336 -0.045635115 -0.0193564 -0.04022725
00000000: f2bd a7bd 591d 2bbd 3c63 aebd 363c 33bd
00000010: a575 3bbd 340b 5fbd 819d b0bc 8d77 a4bd
00000020: 373f 94bd d3e7 cdbc cf5c 10bd 51d2 7abd
00000030: c566 a8bd 449d 71bd 4e2a 40bd b731 91bd
00000040: 3c5f 6bbd ec0d cdbc 8748 8dbd b8c6 89bd
00000050: e3b9 32bc e48f aebc ce8f 99bd cae5 fbbc
00000060: 62d9 eabc 07ae dfbc 4b41 cfbd 2530 10bd
00000070: 7a63 72bd d2e0 99bc 1cca 15bd e4b0 e3bc
00000080: e014 7fbd 6611 3abd d5d0 0abd a01b 05bd
00000090: 6458 5cbd af82 19bd 95fa 2fbd 8139 34bc
000000a0: 0727 46bd 8c55 d4bc dc0f 46bd 233d fbbc
000000b0: acc7 ffbc aaf7 35bd 2884 41bd 3240 15bd
000000c0: 547f 66bc 6d18 5dbd 5a1b 8fbc a364 03bd
000000d0: 0b29 4ebd b488 b3bd cd8f e2bc d1f9 a0bc
000000e0: 35c3 7dbc 6eb7 81bc 517b 31bd 0ad3 86bc
000000f0: 543e 53bd e41e 54bd b97e 31bd a5d6 17bd
00000100: 4e9c 76bc 83a9 28bd 61c1 bbbc 9de7 70bd
00000110: ded8 84bd 900b f2bc 08c6 b7bc 8592 83bd
00000120: c1f4 3abd 8b99 88bc aa35 57bd b5b7 82bc
00000130: 70ea 04bd 0b28 95bc 610b 85bd 6ec1 22bd
00000140: 2f68 a3bc 5cd0 97bd 9070 4abd 2325 3fbd
00000150: 3aee 32bd cbc1 78bd d5aa b3bc 5a76 49bd
00000160: 33a8 48bd 72ba bfbc ab61 4abd c702 58bd
00000170: d207 37bd 3cf3 89bc 6805 40bd ffc7 87bd
00000180: f746 07bd 1ee5 4fbd 1bcd afbc 439a cabd
00000190: 3396 0abd 6c46 78bd e32b 3cbd b618 80bd
000001a0: cea4 64bd 0df2 56bd 8424 9bbd 0e12 08bd
000001b0: a6b4 96bd 6320 2bbd 12ca 56bd 962c a6bd
000001c0: cb99 26bd bc8c 9fbd 91cc c3bd f87c 93bd
000001d0: 70e7 53bd 381f 60bd e3a9 c3bc 823b 42bc
000001e0: f590 9bbd d1d0 16bd a967 40bd 227a 23bd
000001f0: c1f8 89bd a570 90bd 4c03 a6bd 71bc 6abd
00000200: 389c 2fbd e522 4bbd 50e8 a3bd 3ecb 07bd
00000210: b62f 7ebc 3d61 55bd fc32 2abd 040f 32bd
00000220: ed69 1fbd 8028 73bd a435 eebc c0d8 dfbc
00000230: c589 21bd 77d1 3bbd f757 83bd fa85 6bbd
00000240: cf02 96bd c75d f8bc d0bf 06bd 4ad3 82bd
00000250: b04a 2dbd 87ec 6fbd dbec 22bc 6681 2cbd
00000260: 858f c9bc 6f28 c7bc 1819 63bd 8b19 d9bc
00000270: a926 5abd 3944 37bd 9f5f 85bc a15d 31bd
00000280: ec9d 3ebd 2f36 a1bc 8c15 0abd 6d35 2cbd
00000290: 81ee 8abd 5f6c a7bd e208 49bd f44f 95bc
000002a0: 2366 8abd 74d0 24bd 56df 4cbd cbaa 25bd
000002b0: af37 34bd ecd2 4abd 1b3b 1fbd f5b0 cbbc
000002c0: d5e1 4cbd 5490 4cbc 97f2 55bd 11b4 01bd
000002d0: 83eb 1bbd fea5 ddbc c20c 5ebd 10f7 03bd
000002e0: 69f2 14bd 9d8d edbc 0840 2fbd 4eb1 72bd
000002f0: 4380 9cbb cd31 35bd 23ff 35bd dc6e d0bc
00000300: 7d69 42bd ec90 69bd d223 82bd 0c1b 9fbd
00000310: 972a 7ebd e3eb 3abd 5091 9ebc 54c5 24bd

gc2.weight f4 [200, 200]
-0.0338092 0.020914411 0.13526914 0.061790794 -0.039819814 -0.009720917 -0.15766002 -0.13146226
-0.033160288 -0.15518835 -0.008495318 -0.13513201 0.0083492305 -0.11440403 0.064668946 -0.1252423
0.11756225 -0.05206443 -0.05654974 0.15127358 -0.09581116 -0.08539322 -0.10410526 0.048771437
-0.15172763 -0.07359279 0.028777342 -0.08287735 -0.053755175 0.075460054 0.028125294 -0.08148252
-0.100891545 -0.013405491 0.070996284 -0.16877154 -0.013938869 -0.057531673 0.09108542 -0.046243817
-0.07378393 -0.054528035 -0.02572623 0.096926615 0.046281714 -0.007781193 0.08397746 -0.17309429
-0.11898579 -0.12237003 -0.21915391 0.022602139 0.03863837 0.09837346 0.041312926 0.08201674
0.06440377 0.079434544 -0.10024042 0.07810635 0.07023486 -0.023916816 -0.032212857 0.096985295
0.036097422 0.0043330295 -0.003026413 -0.019580988 -0.13356157 0.083420314 -0.0132015785 -0.12678489
-0.039450735 0.07333244 -0.017209573 -0.06584399 -0.039771497 -0.16299653 -0.034169383 0.051278226
0.012086241 -0.00909136 -0.00015526147 0.010523247 0.0122065125 -0.04532931 -0.11023199 -0.006617017
-0.06667577 0.092970416 0.030661488 0.15653704 -0.09807124 0.0068617645 0.11368477 -0.086568505
-0.13434507 -0.01381318 -0.043522358 -0.01849238 -0.015923595 -0.023822617 0.032002393 -0.059722837
-0.011463654 -0.0033668145 0.0151904905 -0.0573575 0.009710384 -0.13863578 0.030885655 0.00074627623
-0.03185925 0.100222476 -0.021014312 -0.07576905 -0.015041274 0.16368584 -0.115848765 0.12682106
-0.004226095 -0.044838138 -0.052128453 -0.041337695 -0.07747147 -0.014078027 -0.06157678 -0.10389288
0.10198321 0.017588045 -0.07599869 0.061438993 -0.06928445 0.037459772 -0.11033285 0.028920433
-0.0546869 0.026021773 0.007015142 0.06112503 0.04869797 0.08243214 -0.036780257 -0.03348975
0.023422623 0.04929587 -0.103269614 -0.15489143 -0.049861517 0.09651879 -0.122326404 0.0070954203
-0.02827015 -0.105091654 -0.048857242 -0.08311313 -0.042257182 0.049547095 0.15175101 -0.08988787
-0.13073117 -0.06792828 0.053055637 -0.059616454 0.029301075 0.01779034 -0.012233294 -0.01684198
0.10973014 -0.023868889 0.025272842 -0.07543423 0.0034707047 0.08953757 -0.12372327 0.08188121
-0.011054399 -0.03581008 0.03921598 -0.025779702 0.064032644 -0.015315004 0.0442365 -0.07634679
0.04822338 0.00772001 -0.0619981 0.014013027 0.0929413 -0.096855834 -0.06321043 -0.14892748
-0.06597721 0.15040953 0.02653732 0.049875304 0.045373045 -0.04087786 -0.17011152 0.05424157
0.10203543 -0.11180212 -0.058589272 0.08339029 -0.079207756 0.024330026 -0.16835058 0.02508469
0.026597902 0.10317727 0.018777376 -0.033176947 0.037606467 -0.08956824 0.055855345 -0.06295438
-0.021330629 0.010530264 0.00922082 -0.00024356732 0.00088927115 -0.13727221 -0.043792386 -0.12593006
-0.057698224 -0.020773089 -0.062933564 0.042565487 -0.034080084 0.08709387 0.16256425 0.14724013
0.16303816 0.021423645 -0.059418973 -0.107015826 0.029573712 -0.0803961 0.032429066 0.029096618
0.03296276 -0.034916576 0.098144226 -0.08742309 -0.0061551305 0.11560437 0.010168329 -0.111760505
-0.034601513 -0.13061222 -0.0011418377 0.09475382 0.117639475 -0.009940559 0.065695025 0.043332495
00000000: 847b 0abd b354 ab3c fe83 0a3e 5818 7d3d
00000010: 1a1a 23bd 7b44 1fbc a171 21be 0b9e 06be
00000020: 15d3 07bd b2e9 1ebe f22f 0bbc 0c60 0abe
00000030: 36cb 083c a94c eabd 2771 843d 843f 00be
00000040: 7ac4 f03d 8341 55bd b3a0 67bd 76e7 1a3e
00000050: a438 c4bd a4e2 aebd 2335 d5bd 8fc4 473d
00000060: 7d5e 1bbe d1b7 96bd 76be eb3c 9abb a9bd
00000070: 632e 5cbd cd8a 9a3d 0467 e63c 4fe0 a6bd
00000080: 3aa0 cebd b4a2 5bbc 8066 913d 72d2 2cbe
00000090: db5f 64bc 55a6 6bbd fe8a ba3d 286a 3dbd
000000a0: 071c 97bd ca58 5fbd d1bf d2bc 7681 c63d
000000b0: e591 3d3d 61f9 febb 60fc ab3d a13f 31be
000000c0: d2ae f3bd 239d fabd e269 60be 1f28 b93c
000000d0: 4443 1e3d 0678 c93d be37 293d 65f8 a73d
000000e0: 20e6 833d 94ae a23d d94a cdbd 39f6 9f3d
000000f0: 4bd7 8f3d 33ed c3bc a1f1 03bd 3aa0 c63d
00000100: e4da 133d 16fc 8d3b c956 46bb 4f68 a0bc
00000110: 5dc4 08be 45d8 aa3d 6f4b 58bc e6d3 01be
00000120: 1897 21bd 512f 963d 17fb 8cbc 37d9 86bd
00000130: 70e7 22bd 90e8 26be 32f5 0bbd 1e09 523d
00000140: 5e05 463c edf3 14bc afcd 22b9 b269 2c3c
00000150: d3fd 473c 3aab 39bd 4fc1 e1bd 90d3 d8bb
00000160: 4e8d 88bd 4667 be3d cd2d fb3c 3f4b 203e
00000170: 93d9 c8bd a7d8 e03b 90d3 e83d d44a b1bd
00000180: c191 09be ad50 62bc 8044 32bd 557d 97bc
00000190: 3372 82bc a627 c3bc f114 033d ef9f 74bd
000001a0: 0dd2 3bbc c6a5 5cbb 89e1 783c b3ef 6abd
000001b0: 4d18 1f3c 8af6 0dbe ea03 fd3c c0a1 433a
000001c0: d87e 02bd 7141 cd3d 3526 acbc ce2c 9bbd
000001d0: ad6f 76bc 439d 273e 1e42 edbd 61dd 013e
000001e0: 0e7b 8abb 32a8 37bd a584 55bd b751 29bd
000001f0: 5da9 9ebd 86a7 66bc ef37 7cbd cac5 d4bd
00000200: 93dc d03d ce14 903c 34a5 9bbd 74a7 7b3d
00000210: 01e5 8dbd 6b6f 193d 30f6 e1bd 8bea ec3c
00000220: 5fff 5fbd 9d2b d53c 47df e53b 3d5e 7a3d
00000230: 8677 473d 2fd2 a83d e5a6 16bd 8c2c 09bd
00000240: cde0 bf3c 77ea 493d 057f d3bd dc9b 1ebe
00000250: 973b 4cbd a5ab c53d 4486 fabd b380 e83b
00000260: cd96 e7bc 4b3a d7bd 881e 48bd 3737 aabd
00000270: de15 2dbd e5f1 4a3d 9e64 1b3e 2217 b8bd
00000280: 64de 05be fb1d 8bbd de50 593d 6230 74bd
00000290: cf08 f03c 0cbd 913c 276e 48bc 31f8 89bc
000002a0: 32ba e03d b088 c3bc fe08 cf3c 437d 9abd
000002b0: c374 633b 795f b73d a062 fdbd 56b1 a73d
000002c0: 831d 35bc 97ad 12bd efa0 203d f42f d3bc
000002d0: 8c23 833d c8eb 7abc 5531 353d b55b 9cbd
000002e0: e185 453d 23f8 fc3b b8f1 7dbd e596 653c
000002f0: 0258 be3d 5a5c c6bd 7874 81bd 7280 18be
00000300: 0f1f 87bd f504 1a3e cb64 d93c 0c4a 4c3d
00000310: 16d9 393d 8b6f 27bd b731 2ebe 692c 5e3d
00000320: f4f7 d03d 83f8 e4bd 4efb 6fbd 87c8 aa3d
00000330: ad37 a2bd c34f c73c 1864 2cbe 687e cd3c
00000340: d8e3 d93c 9b4e d33d 03d3 993c 8de4 07bd
00000350: 3d09 1a3d 8e6f b7bd 93c8 643d 3aee 80bd
00000360: 92bd aebc 2187 2c3c ec12 173c 1b66 7fb9
00000370: fa1d 693a 1691 0cbe a55f 33bd cff3 00be
00000380: f954 6cbd 532c aabc 50e3 80bd 2659 2e3d
00000390: 8f97 0bbd 455e b23d 3e77 263e 1ec6 163e
000003a0: 7af3 263e a480 af3c 4f61 73bd 1d2b dbbd
000003b0: 9244 f23c b6a6 a4bd 57d4 043d 085c ee3c
000003c0: f603 073d af04 0fbd d7ff c83d e10a b3bd
000003d0: fab0 c9bb fcc1 ec3d 1099 263c b1e2 e4bd
000003e0: 51ba 0dbd 36bf 05be b7a9 95ba 4a0e c23d
000003f0: f7ec f03d badd 22bc 1d8b 863d 6a7d 313d

gc2.bias f4 [200]
0.018452523 -0.013565328 0.018110586 -0.021423671 -0.023220582 0.026288645 0.02579682 0.00044177735
0.011655218 -0.012905223 -0.006427105 -0.0098856175 -0.015206424 -0.0014989675 0.04646993 -0.009802372
-0.0022633162 0.018832386 0.015901485 -0.026519164 -0.0039957906 -0.015711788 0.008371701 0.016615255
-0.0013435262 -0.006778049 0.016986223 0.029371502 0.034800585 0.02570181 0.034206457 0.018078487
0.03808299 -0.018817592 -0.007700292 0.012631498 -0.014041043 0.007492681 0.010895056 0.021563014
0.016348211 0.022821976 0.05182592 -0.022046352 0.013436006 0.040656973 -0.028539032 -0.022815002
0.030696634 0.019172082 -0.005747934 -0.015954677 -0.0047952747 0.034875683 0.023153836 -0.053926703
0.0076615056 0.0032972696 0.030277489 -0.019989695 0.012898539 0.028966155 0.015495475 0.0032821405
-0.013709101 -0.03445471 -0.048827313 -0.016104432 0.028348679 0.0040658256 0.013334283 -0.0008679195
0.0034904736 -0.014629485 -0.0070249364 -0.001053275 -0.004616378 0.019995471 0.0010457906 -0.018862506
0.00024603354 -0.020384379 0.019277597 -0.0038979405 0.031203104 0.048850913 0.032319076 0.0061761704
0.016132202 -0.03226101 0.047147688 -0.02297167 0.0019275554 -0.029804122 -0.028256083 0.014336436
0.00297909 0.021743065 -0.00752732 0.016061187 -0.011784943 0.016103355 0.023183353 0.030898988
-0.043861795 -0.029956056 -0.005168745 0.022313295 -0.023657585 -0.012681981 -0.010296036 0.038690694
-0.003741195 0.0035141387 0.037894804 -0.0047762906 0.0013084804 -0.012515142 0.0010022201 -0.042230077
0.017955018 -0.04051011 0.020969033 0.013145943 0.01811422 0.039695796 -0.0018648605 -0.026806869
0.018363269 -0.020245725 0.013391529 0.029200995 -0.0074027865 0.03281687 0.03128422 -0.00086227624
-0.013187973 -0.010069495 0.0016537788 0.001518651 -0.0163049 -0.0087966025 0.008783168 -0.021424206
0.008045437 -0.01604878 -0.022100206 -0.005304293 -0.0014976842 0.020855656 0.009521857 -0.02125373
-0.02771458 -0.03749622 -0.0086647 -0.014833448 -0.0022077025 0.009099071 -0.014014169 0.027639065
0.0035109185 0.016888885 -0.0013249301 0.023639604 0.022302857 -0.023755588 0.03324215 -0.008253681
0.00096073886 0.0072882674 -0.029044788 0.020056443 -0.0011443285 -0.004670582 0.041628443 -0.01494204
-0.008280898 0.0156127345 0.028731907 -0.0265624 0.033015877 0.011216375 0.048085697 -0.01517113
0.00092565716 -0.01910143 0.025189832 0.032223985 0.009467505 0.03911095 0.01199013 0.033900954
0.016392136 0.019170726 0.0061593987 0.0027915663 0.015235367 0.009958391 0.013474181 0.010182586
00000000: bf29 973c 1c41 5ebc a75c 943c b280 afbc
00000010: 1739 bebc 495b d73c da53 d33c 5a9e e739
00000020: 87f5 3e3c 6e70 53bc 779a d2bb 49f7 21bc
00000030: 5d24 79bc 0179 c4ba 4157 3e3d 219a 20bc
00000040: 2554 14bb 6046 9a3c d543 823c b83e d9bc
00000050: 1fef 82bb 02b6 80bc 7629 093c b71c 883c
00000060: 4219 b0ba 651a debb b126 8b3c 819c f03c
00000070: 0f8b 0e3d 9a8c d23c 121c 0c3d 5619 943c
00000080: e9fc 1b3d 5a27 9abc bb52 fcbb 58f4 4e3c
00000090: 670c 66bc 2a85 f53b 2d81 323c eba4 b03c
000000a0: afec 853c 27f5 ba3c 6a47 543d 8d9a b4bc
000000b0: b222 5c3c ed87 263d b0ca e9bc 87e6 babc
000000c0: 8277 fb3c c50e 9d3c 2a59 bcbb 62b3 82bc
000000d0: ae21 9dbb ced9 0e3d 1dad bd3c 3fe2 5cbd
000000e0: 5e0d fb3b 0117 583b 7f08 f83c 6ec1 a3bc
000000f0: 6554 533c 6e4a ed3c bce0 7d3c 2e19 573b
00000100: 239c 60bc 6220 0dbd 26ff 47bd 71ed 83bc
00000110: 7d3b e83c 9e3a 853b 0978 5a3c 1785 63ba
00000120: 6ec0 643b 82b0 6fbc 7031 e6bb 0b0e 8aba
00000130: fc44 97bb 8bcd a33c e912 893a 8b85 9abc
00000140: 10fe 8039 24fd a6bc 0dec 9d3c 9774 7fbb
00000150: a79d ff3c e517 483d 0261 043d 7961 ca3b
00000160: ae27 843c 1f24 04bd ef1d 413d 152f bcbc
00000170: 07a6 fc3a c627 f4bc 4d79 e7bc 5fe3 6a3c
00000180: d63c 433b 831e b23c bda7 f6bb c092 833c
00000190: a215 41bc 2feb 833c 04eb bd3c e01f fd3c
000001a0: 6da8 33bd 6766 f5bc 935e a9bb 5fca b63c
000001b0: 8dcd c1bc 15c8 4fbc b4b0 28bc 227a 1e3d
000001c0: d62e 75bb 774d 663b 9537 1b3d 6e82 9cbb
000001d0: 5181 ab3a 4f0c 4dbc ed5c 833a 72f9 2cbd
000001e0: 6716 933c eeed 25bd 40c7 ab3c 1562 573c
000001f0: 4664 943c 0f98 223d 566e f4ba 149a dbbc
00000200: 916e 963c 5dda a5bc 2568 5b3c ed36 ef3c
00000210: 1393 f2bb fb6a 063d e223 003d 610a 62ba
00000220: 5e12 58bc 86fa 24bc 9cc3 d83a 790d c73a
00000230: db91 85bc a01f 10bc 47e7 0f3c d181 afbc
00000240: 02d1 033c bb78 83bc 7e0b b5bc a2cf adbb
00000250: f14d c4ba 7bd9 aa3c 9001 1c3c 4d1c aebc
00000260: b009 e3bc a395 19bd 63f6 0dbc fe07 73bc
00000270: 1aaf 10bb 4514 153c af9b 65bc 526b e23c
00000280: 7017 663b 8f5a 8a3c 47a9 adba d8a7 c13c
00000290: 7bb4 b63c 149b c2bc ec28 083d 723a 07bc
000002a0: 18da 7b3a 6bd2 ee3b 56ef edbc 694d a43c
000002b0: 4bfd 95ba ae0b 99bb 9682 2a3d 75cf 74bc
000002c0: 9bac 07bc 8ecc 7f3c 2d5f eb3c 6499 d9bc
000002d0: a83b 073d e3c4 373c 82f5 443d 5590 78bc
000002e0: cda7 723a 9a7a 9cbc e85a ce3c 4cfd 033d
000002f0: 981d 1b3c ce32 203d 4072 443c badb 0a3d
00000300: cd48 863c ed0b 9d3c c8d4 c93b b6f2 363b
00000310: c39d 793c 8528 233c d0c2 5c3c dcd4 263c

gc3.weight f4 [200, 100]
0.075847074 0.036008466 -0.00026905534 -0.02494071 -0.041962687 -0.026506456 0.029353678 -0.07059506
0.04016147 -0.044315968 0.0104069775 0.08775734 -0.027609043 0.04276534 -0.041325126 0.034987364
-0.12432962 0.14651908 0.08080171 -0.06948576 -0.0895679 0.045315083 0.017257057 -0.053727973
-0.120658696 0.02632443 -0.06884427 -0.17158173 -0.15770274 0.15450746 0.05505674 0.068905294
0.07441952 -0.23216696 -0.052282806 -0.037170347 -0.024416236 -0.07421303 -0.16994943 -0.0100804195
0.12750429 0.04779121 -0.030342164 -0.010677935 0.023785032 0.050373152 -0.047425214 -0.114241764
0.18483126 -0.034972195 -0.16004191 -0.16670385 -0.09505157 -0.023651836 -0.06544325 -0.098525405
-0.10614875 -0.08822665 -0.012985562 0.08755431 -0.026051143 0.08094899 0.047650255 -0.14277229
-0.08952729 0.009248549 -0.15628064 -0.10061597 -0.010246479 -0.059916694 -0.12501311 0.037399754
0.04449669 -0.012478951 -0.10745786 -0.028568622 -0.05002273 -0.016740901 -0.08033152 0.07415627
-0.0032088445 0.09352958 -0.112569824 -0.038208112 -0.02389346 -0.029095003 -0.115230605 0.008189128
-0.11204729 -0.010840259 0.060012393 -0.01220746 -0.053086728 0.07591872 0.005316687 -0.059662737
0.013459948 0.13214813 -0.16648006 -0.03290694 0.10470496 0.06866448 -0.005278159 0.08344409
0.100301 0.001779814 -0.096906565 0.047223166 -0.046546567 0.13279654 0.0116418805 0.17528716
-0.15780072 -0.07821187 0.03687382 0.096214876 0.009731404 0.09816775 -0.004237114 0.11399161
-0.20384285 -0.0017174933 -0.029560829 -0.14143966 0.017609216 0.0649591 -0.02701087 0.055039342
-0.048284788 -0.027655372 0.05347631 -0.08370158 0.06146364 0.029035877 0.03360849 0.073048025
0.11741554 -0.005446702 -0.07917482 -0.14843616 0.09687239 0.11251063 0.034255367 0.014686539
-0.018199991 -0.055783927 -0.1433299 0.14803389 -0.04202804 0.015808607 -0.003415145 -0.13349539
0.093409255 -0.07491656 0.057922542 0.2675595 0.07813728 0.045923624 0.118331335 0.09544656
0.1319699 0.019450098 0.18208079 0.010979983 0.05841715 0.049623493 -0.123618856 0.08340892
0.11917479 -0.1116863 -0.17224734 0.010101223 0.07054794 -0.04174664 -0.09252136 0.26849627
0.022497036 -0.07825784 -0.12184938 -0.022831121 0.18311346 -0.012094504 -0.123331316 0.09911121
-0.09547289 0.05578225 0.011681953 0.04769001 0.12972783 0.13195412 -0.20821941 -0.09905186
0.15073098 0.06909456 -0.06452252 0.007352025 -0.0030834402 0.034860577 0.14894173 -0.063976094
0.00097277114 -0.003381777 -0.030893745 -0.14452948 0.03966425 -0.12845291 -0.014543999 0.03450891
-0.024689222 -0.007823773 0.024549237 0.071860574 -0.034058265 0.1074077 -0.06741606 -0.11917887
-0.008800905 0.0070220246 -0.21094699 0.018157903 -0.000710047 0.009305462 0.009965237 0.05874778
0.03336995 0.05424083 0.03153757 -0.07324735 -0.06346718 0.06509534 -0.24590951 0.21097815
-0.026476922 0.0996572 0.18584591 0.043163173 -0.09518706 0.018202417 0.060480762 -0.0116127515
0.023054441 -0.031132927 0.08090957 -0.010326934 -0.12157444 0.079743326 -0.08739812 -0.05509084
0.016846081 0.050076917 0.06698129 0.04725486 -0.05177219 0.022751056 -0.08170312 0.007757383
00000000: b655 9b3d 9d7d 133d ff0f 8db9 7650 ccbc
00000010: 11e1 2bbd 1124 d9bc 2077 f03c 2594 90bd
00000020: 5b80 243d a984 35bd 0782 2a3c 1fba b33d
00000030: 5c2c e2bc b62a 2f3d 8944 29bd e94e 0f3d
00000040: 87a0 febd 1909 163e 5e7b a53d 8d4e 8ebd
00000050: 606f b7bd 4f9c 393d ac5e 8d3c dd11 5cbd
00000060: e81b f7bd 55a6 d73c 3afe 8cbd 1fb3 2fbe
00000070: d47c 21be 3437 1e3e 2d83 613d 381e 8d3d
00000080: 4369 983d 2dbd 6dbe 7f26 56bd ef3f 18bd
00000090: 8f04 c8bc 00fd 97bd 3907 2ebe 5828 25bc
000000a0: 7c90 023e b7c0 433d 2190 f8bc 81f2 2ebc
000000b0: d4d8 c23c 1454 4e3d f140 42bd 96f7 e9bd
000000c0: 6844 3d3e 013f 0fbd 07e2 23be 6ab4 2abe
000000d0: 66aa c2bd 7fc1 c1bc 1c07 86bd b0c7 c9bd
000000e0: 8464 d9bd 2db0 b4bd 65c1 54bc ad4f b33d
000000f0: 3569 d5bc 96c8 a53d ea2c 433d e632 12be
00000100: 155a b7bd 3a87 173c 0808 20be bf0f cebd
00000110: d9e0 27bc 356b 75bd 7003 00be 7c30 193d
00000120: 2942 363d 8474 4cbc de12 dcbd be08 eabc
00000130: a2e4 4cbd 3724 89bc da84 a4bd 3edf 973d
00000140: 7a4b 52bb 708c bf3d 028b e6bd 1c80 1cbd
00000150: 38bc c3bc a558 eebc 06fe ebbd b12b 063c
00000160: 0d79 e5bd 579b 31bc 8ecf 753d cc01 48bc
00000170: 7871 59bd 467b 9b3d 9a37 ae3b ea60 74bd
00000180: 1d87 5c3c d751 073e c079 2abe 6dc9 06bd
00000190: 8e6f d63d f69f 8c3d 68f4 acbb bce4 aa3d
000001a0: 9c6a cd3d a648 e93a f376 c6bd 146d 413d
000001b0: 9da7 3ebd d1fb 073e 96bd 3e3c 7a7e 333e
000001c0: 8396 21be 8b2d a0bd 0109 173d 4e0c c53d
000001d0: 7770 1f3c 2c0c c93d 7dd7 8abb 6f74 e93d
000001e0: 2ebc 50be 831d e1ba 8d29 f2bc 8fd5 10be
000001f0: 3441 903c 4709 853d e645 ddbc ef70 613d
00000200: 45c6 45bd 858d e2bc fa09 5b3d bc6b abbd
00000210: 4cc1 7b3d a6dc ed3c 0ea9 093d 349a 953d
00000220: 8f77 f03d 3f7a b2bb 6826 a2bd a6ff 17be
00000230: 0865 c63d f96b e63d 5b4f 0c3d cf9f 703c
00000240: 2618 95bc b07d 64bd 13c5 12be 3296 173e
00000250: 9825 2cbd 0d81 813c a0d0 5fbb 04b3 08be
00000260: 5a4d bf3d da6d 99bd 3040 6d3d 8ffd 883e
00000270: 7006 a03d 691a 3c3d b357 f23d 7c79 c33d
00000280: 1e23 073e d055 9f3c 6373 3a3e 63e5 333c
00000290: d246 6f3d 0142 4b3d e22b fdbd 4cd2 aa3d
000002a0: ea11 f43d c9bb e4bd 9b61 30be 9a7f 253c
000002b0: 707b 903d 86fe 2abd d77b bdbd 5878 893e
000002c0: b44b b83c a545 a0bd 2b8c f9bd 5508 bbbc
000002d0: 1882 3b3e 0728 46bc 2195 fcbd d1fa ca3d
000002e0: 4a87 c3bd ee7b 643d aa65 3f3c 9a56 433d
000002f0: 5fd7 043e fb1e 073e 7837 55be b4db cabd
00000300: 3959 1a3e 7381 8d3d 6224 84bd 41e9 f03b
00000310: 8b13 4abb f7c9 0e3d 2e84 183e e605 83bd
00000320: 9101 7f3a cea0 5dbb e114 fdbc 89ff 13be
00000330: fb76 223d 2989 03be f449 6ebc 3759 0d3d
00000340: 0d41 cabc 482f 00bc 7b1b c93c a32b 933d
00000350: ae80 0bbd 91f8 db3d 6e11 8abd 0d14 f4bd
00000360: ac31 10bc 0319 e63b 7d02 58be e2bf 943c
00000370: 7322 3aba f075 183c 3c45 233c 83a1 703d
00000380: eeae 083d a22b 5e3d 8a2d 013d b502 96bd
00000390: 15fb 81bd b550 853d b4cf 7bbe a80a 583e
000003a0: 21e6 d8bc 1319 cc3d 644e 3e3e decb 303d
000003b0: 6ff1 c2bd 3c1d 953c adba 773d 6943 3ebc
000003c0: abdc bc3c 7b0a ffbc ebb3 a53d 4d32 29bc
000003d0: 05fc f8bd 7850 a33d c9fd b2bd efa6 61bd
000003e0: cb00 8a3c 741d 4d3d 7d2d 893d 508e 413d
000003f0: 130f 54bd 6c60 ba3c f753 a7bd a531 fe3b

gc3.bias f4 [100]
-0.032787137 -0.037259612 -0.014028945 -0.0024362858 -0.004289499 0.00033275352 0.0021139125 0.0031781723
-0.009506998 -0.009131677 -0.0035841046 -0.0015897403 -0.00019764442 -0.014212133 -0.031798314 -0.028018104
-0.03238008 -0.01265871 -0.0024404046 0.0061986307 0.0036680608 -0.03253581 0.023419222 0.0028557878
-0.0152717745 -0.022521066 -0.026343202 -0.011801034 -0.00024166204 0.03318509 -0.0012409448 0.020147534
-0.00032834808 -0.012275182 -0.009825687 -0.011930531 0.0070634377 0.0015757196 -0.019848898 -0.0011513944
0.0031915738 -0.0008600677 -0.011802706 -0.02428645 -0.0034097922 -0.012573906 -0.006385509 -0.022499612
-0.014257876 0.029599631 0.011119171 -0.00344197 0.006000683 -0.014390475 -0.013377657 -0.024705293
0.0060053603 -0.010143817 -0.022877136 -0.040160794 -0.016835462 0.014070202 -0.01784154 0.0023317186
-0.0023140186 -0.010331357 -0.027276678 -0.002869294 -0.0034266396 -0.0017027677 -0.02896765 -0.0014352358
-0.00022515465 0.0028527724 -0.028905138 -0.018610189 -0.010976769 -0.028259084 0.013735025 0.024752399
-0.04611598 -0.03450884 -0.0058035967 -0.015321941 -0.0043475768 0.01155315 -0.013818103 -0.0080033615
-0.037608724 0.018790068 -0.02854476 0.005835386 -0.014030794 0.01680934 -0.006770865 0.021356124
0.009994402 -0.004213541 0.006607039 0.0038343372
00000000: ce4b 06bd 899d 18bd a9d9 65bc 18aa 1fbb
00000010: ed8e 8cbb 6c75 ae39 9189 0a3b e248 503b
00000020: 3dc3 1bbc 089d 15bc 4ce3 6abb d55e d0ba
00000030: c53e 4fb9 02da 68bc f33e 02bd 3986 e5bc
00000040: faa0 04bd 7a66 4fbc 32ef 1fbb e21d cb3b
00000050: d963 703b 4544 05bd abd9 bf3c 2b28 3b3b
00000060: 7736 7abc 197e b8bc b3cd d7bc 2059 41bc
00000070: a966 7db9 17ed 073d 33a7 a2ba 710c a53c
00000080: 2226 acb9 d81d 49bc ebfb 20bc 4678 43bc
00000090: 6974 e73b 6088 ce3a 289a a2bc 63ea 96ba
000000a0: b929 513b 2b76 61ba 2360 41bc 61f4 c6bc
000000b0: d276 5fbb c902 4ebc 883d d1bb 1b51 b8bc
000000c0: de99 69bc ed7a f23c 2f2d 363c ad92 61bb
000000d0: 61a1 c43b 07c6 6bbc f62d 5bbc c162 cabc
000000e0: 9dc8 c43b 4132 26bc d568 bbbc a57f 24bd
000000f0: 86ea 89bc b486 663c 6c28 92bc bfcf 183b
00000100: caa6 17bb da44 29bc 5773 dfbc c40a 3cbb
00000110: 7991 60bb 672f dfba 914d edbc 861e bcba
00000120: 7e17 6cb9 94f5 3a3b 78ca ecbc 6574 98bc
00000130: e8d7 33bc 987f e7bc df08 613c 8bc5 ca3c
00000140: 1ce4 3cbd 2459 0dbd 192c bebb e108 7bbc
00000150: 1e76 8ebb 6c49 3d3c 5365 62bc 8820 03bc
00000160: 9b0b 1abd a1ed 993c b3d6 e9bc c436 bf3b
00000170: 6ae1 65bc beb3 893c 22de ddbb 0af3 ae3c
00000180: 8fbf 233c be11 8abb dc7f d83b 8149 7b3b
