best_models/MOGONET/fold_5/E3.pth (torch, 901527 bytes, 6 tensors)

gc1.weight f4 [822, 200]
0.021703929 -0.00587181 -0.0538418 -0.12503079 -0.008695629 0.03101688 0.03744003 0.101359844
0.0069257463 0.022878047 -0.044637553 -0.06656071 -0.023880161 0.024795633 0.044360675 0.020077273
0.09347676 -0.06480444 0.02869603 -0.012630153 0.04443612 -0.009850241 0.015649239 -0.07918417
0.06501236 0.04145574 0.0007944468 -0.016506359 0.030484086 0.017694943 0.03466346 -0.0020325629
-0.020941528 0.042560585 -0.014275206 0.14648013 0.009312883 -0.025918018 0.0045032105 0.050567113
0.02018993 -0.05979537 0.041841913 -0.034825053 0.10247993 -0.0492943 0.074348785 0.0097906105
0.03531352 0.08668216 0.08141567 0.026968578 -0.11647808 -0.103582926 -0.026989928 -0.008218298
0.07968961 -0.021562072 0.011935368 -0.01369629 0.065315805 0.0070951246 0.0059861136 0.0011051301
-0.006489009 -0.074741855 0.026783144 0.07687889 0.08571504 -0.013949799 0.041985393 0.02322459
0.0029741984 0.0820406 0.01910865 0.06239891 -0.023308588 0.049031876 0.09931258 -0.01878961
0.015888907 0.0076075965 -0.029794613 0.011161061 -0.05036186 0.03404355 -0.08327591 -0.046399683
-0.0021656498 0.07263429 0.007281666 -0.016445126 0.11008777 -0.01465633 -0.00012868512 0.03782787
0.0031789676 -0.018775687 0.055344142 -0.00502526 0.05976179 0.08241761 -0.11574974 0.062213343
-0.044858072 0.003701583 0.09284183 0.004908252 -0.016619291 0.020605022 -0.037707713 0.016267322
-0.05327267 0.108962536 0.055278372 0.017442727 0.015145991 0.042743754 -0.012577079 -0.024292812
-0.07696245 0.043492496 -0.052606046 -0.021459041 0.06477176 0.009246207 -0.04197714 0.09033275
0.076014794 0.04708225 0.03559555 0.01580902 0.089760244 0.04897924 0.11505699 0.104068495
-0.06781658 0.12611257 0.05168418 -0.004512332 0.04365027 0.008414486 -0.10954279 0.035981655
-0.023432229 -0.019637058 0.006849475 0.046944886 -0.018304149 -0.15361585 0.08617157 0.012627929
-0.03156325 -0.06027679 -0.062184244 0.029772064 -0.053916994 0.07953332 -0.1249521 0.010052011
0.04637717 0.14694321 -0.03629886 0.013298673 0.03943617 0.13315833 0.058081113 0.029705748
0.06819446 0.05441558 0.06515056 -0.049428 0.042004805 -0.027099429 -0.04308888 0.029453808
0.01076099 -0.010722221 -0.005584968 -0.011649715 0.05743796 0.11328732 0.053307105 0.036887653
-0.093498446 0.034309782 -0.031015297 -0.08795523 0.026569104 0.10028567 -0.0681411 -0.04135412
0.03612563 -0.048494704 -0.02839977 0.03237727 -0.0049626757 0.09560137 -0.040754836 -0.008103178
0.007658481 0.026731182 0.0059316284 0.064717375 -0.05997784 0.03198672 -0.031498045 0.07179778
-0.07473934 -0.037950557 -0.05067091 -0.021276394 0.02423216 -0.0052100373 0.014642734 0.0061707837
0.08745051 0.009423665 -0.08728142 -0.013007 -0.045418467 -0.0024297696 -0.0572581 -0.012981985
0.058082543 0.033313487 -0.04789327 0.0006783429 -0.013320792 -0.047057215 -0.0474875 0.02891763
0.0131045 -0.073522575 0.023198979 -0.074419565 -0.026403032 0.043858003 0.0026499007 0.051369157
0.019194096 0.022985015 -0.10222257 0.11025049 -0.017212844 0.11418548 0.012569545 -0.021757321
-0.023231287 -0.045354314 0.044857424 0.11025273 0.07580094 0.0026316186 0.0003947442 0.07545859
00000000: 70cc b13c 5068 c0bb 3889 5cbd 1208 00be
00000010: 1d78 0ebc 1d17 fe3c b85a 193d c095 cf3d
00000020: 5ff1 e23b be6a bb3c ded5 36bd fb50 88bd
00000030: 54a0 c3bc 3620 cb3c 8ab3 353d 1879 a43c
00000040: be70 bf3d 31b8 84bd f013 eb3c b4ee 4ebc
00000050: a602 363d e862 21bc d532 803c 4f2b a2bd
00000060: 3325 853d 7ecd 293d 6c42 503a 5838 87bc
00000070: c3b9 f93c fcf4 903c 46fb 0d3d bf34 05bb
00000080: 918d abbc 0254 2e3d 8ee2 69bc e3fe 153e
00000090: 1095 183c 0652 d4bc ab8f 933b 761f 4f3d
000000a0: 5a65 a53c fdeb 74bd 6d62 2b3d b7a4 0ebd
000000b0: ffe0 d13d d2e8 49bd 2d44 983d cc68 203c
000000c0: e9a4 103d 6b86 b13d 42bd a63d 35ed dc3c
000000d0: 0f8c eebd 4923 d4bd fb19 ddbc 0aa6 06bc
000000e0: 4e34 a33d f1a2 b0bc 908c 433c 6766 60bc
000000f0: 4bc4 853d 387e e83b 2927 c43b 03da 903a
00000100: c1a1 d4bb 4212 99bd 5368 db3c ae72 9d3d
00000110: 5e8b af3d b38d 64bc e0f8 2b3d 7f41 be3c
00000120: c5ea 423b e704 a83d be89 9c3c 0096 7f3d
00000130: a7f1 bebc a6d5 483d 6564 cb3d abec 99bc
00000140: 7429 823c 2549 f93b d513 f4bc e2dc 363c
00000150: 3d48 4ebd 4071 0b3d 8f8c aabd 980d 3ebd
00000160: 93ed 0dbb 49c1 943d 0b9b ee3b eeb7 86bc
00000170: b275 e13d 1b21 70bc a6ef 06b9 66f1 1a3d
00000180: 3a56 503b 78cf 99bc 8ab0 623d f0aa a4bb
00000190: c7c8 743d 90ca a83d 330e edbd 6bd3 7e3d
000001a0: 19bd 37bd 4296 723b db23 be3d 67d5 a03b
000001b0: 2e25 88bc ddcb a83c 6773 1abd 0c43 853c
000001c0: 7134 5abd c027 df3d 936b 623d 0de4 8e3c
000001d0: e426 783c 1314 2f3d 1810 4ebc b801 c7bc
000001e0: 7d9e 9dbd 3025 323d 7079 57bd dfca afbc
000001f0: 0ea7 843d 677d 173c 39f0 2bbd 6000 b93d
00000200: a5ad 9b3d 51d9 403d a4cc 113d eb81 813c
00000210: 38d4 b73d 759e 483d 00a3 eb3d dd21 d53d
00000220: 6be3 8abd a723 013e cab2 533d 2fdc 93bb
00000230: a0ca 323d eadc 093c f857 e0bd 8061 133d
00000240: f2f4 bfbc e5dd a0bc 9071 e03b 4849 403d
00000250: 95f2 95bc 794d 1dbe b87a b03d 60e5 4e3c
00000260: 7748 01bd cce4 76bd e8b4 7ebd 8be4 f33c
00000270: 11d8 5cbd 5ee2 a23d e3e6 ffbd 31b1 243c
00000280: fdf5 3d3d 4878 163e 1dae 14bd ade2 593c
00000290: d287 213d a85a 083e 76e6 6d3d 7859 f33c
000002a0: 89a9 8b3d dfe2 5e3d a86d 853d 0475 4abd
000002b0: 3b0d 2c3d 9fff ddbc f77d 30bd 1d49 f13c
000002c0: dd4e 303c 41ac 2fbc 1b02 b7bb 72de 3ebc
000002d0: 1144 6b3d 2f03 e83d 8d58 5a3d 8217 173d
000002e0: 1d7c bfbd 6a88 0c3d cb13 febc df21 b4bd
000002f0: 73a7 d93c 9362 cd3d 908d 8bbd f062 29bd
00000300: 78f8 133d 62a2 46bd a2a6 e8bc 079e 043d
00000310: f19d a2bb a7ca c33d 8bee 26bd 31c3 04bc
00000320: fff3 fa3b 5afb da3c 1b5e c23b 8b8a 843d
00000330: 53ab 75bd 8204 033d 1804 01bd b70a 933d
00000340: f010 99bd 0b72 1bbd 4d8c 4fbd d54b aebc
00000350: 8682 c63c f6b8 aabb 14e8 6f3c 4934 ca3b
00000360: 4119 b33d b765 1a3c 9ac0 b2bd 501b 55bc
00000370: b708 3abd c53c 1fbb 7887 6abd 64b2 54bc
00000380: f6e7 6d3d b973 083d bc2b 44bd d2d2 313a
00000390: 733f 5abc 11bf 40bd 4182 42bd aae4 ec3c
000003a0: 42b4 563c 0193 96bd c90b be3c 4969 98bd
000003b0: 2c4b d8bc 73a4 333d f5a9 2d3b 7768 523d
000003c0: f03c 9d3c 124b bc3c 115a d1bd 02cb e13d
000003d0: f301 8dbc 14da e93d 7ef0 4d3c 693c b2bc
000003e0: 8a4f bebc 72c5 39bd 6bbc 373d 2fcc e13d
000003f0: 863d 9b3d 3c77 2c3b abf5 ce39 098a 9a3d

gc1.bias f4 [200]
-0.08656654 -0.055417966 -0.10164311 -0.08689209 -0.09485205 -0.018393422 0.023689188 -0.0419222
0.0036997064 -0.045293573 -0.050800048 -0.08079399 -0.02523679 -0.059661996 -0.06367164 -0.08461212
0.033925213 -0.06675902 -0.04072846 -0.07203779 0.039627314 -0.002664251 -0.017012695 -0.066599876
-0.070994355 -0.024541775 -0.058264237 -0.07859899 -0.039759498 -0.023216706 -0.01575043 -0.059270877
-0.06653588 -0.026364911 -0.05124847 -0.0379832 -0.016096588 -0.071527675 -0.046107512 -0.066923544
0.0076083294 -0.07147627 -0.008658599 -0.059668396 0.0038685075 -0.07828936 -0.040655725 0.00020606421
0.0015225546 -0.018083746 -0.022198487 -0.006221182 -0.051254112 -0.06827353 -0.0045337835 -0.0747512
-0.028415686 -0.0933439 -0.08666035 -0.07915869 -0.01799085 -0.07080124 -0.049546845 -0.09079576
-0.0010990109 -0.06410177 -0.009538109 -0.042229373 -0.056483366 -0.056159314 -0.023922978 -0.055074237
-0.0016368559 -0.01937152 -0.06527935 -0.034495696 -0.0523936 -0.003928461 -0.032831226 -0.054361105
-0.09698818 -0.032736488 -0.09233038 -0.07627923 -0.055998 -0.008935774 -0.050949775 -0.0385691
0.001954481 -0.009962917 0.012990057 -0.03906225 0.014334524 -0.09906608 -0.050609726 -0.020182202
-0.018999297 -0.07664807 -0.05041731 -0.016035596 -0.042674195 -0.017085265 -0.08133917 -0.028321857
-0.06033237 -0.074732155 -0.00800687 -0.008314064 -0.091286905 -0.06718762 -0.065680414 -0.056593746
-0.09024515 0.0016575911 -0.0851894 -0.04687647 -0.012214095 -0.06830443 -0.06753886 -0.023193052
-0.06471185 -0.016566545 -0.07240171 -0.040546317 -0.009960368 -0.034264755 -0.054106798 -0.017169664
-0.01451378 0.0011309142 -0.048372995 -0.028995266 -0.027313612 -0.028982213 -0.005930587 -0.00043424993
-0.04609754 0.0032593412 -0.01880741 -0.06101905 -0.03418682 -0.10629009 -0.09196798 -0.074291416
-0.07009036 -0.076642 -0.06697455 -0.011956855 -0.067880556 -0.06521676 -0.012390567 -0.06442149
-0.026287893 -0.05466617 -0.030977502 -0.0523473 -0.05582866 -0.010260751 -0.078777485 -0.053659875
-0.0030479515 -0.0019932643 -0.0313629 -0.035720494 -0.0026589383 -0.021197498 -0.030885436 -0.027385904
-0.008878607 -0.07632249 -0.026240915 -0.03617748 -0.03850153 -0.046428815 -0.02821498 -0.053560436
-0.008338989 -0.10747639 -0.04097458 -0.064062186 -0.05031086 -0.048703294 -0.08248757 -0.018524712
-0.06262671 -0.028538208 -0.073502615 -0.018341951 -0.021467831 -0.02497693 -0.09253787 -0.060092364
-0.040817216 -0.0438602 -0.0321224 -0.0631311 -0.005467067 -0.011058556 -0.06932961 -0.060095087
00000000: cc49 b1bd f3fd 62bd 432a d0bd 7bf4 b1bd
00000010: cb41 c2bd cdad 96bc d40f c23c 9db6 2bbd
00000020: c676 723b c185 39bd b613 50bd 5277 a5bd
00000030: 62bd cebc 2360 74bd 4766 82bd 1f49 adbd
00000040: 2af5 0a3d f4b8 88bd e3d2 26bd 8d88 93bd
00000050: 4050 223d b79a 2ebb 355e 8bbc 8465 88bd
00000060: 7d65 91bd d50b c9bc 7ba6 6ebd 82f8 a0bd
00000070: dbda 22bd f630 bebc 0c07 81bc 05c6 72bd
00000080: f743 88bd 3afb d7bc eae9 51bd 4694 1bbd
00000090: fedc 83bc 1a7d 92bd 3bdb 3cbd 360f 89bd
000000a0: 4b4f f93b 2762 92bd ccdc 0dbc d966 74bd
000000b0: c986 7d3b 2c56 a0bd 9e86 26bd f112 5839
000000c0: 7490 c73a 5d24 94bc 9ad9 b5bc 0fdb cbbb
000000d0: d5ef 51bd fed2 8bbd 2290 94bb 2817 99bd
000000e0: 03c8 e8bc 162b bfbd fb7a b1bd f41d a2bd
000000f0: 8c61 93bc 3e00 91bd a2f1 4abd 21f3 b9bd
00000100: b00c 90ba ca47 83bd bb45 1cbc b5f8 2cbd
00000110: 1a5b 67bd 4f07 66bd 1ffa c3bc 8695 61bd
00000120: c58b d6ba 06b1 9ebc 2eb1 85bd 5c4b 0dbd
00000130: ac9a 56bd 52ba 80bb 097a 06bd c0a9 5ebd
00000140: bda1 c6bd b216 06bd b617 bdbd 4938 9cbd
00000150: 295e 65bd 5a67 12bc b6b0 50bd a2fa 1dbd
00000160: c016 003b 813b 23bc 3fd4 543c bdff 1fbd
00000170: 5adb 6a3c 28e3 cabd 254c 4fbd 2555 a5bc
00000180: 6aa4 9bbc aaf9 9cbd 6282 4ebd 155d 83bc
00000190: 23cb 2ebd 66f6 8bbc 2795 a6bd 3d03 e8bc
000001a0: 131f 77bd 2c0d 99bd 3f2f 03bc b637 08bc
000001b0: a1f4 babd aa99 89bd 7483 86bd d8ce 67bd
000001c0: 73d2 b8bd 8743 d93a c877 aebd 8b01 40bd
000001d0: a11d 48bc 31e3 8bbd d051 8abd 5bff bdbc
000001e0: a587 84bd 90b6 87bc 5947 94bd e513 26bd
000001f0: d030 23bc 3359 0cbd 179f 5dbd 65a7 8cbc
00000200: 35cb 6dbc 2f3b 943a c322 46bd 7b87 edbc
00000210: ccc0 dfbc 1b6c edbc 5f55 c2bb 0aac e3b9
00000220: c6d0 3cbd ac9a 553b ff11 9abc 1def 79bd
00000230: 7b07 0cbd 9eae d9bd b559 bcbd 1926 98bd
00000240: 898b 8fbd 7bf6 9cbd f429 89bd afe6 43bc
00000250: f604 8bbd 5d90 85bd ce01 4bbc 6aef 83bd
00000260: b559 d7bc a2e9 5fbd 88c4 fdbc 1f6a 56bd
00000270: 98ac 64bd b51c 28bc 1756 a1bd 75ca 5bbd
00000280: 24c0 47bb 6da1 02bb 6276 00bd a74f 12bd
00000290: 9541 2ebb 60a6 adbc 7403 fdbc 6758 e0bc
000002a0: 9477 11bc f74e 9cbd 30f7 d6bc d62e 14bd
000002b0: c8b3 1dbd 242c 3ebd 1a23 e7bc 3062 5bbd
000002c0: 41a0 08bc 951c dcbd f6d4 27bd 0933 83bd
000002d0: c312 4ebd 1b7d 47bd 3eef a8bd 23c1 97bc
000002e0: 6f42 80bd f6c8 e9bc 8a88 96bd dc41 96bc
000002f0: 4edd afbc 6b9c ccbc 7f84 bdbd 6923 76bd
00000300: f42f 27bd c1a6 33bd c792 03bd e14a 81bd
00000310: 1525 b3bb f22e 35bc affc 8dbd 4426 76bd

gc2.weight f4 [200, 200]
-0.09742203 -0.044952232 0.06223686 -0.0418333 -0.060742717 -0.024975633 0.09229933 0.0018829159
0.10862563 -0.02674081 -0.00603059 0.095386475 0.042490073 0.11142596 0.025497915 -0.08673622
0.036440477 -0.01191901 -0.049479257 -0.017937232 0.07334331 0.044660244 -0.01999448 0.048087515
0.13248406 -0.047607746 0.025662564 -0.054364916 -0.07043218 -0.030661788 -0.034789838 -0.05150983
-0.07683365 -0.042625867 -0.043247372 -0.13927543 0.019087486 -0.0016476195 -0.045581833 0.088094786
0.05572737 0.009380335 0.0905785 0.0013619706 0.0060753776 -0.0746472 0.03390296 0.0053742044
0.04006116 0.040490963 -0.084535174 -0.016818877 -0.016387755 -0.058504794 -0.00018575741 0.029031318
0.07518816 0.10962694 0.073788285 0.00912566 -0.027251806 0.07060933 0.002687068 0.019360963
-0.05416942 -0.071203314 0.07985347 0.005733582 -0.056272328 -0.006153908 -0.026982184 0.07863444
-0.15239954 -0.04954742 -0.022431746 0.0503062 -0.062401526 0.048314746 -0.071260735 -0.031587902
0.056591827 -0.05380418 0.05097415 0.049416944 -0.02722508 -0.12107341 0.06901927 0.04200295
0.031334687 0.046477173 -0.04164574 -0.10330732 -0.02113039 0.058427352 0.06834792 -0.012414854
-0.016604103 -0.05550806 -0.014552895 -0.047820438 -0.06991553 0.09767333 0.09243078 0.0021732382
-0.09099509 -0.045032144 -0.06536386 -0.054583106 -0.1132294 -0.13969538 0.022394052 0.1401745
-0.021217246 0.16989283 -0.05448395 -0.024567619 0.0035842243 -0.047470115 0.11792766 0.059983745
0.09665809 0.07249967 -0.03969994 0.07084387 0.047707077 0.033034276 -0.05638964 0.036461323
0.0684517 0.055325653 -0.034481637 -0.014066682 0.060266025 -0.038620114 0.04121131 -0.041857425
0.02122994 0.0060349214 -0.11734475 -0.004554545 0.045123346 0.07915944 0.047747742 -0.05359788
0.12953928 0.06404547 0.13965096 -0.0737539 0.013396516 -0.15356047 -0.022058787 0.016815642
0.0066477507 0.083564594 0.024941726 0.094633006 0.04517188 0.0015075332 -0.0703244 0.058187097
-0.011490388 -0.00074915093 0.059204094 0.0012145636 -0.061882723 0.08473757 -0.09110558 0.048769377
-0.06250022 0.0480839 -0.09029941 -0.0055906437 0.156498 -0.04209198 0.0025562102 -0.021231158
-0.08095984 -0.11068075 -0.016625967 -0.009492042 0.08863 0.021888979 -0.056739464 -0.10332247
0.049951233 0.03903453 0.059487246 0.031343013 -0.21701314 -0.16529006 -0.06467252 0.015243002
0.0818008 0.08979039 0.036357336 0.037257604 0.08903437 -0.025140688 0.010702108 0.04412137
-0.013753995 0.11399125 -0.0070276726 0.08611713 -0.08246706 -0.03066382 -0.05318726 0.0038290592
0.030111358 0.038190268 0.067447715 -0.08878612 -0.0064286473 -0.054079983 -0.088278584 -0.103508905
-0.041004695 -0.105901934 -0.05182057 -0.2136342 0.15710883 0.026070977 0.02192085 -0.087501764
0.112559386 0.014102048 0.018063918 -0.007336699 0.065681934 0.011582905 -0.012083795 0.10626833
-0.022991657 -0.082018256 0.035325333 0.18661922 -0.07513173 -0.028383613 0.062742166 -0.07143429
-0.057284854 -0.086936444 -0.104164146 0.1185185 -0.0848923 -0.00076441857 -0.0863587 0.0939066
0.15193447 0.024813727 -0.06507078 -0.13175504 -0.0038502566 -0.08810567 -0.0929145 0.024517836
00000000: 3485 c7bd d51f 38bd 14ec 7e3d 6559 2bbd
00000010: 5bcd 78bd b399 ccbc 6e07 bd3d 2ccc f63a
00000020: 1d77 de3d 8b0f dbbc 419c c5bb fc59 c33d
00000030: 120a 2e3d 4b33 e43d 01e1 d03c c2a2 b1bd
00000040: 9c42 153d f447 43bc c3aa 4abd 1af1 92bc
00000050: 0435 963d a9ed 363d 77cb a3bc 6af7 443d
00000060: e7a9 073e 5700 43bd 4c3a d23c bfad 5ebd
00000070: bf3e 90bd 6e2e fbbc ca7f 0ebd f9fb 52bd
00000080: f65a 9dbd 7698 2ebd 2824 31bd 389e 0ebe
00000090: 5c5d 9c3c f0f4 d7ba 04b4 3abd 0a6b b43d
000000a0: 6242 643d faaf 193c 3881 b93d 2684 b23a
000000b0: f613 c73b a2e0 98bd d5dd 0a3d 181a b03b
000000c0: 2c17 243d dad9 253d c720 adbd bec7 89bc
000000d0: 9d3f 86bc b9a2 6fbd e0c7 42b9 16d3 ed3c
000000e0: 40fc 993d 1784 e03d 501e 973d cb83 153c
000000f0: 2e3f dfbc a09b 903d 8519 303b e29a 9e3c
00000100: c1e0 5dbd 0bd3 91bd 378a a33d c6e0 bb3b
00000110: d07d 66bd b9a6 c9bb be09 ddbc 180b a13d
00000120: a00e 1cbe 3cf2 4abd c8c2 b7bc e00d 4e3d
00000130: be98 7fbd afe5 453d 26f1 91bd 5162 01bd
00000140: d5cc 673d c661 5cbd 45ca 503d 6c69 4a3d
00000150: 2207 dfbc 56f5 f7bd fa59 8d3d 490b 2c3d
00000160: cd58 003d d95e 3e3d b994 2abd ca92 d3bd
00000170: a419 adbc 8551 6f3d fff9 8b3d ac67 4bbc
00000180: 5405 88bc 6b5c 63bd 446f 6ebc 5ddf 43bd
00000190: e02f 8fbd f408 c83d 594c bd3d e36c 0e3b
000001a0: a25b babd a073 38bd 7ddd 85bd 8992 5fbd
000001b0: d1e4 e7bd 4e0c 0fbe bb73 b73c e789 0f3e
000001c0: cacf adbc 63f8 2d3e 902a 5fbd 0842 c9bc
000001d0: 4ee5 6a3b 0670 42bd 0f84 f13d 84b1 753d
000001e0: adf4 c53d b57a 943d 679c 22bd 9716 913d
000001f0: 7f68 433d f34e 073d d3f8 66bd 7858 153d
00000200: 6830 8c3d 279d 623d 9e3c 0dbd f177 66bc
00000210: 82d9 763d 2030 1ebd 31cd 283d b172 2bbd
00000220: 69ea ad3c 97c0 c53b 7252 f0bd 4b3e 95bb
00000230: 42d3 383d 581e a23d 2393 433d 7389 5bbd
00000240: f2a5 043e 452a 833d a900 0f3e 490c 97bd
00000250: 107d 5b3c f53e 1dbe a1b4 b4bc f5c0 893c
00000260: 60d5 d93b ea23 ab3d 9752 cc3c f3ce c13d
00000270: 2606 393d 6c98 c53a 3d06 90bd 9855 6e3d
00000280: 2e42 3cbc ab62 44ba fe7f 723d fe31 9f3a
00000290: bd78 7dbd e48a ad3d 9095 babd 66c2 473d
000002a0: 1e00 80bd a0f3 443d e6ee b8bd b831 b7bb
000002b0: 0341 203e a468 2cbd 1786 273b f7ec adbc
000002c0: 46ce a5bd 97ac e2bd 2e33 88bc 8284 1bbc
000002d0: a583 b53d 8450 b33c a467 68bd bb9a d3bd
000002e0: aa99 4c3d ace2 1f3d e6a8 733d 8861 003d
000002f0: b138 5ebe cc41 29be 0773 84bd c9bd 793c
00000300: 2e87 a73d 06e4 b73d 6eeb 143d 6e9b 183d
00000310: a757 b63d d8f3 cdbc e557 2f3c 9cb8 343d
00000320: 7058 61bc 3f74 e93d 6448 e6bb 2e5e b03d
00000330: 7de4 a8bd b132 fbbc e2da 59bd f4f0 7a3b
00000340: 18ac f63c 666d 1c3d 0722 8a3d 7fd5 b5bd
00000350: 67a7 d2bb f982 5dbd 67cb b4bd 7afc d3bd
00000360: 8af4 27bd 1de3 d8bd ce41 54bd ecc2 5abe
00000370: 23e1 203e cd92 d53c 5b93 b33c 2034 b3bd
00000380: 8985 e63d 470c 673c c8fa 933c b168 f0bb
00000390: 4084 863d 3ac6 3d3c 1cfb 45bc 36a3 d93d
000003a0: 0059 bcbc 30f9 a7bd 4cb1 103d 1c19 3f3e
000003b0: aade 99bd c084 e8bc f77e 803d 244c 92bd
000003c0: 86a3 6abd bc0b b2bd 0354 d5bd d4b9 f23d
000003d0: 04dc adbd 4363 48ba d5dc b0bd 1a52 c03d
000003e0: b694 1b3e 2846 cb3c d443 85bd cbea 06be
000003f0: 9654 7cbb bf70 b4bd f549 bebd a1d9 c83c

gc2.bias f4 [200]
0.0014399755 0.0005832701 0.0015761517 -0.011324125 -0.025589297 0.011226993 -0.02275544 0.04511775
0.016600708 -0.010034166 -0.010614416 0.016535817 -0.0056612035 -0.005028721 -0.0010284702 0.03171317
-0.033715338 -0.0082156155 -0.025234492 0.0065806787 0.009756548 -0.019604575 0.00899771 0.0004943162
0.0062489463 -0.020065019 -0.006759262 0.036650203 -0.0012359642 0.0022909858 0.015928298 -0.003467619
-0.019470578 0.012159689 -0.009637617 -0.027317807 -0.013954159 0.0014737565 -0.022464601 0.0014893699
0.01653029 -0.026351841 0.01631718 -0.04724101 0.016530193 -0.0091163935 0.020253677 0.001129448
-0.0072238706 0.028951233 -0.009718978 0.019055793 0.022129672 0.029740693 -0.0033874437 0.027471675
-0.0005035873 -0.0070434324 -0.034249257 0.019894946 0.008173133 0.0027406323 0.024593914 0.027201975
-0.016892258 0.023158334 6.6839326e-05 0.0048796805 0.019227622 -0.0009077401 -0.0013498287 0.016149685
-0.0037248437 0.02554222 -0.019542241 0.016317261 0.011186882 0.012709603 -0.01692711 3.6692803e-05
0.0042041573 0.004022095 0.004620536 -0.0062676594 0.017292066 0.03472471 0.0023852543 -0.027114486
-0.0062385206 0.038061775 0.027028898 0.007774533 0.024085699 0.01930359 -0.0071725347 0.026556343
0.005977022 -0.0063286372 -0.0023013428 0.0057544657 0.02434484 -0.00045004277 0.014060611 0.023131486
0.017989213 -0.008107623 0.042679507 -0.0070854137 0.032117076 0.03002226 0.020302743 0.026363397
-0.009190723 -0.020410616 0.045262646 -0.007600491 -0.013177217 0.010622068 0.0007160534 0.014662992
-0.02346016 -0.013737253 0.021622917 -0.017751047 0.032160755 0.0032371667 -0.0140428655 -0.0005690381
0.037697814 -0.0006903515 0.010872735 0.003185315 0.004331135 -0.002833177 -0.009903956 0.012498357
-0.011683263 -0.014588657 0.013938768 -0.026807489 -0.014132453 0.021776505 0.0083975345 0.0050493814
-0.011330745 0.0023859325 0.0002381938 -0.020595161 -0.016009131 -0.021578839 -0.004842907 0.009105201
0.009517545 -0.008910959 0.019681899 -0.008692637 -0.0038456721 0.019475214 0.004549342 -0.031311493
0.0045320853 0.0027382853 -0.008930533 0.010288413 0.028499363 0.019961085 0.010099175 -0.008773233
-0.015539444 -0.041350555 0.024286745 -0.0018511891 0.004117527 0.03151827 -0.03007755 -0.036652714
0.014987795 0.016964288 0.010685151 -0.0034395617 -0.0052680043 -0.038400877 0.028374724 0.005152841
0.012667025 0.00848049 -0.021019509 0.012017501 -0.01366923 0.013299672 -0.018951785 -0.013497378
0.0055640372 0.008716747 0.0015937492 0.009520615 -0.021067366 -0.030822083 -0.00083343947 0.013381153
00000000: 8fbd bc3a 98e6 183a e096 ce3a d388 39bc
00000010: a5a0 d1bc 6cf1 373c 9e69 babc 64cd 383d
00000020: 35fe 873c 5866 24bc 16e8 2dbc 1f76 873c
00000030: 9e81 b9bb f8c7 a4bb bccd 86ba abe5 013d
00000040: 1819 0abd ca9a 06bc 91b8 cebc bca2 d73b
00000050: eed9 1f3c c699 a0bc 226b 133c 0095 013a
00000060: f6c3 cc3b 655f a4bc cd7c ddbb 861e 163d
00000070: 1400 a2ba 5d24 163b 107c 823c fe40 63bb
00000080: c380 9fbc 6f39 473c 18e7 1dbc 98c9 dfbc
00000090: fc9f 64bc 102b c13a af07 b8bc f636 c33a
000000a0: 886a 873c d1df d7bc 9bab 853c ca7f 41bd
000000b0: 546a 873c ed5c 15bc 0aeb a53c fc09 943a
000000c0: 38b6 ecbb 232b ed3c 593c 1fbc e51a 9c3c
000000d0: 4949 b53c c1a2 f33c e0ff 5dbb 470c e13c
000000e0: 2c03 04ba 98cc e6bb f348 0cbd bafa a23c
000000f0: 9be8 053c 2e9c 333b 2d79 c93c add6 de3c
00000100: a261 8abc 8cb6 bd3c 172c 8c38 bae5 9f3b
00000110: 3f83 9d3c 68f5 6dba bcec b0ba 584c 843c
00000120: 821c 74bb eb3d d13c 0d17 a0bc c7ab 853c
00000130: 2f49 373c f03b 503c b9aa 8abc 99e6 1938
00000140: 07c3 893b c7cb 833b de67 973b f060 cdbb
00000150: 17a8 8d3c 7f3b 0e3d ed51 1c3b 331f debc
00000160: 816c ccbb aae6 1b3d b56b dd3c 82c1 fe3b
00000170: 5f4f c53c 9022 9e3c 9507 ebbb b08c d93c
00000180: e5da c33b 7560 cfbb 20d2 16bb f58f bc3b
00000190: d46e c73c b8f3 ebb9 7a5e 663c 3e7e bd3c
000001a0: 1d5e 933c d6d5 04bc b5d0 2e3d c22c e8bb
000001b0: 328d 033d 3ef1 f53c f051 a63c 0df8 d73c
000001c0: b094 16bc 2a34 a7bc 5365 393d 8a0d f9bb
000001d0: 41e5 57bc 2f08 2e3c 88b5 3b3a 0c3d 703c
000001e0: 852f c0bc 3712 61bc 8b22 b13c a56a 91bc
000001f0: ffba 033d a526 543b 0c14 66bc 802b 15ba
00000200: 0669 1a3d b4f8 34ba 8e23 323c b8c0 503b
00000210: 32ec 8d3b d3ac 39bb 3444 22bc e9c5 4c3c
00000220: 286b 3fbc 4305 6fbc 6e5f 643c 619b dbbc
00000230: ce8b 67bc a464 b23c d095 093c 4875 a53b
00000240: 97a4 39bc 4e5d 1c3b a9c3 7939 2fb7 a8bc
00000250: 9525 83bc 1bc6 b0bc 40b1 9ebb fb2d 153c
00000260: 7aef 1b3c 45ff 11bc ef3b a13c 906b 0ebc
00000270: ac07 7cbb 7c8a 9f3c a612 953b 7b40 00bd
00000280: e381 943b ce74 333b 5f51 12bc bb90 283c
00000290: 7f77 e93c 6e85 a33c 0377 253c 9bbd 0fbc
000002a0: 2799 7ebc 335f 29bd fff4 c63c 99a3 f2ba
000002b0: 52ec 863b 4d19 013d 3265 f6bc 2821 16bd
000002c0: 5e8f 753c b1f8 8a3c c610 2f3c 456a 61bb
000002d0: 399f acbb 3d4a 1dbd 1c72 e83c 2ad9 a83b
000002e0: 5b89 4f3c c1f1 0a3c 1b31 acbc 0de5 443c
000002f0: e8f4 5fbc dee6 593c c640 9bbc 1b24 5dbc
00000300: 8752 b63b b0d0 0e3c 59e5 d03a 5bfc 1b3c
00000310: 7895 acbc 987e fcbc 2d7b 5aba a03c 5b3c

gc3.weight f4 [200, 100]
0.11983139 -0.019482657 -0.00067223026 0.016544577 0.05155994 -0.21297966 0.1056959 0.017283944
0.117364116 0.11390603 0.028736703 0.012011359 0.027967565 -0.0310577 -0.06719427 -0.03966269
-0.13916555 0.016560528 0.060347714 0.13435774 0.02567377 0.07495791 -0.04874674 0.12572117
-0.005359105 -0.011419575 0.030572837 0.056032326 0.21164647 0.060958747 0.07592958 0.014932883
-0.11818389 0.14608279 0.22063443 0.023936851 0.03657204 -0.04677719 0.1926159 0.09618634
0.014390077 -0.2313935 -0.04636786 0.04292549 -0.014809511 -0.025241032 0.010092972 0.08171439
0.010955546 0.010273206 -0.0941832 0.0616866 0.080446176 -0.20620358 -0.00021139465 0.019708306
-0.031037323 0.053261876 0.22323917 -0.13863812 0.024840957 -0.1095593 0.02871719 -0.07323854
-0.011107777 -0.0659614 -0.0012076014 0.056988735 0.031717747 0.05303604 0.04851088 -0.080752164
0.1205788 -0.044264387 0.043994512 0.074078165 0.059343524 -0.025710085 -0.08504115 -0.19456738
0.13102499 -0.0623917 -0.12736078 -0.07809563 -0.016219903 -0.044523735 0.012693256 0.09167937
0.050553255 0.15071246 0.045841873 0.0552428 0.005239851 0.011866258 -0.0105769755 -0.056062125
0.04652934 -0.12256117 -0.065374725 -0.10942835 0.0022183903 0.09948071 -0.11641833 0.14933155
0.14253204 0.08356456 0.1359781 0.036768265 -0.05969515 -0.085612915 -0.16060928 -0.03902609
0.12602782 0.014550312 -0.1696716 0.0018598603 0.1033729 0.003903864 -0.16650908 0.06844986
-0.087698296 -0.17264405 0.1179395 -0.0367713 0.16641182 0.102616765 -0.0029781596 -0.07480355
0.1732133 -0.10194539 -0.028795589 0.18273178 0.062758304 -0.06626347 0.03077192 0.13276401
-0.044306945 0.101161376 -0.05438195 -0.06037596 0.053780157 0.13352834 -0.0385657 -0.020822244
0.22844003 -0.17356211 -0.105722986 -0.00012763817 0.050102882 0.1150696 -0.07525492 -0.053918775
0.09048982 -0.019176185 -0.19134666 -0.031929143 0.04673833 0.006365124 0.043532323 -0.14056164
-0.16384971 -0.063064285 0.06304348 -0.099610895 0.10231054 -0.08061094 0.042285483 -0.09298139
0.0074542495 -0.016318118 -0.2162595 -0.004678593 -0.08693734 -0.022406057 0.020193256 0.030010434
-0.04682802 -0.10079325 -0.0067609684 0.031274617 -0.11199639 0.0087767 0.080807894 -0.08734903
-0.13362715 0.023400294 0.006595315 -0.004620651 -0.20589831 -0.20196027 -0.0025591946 0.16755599
-0.23836121 -0.19047551 0.001989719 0.11217254 0.011991857 0.024656318 0.012495717 -0.04899618
-0.015008305 -0.021177754 -0.09392101 -0.03647252 0.11198118 -0.017697318 0.0143366605 0.06836353
-0.04807873 -0.06880004 -0.06312367 -0.024538998 -0.12476161 0.027512576 0.14128885 -0.027166173
0.11778557 0.060268518 0.020136736 -0.060047466 -0.061518557 -0.011947418 -0.0906883 0.093700044
-0.014016323 -0.024120387 0.13237627 0.0044431305 0.031990867 -0.19345833 0.009530033 0.05483987
0.038721263 -0.10721118 0.13170429 0.08173377 0.059247315 0.043832153 -0.042220745 -0.07045443
-0.12132687 0.042167637 0.10051357 -0.053825796 -0.012144204 -0.018528538 0.10378973 -0.058872476
0.0036266616 -0.0014881319 -0.051433235 -0.014573517 0.07018241 -0.16357292 0.21241046 0.09838089
00000000: 296a f53d 189a 9fbc 9c38 30ba 7e88 873c
00000010: 8430 533d 5717 5abe 1877 d83d 0f97 8d3c
00000020: 995c f03d 9147 e93d 3c69 eb3c 4bcb 443c
00000030: 3c1c e53c b86c febc 269d 89bd 5875 22bd
00000040: 6a81 0ebe f2a9 873c 2a2f 773d 1395 093e
00000050: cc51 d23c 8883 993d a9aa 47bd 0dbd 003e
00000060: 6e9b afbb 2b19 3bbc e373 fa3c 2782 653d
00000070: dab9 583e e1af 793d f880 9b3d 0da9 743c
00000080: 650a f2bd ba96 153e feed 613e 3717 c43c
00000090: 90cc 153d 7099 3fbd 1a3d 453e 58fd c43d
000000a0: 5cc4 6b3c 6bf2 6cbe 3aec 3dbd a3d2 2f3d
000000b0: 97a3 72bc 48c6 cebc fe5c 253c e059 a73d
000000c0: e47e 333c f350 283c 1fe3 c0bd 17ab 7c3d
000000d0: f7c0 a43d 0827 53be d2a9 5db9 5073 a13c
000000e0: fc41 febc 2029 5a3d cf98 643e 27f7 0dbe
000000f0: 437f cb3c a060 e0bd 5040 eb3c 16fe 95bd
00000100: 65fd 35bc c516 87bd 6148 9eba 056d 693d
00000110: 78ea 013d 523c 593d 58b3 463d 6461 a5bd
00000120: 05f2 f63d 934e 35bd 9733 343d 4bb6 973d
00000130: 3212 733d f59d d2bc 0e2a aebd ac3c 47be
00000140: 6a2b 063e 708e 7fbd dd6a 02be 9af0 9fbd
00000150: 9adf 84bc 855e 36bd 60f7 4f3c 65c2 bb3d
00000160: ee10 4f3d 5e54 1a3e b0c4 3b3d 4646 623d
00000170: 0eb3 ab3b b26a 423c 0d4b 2dbc 66a1 65bd
00000180: 8d95 3e3d 5a01 fbbd 2fe3 85bd f91b e0bd
00000190: 6a62 113b 8bbc cb3d bc6c eebd 5fea 183e
000001a0: ebf3 113e e523 ab3d d83d 0b3e 529a 163d
000001b0: e782 74bd d355 afbd c276 24be d2d9 1fbd
000001c0: 700d 013e 6f64 6e3c 64be 2dbe 8ec6 f33a
000001d0: 2cb5 d33d f8d7 7f3b 5b81 2abe 712f 8c3d
000001e0: 2a9b b3bd 9ac9 30be 448a f13d 819d 16bd
000001f0: dc67 2a3e bd28 d23d 3a2d 43bb 9b32 99bd
00000200: d45e 313e bfc8 d0bd bae4 ebbc 0a1e 3b3e
00000210: 6d87 803d 24b5 87bd 6515 fc3c 4af3 073e
00000220: 337b 35bd b22d cf3d 9cbf 5ebd c84c 77bd
00000230: 9548 5c3d a7bb 083e 11f7 1dbd 6993 aabc
00000240: 2fec 693e 44ba 31be 4b85 d8bd 9cd6 05b9
00000250: ae38 4d3d 9ca9 eb3d 401f 9abd efd9 5cbd
00000260: ba52 b93d 6017 9dbc 61f0 43be 22c8 02bd
00000270: b170 3f3d 8892 d03b f34e 323d 64ef 0fbe
00000280: 38c8 27be d927 81bd f11c 813d cc00 ccbd
00000290: 3088 d13d 5917 a5bd 8b33 2d3d 076d bebd
000002a0: c742 f43b 93ad 85bc 2173 5dbe e24e 99bb
000002b0: 340c b2bd e88c b7bc 546c a53c 71d8 f53c
000002c0: bdce 3fbd b16c cebd 1d8b ddbb d019 003d
000002d0: 5d5e e5bd 26cc 0f3c 9c7e a53d 0ce4 b2bd
000002e0: 8ed5 08be f9b1 bf3c 831d d83b d468 97bb
000002f0: 02d7 52be acce 4ebe 29b8 27bb cc93 2b3e
00000300: f614 74be 030c 43be f265 023b b7ba e53d
00000310: 7e79 443c 0cfc c93c d6ba 4c3c 38b0 48bd
00000320: 65e5 75bc f87c adbc a959 c0bd 3664 15bd
00000330: 6456 e53d f7f9 90bc 50e4 6a3c 2e02 8c3d
00000340: 34ee 44bd 09e7 8cbd fc46 81bd 0206 c9bc
00000350: 0483 ffbd 0e62 e13c 06ae 103e 988b debc
00000360: 9039 f13d 1fdc 763d ccf5 a43c 55f4 75bd
00000370: e2fa 7bbd 1abf 43bc caba b9bd cfe5 bf3d
00000380: b8a4 65bc 1e98 c5bc a58d 073e ae97 913b
00000390: db08 033d f119 46be db23 1c3c c69f 603d
000003a0: 309a 1e3d 8991 dbbd 7ddd 063e 0964 a73d
000003b0: 50ad 723d 5889 333d a9ef 2cbd 6a4a 90bd
000003c0: 397a f8bd f9b7 2c3d 0fda cd3d 7078 5cbd
000003d0: 7cf8 46bc 29c9 97bc b68f d43d 4424 71bd
000003e0: 49ad 6d3b 6c0d c3ba a8ab 52bd c3c5 6ebc
000003f0: ccbb 8f3d a97f 27be 2182 593e ec7b c93d

gc3.bias f4 [100]
-0.002216911 0.007478337 0.0012335738 -0.009735802 -0.007164958 -6.995369e-05 -0.0004716867 0.010567392
0.0036697192 0.002682084 0.00819495 0.000726002 -0.012503448 -0.0012843668 0.001951204 -0.018017678
-0.0017365217 -0.0012308959 0.0054245135 -0.00049947965 0.0101409685 -0.007959692 -0.01114766 -0.0054338467
-0.011278222 -0.015896339 -0.0062923003 0.01739947 0.0012216222 -0.010437769 0.0042025717 -0.01740566
0.0041263774 -0.009355983 -0.011868892 -0.013312414 -0.017389456 -0.01318548 -0.00396395 0.010637085
-0.007056845 -0.0029368098 -0.022556378 -0.009639614 -0.0042958246 -0.013016796 0.0080505395 0.008517719
-0.00015730366 -0.00042108516 0.0024177749 -0.010662072 -0.004737317 -0.007680392 0.032926064 -0.007021843
-0.020784322 -0.0037144423 -0.035569906 -0.012185284 -0.023842227 0.004769714 -0.0028455672 0.0009191231
-0.0063948035 -0.013287668 0.009921293 -0.0030273374 -0.013712266 -0.014614749 -0.012016476 -0.0050875894
0.014523033 0.0091903 -0.00334119 -0.0057996414 0.017310893 -0.004443778 -0.015888644 0.0024148126
-0.01600212 -0.0022806146 -0.0032661655 0.004588027 -0.018972533 -0.013710182 -0.0060077608 -0.0025662826
-0.0020037568 0.0008501931 -0.0037228393 -0.0049373102 -0.012076477 0.0083477795 0.004557664 -0.016722873
-0.007331042 -0.005968615 0.0071697365 -0.034061883
00000000: 9849 11bb d60c f53b deaf a13a ea82 1fbc
00000010: 06c8 eabb 1ab4 92b8 b84c f7b9 db22 2d3c
00000020: ac7f 703b e7c5 2f3b 1d44 063c 2b51 3e3a
00000030: 43db 4cbc 3358 a8ba 8bbf ff3a cf99 93bc
00000040: 009c e3ba 0356 a1ba 1ec0 b13b 83ef 02ba
00000050: 4e26 263c 5e69 02bc ada4 36bc 690e b2bb
00000060: 4bc8 38bc 0a39 82bc a42f cebb 5589 8e3c
00000070: d71e a03a 2d03 2bbc bab5 893b 5196 8ebc
00000080: 9036 873b d649 19bc be75 42bc 501c 5abc
00000090: 5574 8ebc e907 58bc 06e4 81bb 2b47 2e3c
000000a0: 1b3d e7bb 7e77 40bb 27c8 b8bc 79ef 1dbc
000000b0: fdc3 8cbb 6644 55bc 69e6 033c e78d 0b3c
000000c0: e1f1 24b9 18c5 dcb9 8873 1e3b f9af 2ebc
000000d0: 7f3b 9bbb ccab fbbb 7bdd 063d 7d17 e6bb
000000e0: e243 aabc 006e 73bb c0b1 11bd c9a4 47bc
000000f0: c650 c3bc 434b 9c3b b27c 3abb 4ff1 703a
00000100: 808b d1bb 85b4 59bc eb8c 223c 4b66 46bb
00000110: 6aa9 60bc b372 6fbc c1e0 44bc cbb5 a6bb
00000120: 04f2 6d3c e992 163c def7 5abb eb0a bebb
00000130: 93cf 8d3c 1d9d 91bb e728 82bc d541 1e3b
00000140: e116 83bc 5d76 15bb 2a0d 56bb 2957 963b
00000150: 496c 9bbc aca0 60bc c0dc c4bb 142f 28bb
00000160: 7651 03bb 7edf 5e3a e1fa 73bb 29c9 a1bb
00000170: 6adc 45bc 20c5 083c 7558 953b 68fe 88bc
00000180: 3d39 f0bb 5f94 c3bb 1cf0 ea3b 7984 0bbd
