best_models/MOGONET/fold_3/C.pth (torch, 1887 bytes, 4 tensors)

model.0.weight f4 [8, 8]
0	0x3eb28663	0.34868154
1	0xbe377ca9	-0.17918648
2	0xbeee98d0	-0.46600962
3	0x3de2d810	0.11076367
4	0xbec7766d	-0.3895754
5	0xbeb4721a	-0.35243303
6	0x3efececf	0.49767157
7	0xbdffd253	-0.12491288
8	0xbf5e5c00	-0.8685913
9	0x3bcc8d7e	0.006242453
10	0xbeb25285	-0.34828582
11	0x3f679b12	0.90470994
12	0xbf84287c	-1.0324855
13	0x3f1d1b07	0.61369365
14	0x3eb0957d	0.3448905
15	0x3f41c6c7	0.75693935
16	0x3f05d946	0.5228466
17	0x3f012905	0.50453216
18	0x3ea70e02	0.32627875
19	0xbf4576b5	-0.7713426
20	0x3f6f347a	0.9343945
21	0xbe25655f	-0.16151951
22	0xbd39d645	-0.04537036
23	0xbf34ffe8	-0.7070298
24	0x3f4a7064	0.79077744
25	0x3dcd1e3c	0.100155324
26	0x3f415883	0.75525683
27	0xbf3b2dfd	-0.7311705
28	0x3f01240c	0.5044563
29	0xbed0d1bb	-0.40785012
30	0xbf0c3fcd	-0.5478485
31	0xbe69436c	-0.22779626
32	0x3f280958	0.6563926
33	0x3eda1536	0.42594308
34	0x3f373a56	0.7157339
35	0xbf911ac4	-1.1336293
36	0x3f835245	1.0259482
37	0xbf179287	-0.5920796
38	0xbf474e24	-0.7785361
39	0xbf0edc86	-0.5580524
40	0xbf136a4a	-0.5758406
41	0xbf01b135	-0.5066102
42	0xbfb3222b	-1.3994802
43	0x3eeba34b	0.4602302
44	0xbf057f31	-0.52147204
45	0x3f3db749	0.74107796
46	0x3ec993ca	0.39370567
47	0x3fca9963	1.582806
48	0xbed4d3d3	-0.4156786
49	0xbe8be94d	-0.27326432
50	0xbf5e5617	-0.8685011
51	0x3f0d91d1	0.55300623
52	0xbea1b674	-0.31584513
53	0x3ede49f4	0.43415797
54	0x3ddeb490	0.10874283
55	0x3f84f670	1.0387707
56	0x3deee77c	0.11665246
57	0x3e5a6d9e	0.21330878
58	0xbe240a26	-0.16019496
59	0x3f259169	0.64675003
60	0x3cdd6d54	0.02702967
61	0x3e1f2a95	0.15543588
62	0x3f05f9f0	0.523345
63	0xbea001bb	-0.3125132

model.0.bias f4 [8]
0	0xbe0ecf97	-0.13946377
1	0x3f25a777	0.64708656
2	0x3ecb96d5	0.39763513
3	0x3eae31f7	0.34022495
4	0x3f0ed50e	0.55793846
5	0x3f137822	0.57605183
6	0x3ed4eb9f	0.41586015
7	0xbe14d900	-0.14535904

model.2.weight f4 [2, 8]
0	0x3e8243bd	0.25442305
1	0xbf988858	-1.1916609
2	0x3f8c9f0f	1.0986041
3	0x3fad5437	1.3541325
4	0x3f12754b	0.57210225
5	0xbe42fa7d	-0.19040866
6	0xbf387cd4	-0.7206547
7	0xbebd6727	-0.36992761
8	0x3e476a59	0.19474162
9	0x3f76e550	0.96443653
10	0xbf4dc300	-0.8037567
11	0xbf60c6bc	-0.87803245
12	0xbfcc948f	-1.5982836
13	0x3f6254c3	0.88410586
14	0x3f350876	0.70716035
15	0xbd1abc0b	-0.037776988

model.2.bias f4 [2]
0	0x3e115bb7	0.14195143
1	0xbe115c07	-0.14195262
