best_models/MOGONET/fold_3/C2.pth (torch, 1895 bytes, 2 tensors)

clf.0.weight f4 [2, 100]
00000000: 0283 28be fd04 443e 881f acbe 3e85 c73d
00000010: 6ca4 4bbe 9ef2 d23d ed62 453a e1a5 193e
00000020: 6780 0e3e b6a7 4c3e 5244 d53e 1fc8 673e
00000030: 32c0 e73d 4941 10be 0782 983d b40d d83d
00000040: 4397 62bd dfa4 eebd d8b2 6c3e f15a 29be
00000050: fe1d 89bd 5d7c de3c 4197 c8be aa53 bd3c
00000060: 2372 73bc 0883 313e 1c68 2b3e eecd 463c
00000070: 36d6 dcbb 239f 753d 63bf 1c3e e60c 8c3e
00000080: a420 1b3e 9cbe 3d3d eb8d 09be 21d7 d83d
00000090: d378 ed3d f0d0 613e 5816 efbd cc46 233e
000000a0: 79c0 81be 711b e83d 73d6 ffbd e656 14be
000000b0: 0d52 5f3e f5fd 50be d86f 82bd 2e1c debc
000000c0: 9c0a 4a3e 8a05 36bd 7008 1a3c 6ea7 0ebc
000000d0: 7a75 a8bb 1089 44be 95e0 8a3e 9ec8 c9bd
000000e0: f9f9 f6bd 6d45 f73d 6c00 76bd b478 173e
000000f0: 2651 3d3e d7db 7cbc 327c f1bd 877c 29bd
00000100: 8b67 01bd 3c9f ff3d 9451 3b3d 860a e0bc
00000110: 4f86 eebd 2666 64be bbe1 093e 8861 93bd
00000120: ffa4 6e3e bce5 32be a48f 2d3e c3b9 82bd
00000130: 3052 cabd 0b62 61bc 1779 863d 5b07 5e3e
00000140: 42cd 4dbe 2ea0 803d 30d8 983d 8100 e9bc
00000150: c65c 28be a488 b73e 7083 533e 9acc a53e
00000160: 3455 333e 4815 063e 9189 b9bc fc9e 1abd
00000170: b1a8 e03c 3503 2dbe bbd1 8a3d 7327 a6be
00000180: 4f4d 9a3d c7c8 e03d 2b7e 2ebe b321 c73d
00000190: 244c 823e aef0 00be 6a41 f43d 5019 93bd
000001a0: b66f 813e ea49 f63d 337f f9bc 334e 83be
000001b0: 45f0 04bf d19f 8dbd d758 4c3d 82c7 c13e
000001c0: c695 83be 6cba 9639 2e87 91be 1a59 ecbd
000001d0: 929e c33e be0f 613e 39b3 7a3d d55e ed3d
000001e0: 875c 3a3e 8008 223c 2448 46be 0690 4cbe
000001f0: a343 9abd a961 89be 69bb 35be 9c3a 14be
00000200: c2dc 813e 4422 fe3c 08cd 933c 0a96 433d
00000210: ee4f ea3c 2802 f03d 13c4 df3d 3352 3dbe
00000220: eef8 8ebc ef35 493e f6c3 223e 724d 6f3d
00000230: 3371 11bd c692 0bbd edf6 5dbd 3cf2 8bbd
00000240: 98ce aabe 7c1b bc3e 3680 50be f1ed 43bd
00000250: 9613 80bd c494 9a3d e772 3fbd 6a5a a0be
00000260: e992 a53c 6233 0abe 5a87 3bbe ecea 583d
00000270: a7ff b6bc 6946 953e a88a 5cbe 0608 90be
00000280: e68b dbbc 0c70 cc3d 14a4 fcbc 7781 c2bb
00000290: b61b e8bd e45d f7bc da18 213d f931 693e
000002a0: 13e6 98be a845 a23d aea5 0fbd 608d 723d
000002b0: 4388 85bc 6d64 21be 1597 83be dce6 f13d
000002c0: 6537 013e 5c29 933e f8d3 58be dd22 f83c
000002d0: 7bc4 97bb 4139 1ebc 22f2 55be 29b0 42be
000002e0: 16a0 a13e fdab 80bd 0786 c1bd e71a c7be
000002f0: 4b2a 48be 3b36 593c 63aa 90bd fcfb 60be
00000300: eb2b 0ebe 7036 92bd 9ecd ce3d 6be1 663e
00000310: bfff c3bc d957 d4be c655 d0bd 7d18 fcbd
-0.16456226 0.19142528 -0.33617806 0.09742211 -0.1988694 0.10300182 0.00075296947 0.15004684
0.13916169 0.19985852 0.41653687 0.22634934 0.11315955 -0.14087404 0.07446676 0.10549489
-0.055320036 -0.116525404 0.23115098 -0.16538598 -0.06695174 0.02715891 -0.39177898 0.023111183
-0.014858755 0.1733514 0.16738933 0.012134058 -0.006739403 0.059966218 0.15307383 0.2735359
0.1514917 0.046324357 -0.13433044 0.105879076 0.11595311 0.2205236 -0.116741836 0.15944976
-0.25342157 0.11333359 -0.12492075 -0.14486274 0.21808644 -0.20409377 -0.06368989 -0.027113046
0.1973061 -0.044438876 0.009401426 -0.008706911 -0.0051409574 -0.1919291 0.27124467 -0.09852718
-0.12059397 0.12073789 -0.060058996 0.14792138 0.18487987 -0.015433273 -0.117912665 -0.041378524
-0.031592887 0.124815434 0.045732096 -0.027348768 -0.11646711 -0.22304592 0.13465016 -0.07196337
0.23305129 -0.17470449 0.16949326 -0.063830875 -0.09878957 -0.013756285 0.06566065 0.21682493
-0.20097831 0.06280552 0.074631095 -0.028442623 -0.1644164 0.35846436 0.20655608 0.3238266
0.17512971 0.13094056 -0.022648605 -0.037749276 0.027424188 -0.16895755 0.06778284 -0.32451972
0.07534277 0.10975795 -0.17040317 0.097232245 0.25448716 -0.12591812 0.11926539 -0.07182562
0.2528054 0.12025817 -0.030456161 -0.256456 -0.5192912 -0.06915248 0.04988941 0.37847525
-0.25700206 0.00028749125 -0.28423446 -0.11540432 0.38206917 0.21978661 0.061206076 0.115903534
0.18199359 0.009889722 -0.19363457 -0.19976816 -0.07532432 -0.2683232 -0.17747273 -0.14475483
0.25363737 0.031022198 0.018042102 0.04775051 0.028602567 0.11719161 0.1092607 -0.18488388
-0.017452683 0.1964948 0.15895066 0.058423467 -0.035508346 -0.03407552 -0.054190565 -0.06833312
-0.33360744 0.3673972 -0.20361409 -0.04783434 -0.06253736 0.07547906 -0.04674044 -0.3131898
0.020211654 -0.13496163 -0.18313351 0.052958414 -0.022338701 0.2915528 -0.21537268 -0.2813112
-0.026800107 0.09982309 -0.030839957 -0.0059358436 -0.113334104 -0.030196138 0.03933034 0.2277297
-0.29863033 0.07923442 -0.035070114 0.059216857 -0.016300326 -0.15760966 -0.25701204 0.11811611
0.12618788 0.28742492 -0.2117461 0.030290062 -0.0046315766 -0.009657205 -0.20893148 -0.19012512
0.31567448 -0.06282804 -0.09449392 -0.38887712 -0.19547383 0.013257558 -0.07063749 -0.21971124
-0.13883941 -0.071392894 0.10097812 0.22546928 -0.02392566 -0.41473272 -0.1017261 -0.12309358

clf.0.bias f4 [2]
00000000: 7621 90bc d61d 903c
-0.01759408 0.017592352
