best_models/MOGONET/fold_3/C3.pth (torch, 1895 bytes, 2 tensors)

clf.0.weight f4 [2, 100]
00000000: ad1f c23d 2fe0 b23d b5aa 1a3e 4342 ad3c
00000010: ac5a 39be fc32 3d3d d0b9 53bc 6235 0a3e
00000020: 327a d53d 1691 a23d 6084 7fbe 6422 3b3d
00000030: fbe2 93bd 757c 8cbe afb2 823d d321 a53d
00000040: 5226 4d3d ea01 bcbd 9d47 643e 789e 41be
00000050: abfb bebe ae89 363c 030f 1f3d 6f9f 9f3d
00000060: dfed 053e 0ab8 4f3e 55e2 8fbe 01d9 59bd
00000070: 90b0 d9bc 3416 253e 70a8 d5bd e3e8 a1bd
00000080: f85e 86bc ac4f 7fbd 8fbd 073e b598 7a3c
00000090: 380d 663e e2c2 b93d b086 45bc 97cd 89bd
000000a0: 4686 26bd 5b47 bfbd ad7f c63c 34d1 86be
000000b0: 7967 19be 9565 a33d 1006 82bd 9887 12bc
000000c0: 0bed 44be 44f2 123c 75e1 cbbd 9a9e b7bd
000000d0: 0915 dd3c 660a cb3d 8d8e 8b3c bb3a 843c
000000e0: f0fd 933d ed3b f63d 5fa4 033e 85fa 9bbd
000000f0: e7a3 053e cfb6 24be 480b 9b3d efaf 903e
00000100: 0e7b 69be 3aee a7bd 7fea 683d 5cd2 d93d
00000110: 38a8 d23d 354c 953d c07f 633d edbf 893d
00000120: 5e3b cfbc ed13 80bd 2b3c 0b3d 0005 233e
00000130: 8192 7a3e f615 473e 3369 323e 2294 c13d
00000140: 87b5 3b3d 910d 3b3e 15ef a73c 2433 e5bc
00000150: ed8c 423e 467a 1c3e 2a5c 8a3d 2b4e 563c
00000160: 14a6 34bc 1f86 2cbe 1193 7d3e 366a 803d
00000170: d8ab 76be 5444 493e 9405 39be 994a eebd
00000180: 6093 41bd 03f2 f4bd 94e2 3bbe 94c9 0f3e
00000190: 17cc 87bd b805 f2bd adf4 913d 89f4 263e
000001a0: 5ffa 9dbd aac1 e13c 0c2a 003e d882 4e3d
000001b0: 709d 1b3c b9f3 6f3d ada6 d83c ed42 103d
000001c0: cb92 00bd 0bb0 123d b715 d3bd 4bb3 fabd
000001d0: b5b9 9a3d 3687 fc3c 3204 88be d233 033d
000001e0: 0495 04be e5ca b43e 8faa 1abe 92d2 7a3e
000001f0: eb6c f03c 82d9 e0bd fd85 893c c83b 633c
00000200: bf82 803e c6ef 573e db5a 99bb 41be 143e
00000210: 3021 b23e ddd7 f2bd a2cf 20be 6ee2 6e3c
00000220: f895 173e 9f4b ea3d 3190 37bc 1053 8c3d
00000230: 094d debc eccc 06be 4910 91bc afae 0cbd
00000240: c296 1cbd 0520 60bd fd62 7e3e 8df1 a7bd
00000250: 8e1e 4c3d df39 d2bd 0a8c d9bd 577d c83c
00000260: 0313 efbc b177 fc3c 023f 8abe f6d0 743d
00000270: b33d 0c3e 8efe 533d 1ce9 acb9 428b 663e
00000280: 9bc3 0fbe b918 c3be 2582 163e 7d96 e2be
00000290: 845e 36be 3624 15be c3a8 e23d 542e e6bc
000002a0: b549 933d 56d0 3cbd 09ff 4d3e 6e6e 173c
000002b0: c1a7 03be 2a68 37be 6f85 23bd 5d57 413e
000002c0: fea8 b83d eac5 263e d346 f6bd 4754 77be
000002d0: a4ff eabd 25d2 123e 4b22 033d ec8c a2bd
000002e0: 052e 52b9 30c3 20bd 2b93 9f3d 1c8a 19be
000002f0: 3fb3 0a3d a11d 11be dd32 bf3d b121 b0bc
00000300: e65c 8fbd 8b0e 60be 08e9 4e3e f1e0 4abd
00000310: 63e3 3cbd f9b3 933d aafd 803d 8790 dcbd
0.09478698 0.08734166 0.15104182 0.02114976 -0.18100995 0.0461912 -0.012922719 0.13496926
0.104236975 0.07937829 -0.24952841 0.045687094 -0.072210275 -0.27438703 0.063817374 0.08063092
0.050085373 -0.091800526 0.22292943 -0.18908107 -0.37301382 0.011141224 0.038832676 0.077940814
0.13079022 0.20285049 -0.28102365 -0.053185467 -0.02657345 0.16121751 -0.104325175 -0.07905748
-0.016402707 -0.06233184 0.13255905 0.015295197 0.2246598 0.09070374 -0.012056038 -0.06728666
-0.040655397 -0.09339782 0.024230802 -0.26331484 -0.14980878 0.079783596 -0.063488126 -0.008943461
-0.1923105 0.008968893 -0.09955112 -0.08965798 0.02698757 0.09914093 0.017035747 0.016141286
0.07226169 0.12023149 0.12855671 -0.07616142 0.13050805 -0.16085361 0.07570511 0.28259227
-0.22800848 -0.08199735 0.056864258 0.10635826 0.102859914 0.07289926 0.055541754 0.0672606
-0.025296863 -0.062538005 0.033992928 0.15919876 0.2446995 0.19441971 0.17422943 0.09452082
0.045827415 0.18266894 0.020499745 -0.027978487 0.18999071 0.15281019 0.0675586 0.01308016
-0.011025924 -0.16848038 0.24763133 0.06270258 -0.2408899 0.19654971 -0.18068534 -0.11635322
-0.04725969 -0.119602226 -0.18348151 0.1404174 -0.06630724 -0.11817497 0.07126746 0.1630422
-0.0771377 0.027558167 0.1251604 0.05041775 0.009497985 0.05858204 0.026446665 0.035220075
-0.031389993 0.03581242 -0.10306876 -0.12241229 0.07554952 0.030826192 -0.265657 0.03203184
-0.1294747 0.35311046 -0.15104125 0.24494389 0.029348811 -0.10978986 0.016787523 0.013869233
0.2509975 0.2108756 -0.0046800203 0.14525701 0.34790945 -0.11857579 -0.15704206 0.014580352
0.14803302 0.11440205 -0.0112038115 0.068517804 -0.027136343 -0.13164109 -0.01770796 -0.03434628
-0.03822971 -0.054718036 0.24842449 -0.08200369 0.049833827 -0.10264944 -0.106224135 0.02447383
-0.02918387 0.030818792 -0.27001196 0.059769593 0.13695411 0.051756434 -0.00032980077 0.2251406
-0.14039461 -0.381048 0.14698084 -0.44255438 -0.17809492 -0.14564595 0.11067345 -0.028098263
0.07191793 -0.046097122 0.2011682 0.009242637 -0.12856962 -0.17910829 -0.039922174 0.18880983
0.09016608 0.16286436 -0.120252274 -0.24153243 -0.11474541 0.14337976 0.032015126 -0.07937035
-0.00020044304 -0.039248645 0.07791742 -0.14994091 0.03386235 -0.14171459 0.09335873 -0.02150044
-0.07000141 -0.21880548 0.20206082 -0.049530927 -0.04611529 0.072120614 0.062983826 -0.10769754

clf.0.bias f4 [2]
00000000: 7bed 693c 27f4 69bc
0.014277811 -0.014279402
