best_models/MOGONET/fold_3/E1.pth (torch, 392727 bytes, 6 tensors)

gc1.weight f4 [186, 200]
000000 ec 10 2b bd 36 69 06 3e 05 70 9e 3c b4 44 07 3e
       -0.041764185 0.13126072 0.019340524 0.13209802
000010 d8 3e e0 3c d3 33 53 3c 9b ec 52 bd 74 16 55 bd
       0.027373716 0.012890774 -0.051495176 -0.052023366
000020 cc 58 82 3c 23 6e 0a 3c 55 18 16 bd aa 5f 54 3d
       0.015911482 0.00844911 -0.0366443 0.051849045
000030 e4 2d c9 3b b7 81 be 3d de 34 bc 3d b8 22 81 bc
       0.006139504 0.09302085 0.09189771 -0.015763626
000040 93 34 70 bd 27 53 c7 3c 0e fe d4 3d 56 0c 89 bd
       -0.05864389 0.024331642 0.104000196 -0.06691806
000050 91 74 00 bd 94 8c 8b bd 04 cd ca 3c 2b 8a 1a 3c
       -0.031361166 -0.068139225 0.024755962 0.009432356
000060 7a e1 93 3d b5 1f ba 3d 69 ae 8a 3b eb c9 98 3a
       0.072207406 0.09088079 0.004232217 0.0011656856
000070 1f e7 6e bd db 05 1f bd 64 ef 24 bc d9 df c2 bc
       -0.058325883 -0.038823944 -0.010066841 -0.02378838
000080 68 94 95 bc cd 26 8c 3c 76 a2 15 bd 6c 8d a0 3d
       -0.018259242 0.017108345 -0.036531888 0.07839474
000090 1d 14 5f bd 10 9a 06 bc e0 00 94 3d 09 17 94 3b
       -0.05446254 -0.008215442 0.072267294 0.0045193476
0000a0 e2 50 97 bc 89 0c a6 bd 35 8b 5f 3b 94 48 e8 bc
       -0.018471185 -0.0810786 0.0034110073 -0.02835492
0000b0 41 4a 90 3d da 06 1f bc b6 81 1d be 8d f8 eb 3d
       0.07045413 -0.009706223 -0.15381512 0.11522017
0000c0 b3 34 ac 3c 61 37 b0 bd ff be d3 bd 25 ff de bd
       0.021021223 -0.08604313 -0.10339164 -0.10888509
0000d0 24 04 5a bd a3 b0 ee 3a 30 f0 e9 3d d5 a1 ca bd
       -0.053226605 0.0018210601 0.11422765 -0.09894148
0000e0 96 81 81 bd 41 1c 91 bd 67 c9 40 3d 72 9d d0 3d
       -0.06323545 -0.07085467 0.047067072 0.1018628
0000f0 e0 99 90 3c ab e2 39 bd 88 fc dc 39 27 25 9e 3d
       0.017651498 -0.045382183 0.0004214982 0.0772193
000100 3d 9a eb 3d 09 43 68 3c ec 39 ff bd 04 b4 5d bd
       0.11504028 0.014176139 -0.124622196 -0.054126754
000110 51 da ba 3d 27 59 87 3d c5 ef b6 3b 5c 58 2b be
       0.09123672 0.06608801 0.005582782 -0.16732925
000120 93 29 3c 3e aa 04 e9 3c 4b 35 09 bc 28 14 69 3c
       0.18375234 0.028444607 -0.008374522 0.014225997
000130 c3 c6 0e 3d b0 64 cd 3d 9b 19 dc bd bd a5 95 bd
       0.034857523 0.1002897 -0.10747071 -0.07307003
000140 b1 e6 4d 3d 45 a3 ab 3c 1c 46 0a 3d 7b d5 b2 bd
       0.050268833 0.020951876 0.033758268 -0.087321244
000150 02 76 91 3d f2 5e 9f bd cc b5 ae bd 93 ac 09 bd
       0.07102586 -0.07781781 -0.08530769 -0.033611845
000160 db dd 44 be e4 af e5 3d 73 65 e2 3c 73 06 56 bd
       -0.19225256 0.11215189 0.027636265 -0.052252244
000170 f5 d6 ee 3c 4f b5 b6 bc 0e b6 96 3d c1 e1 73 bd
       0.029155234 -0.022303252 0.07358943 -0.059541468
000180 43 ce 63 3c d6 4e 05 be 74 64 8d 3c 19 19 74 bd
       0.013904157 -0.13018355 0.017259814 -0.059594247
000190 c1 d4 30 3d f6 0d ca 3c bf 4d 29 3d af 33 c6 3c
       0.043171648 0.02466486 0.04133391 0.024194567
0001a0 0f 6e 21 bd 07 0d 87 bd d2 80 1e bd 7b 2a dc bc
       -0.0394116 -0.06594282 -0.03869707 -0.026875725
0001b0 be b7 74 3d 0f b0 bb 3c 78 93 01 3e c1 bd 87 bd
       0.059745543 0.0229111 0.12653911 -0.066279896
0001c0 50 fb 3f 3d b3 fc 25 bd 51 ea 19 3c 7e 22 b6 3c
       0.04687053 -0.040524196 0.009394244 0.022233244
0001d0 f2 57 f5 bb 9b 02 05 bd 8a 91 d8 bc 57 ac da b9
       -0.0074872905 -0.032473188 -0.026436586 -0.00041708603
0001e0 77 52 e4 bd 54 61 a4 3d b7 f8 29 3e ef c2 01 be
       -0.111485414 0.08026376 0.16598783 -0.12672018
0001f0 e0 36 44 bd 41 7f d4 3d f5 44 c3 3d c4 14 ab bd
       -0.047903895 0.10375834 0.09534637 -0.0835357
000200 d2 09 11 be f5 dc c5 bd dd 4a f4 3c 15 e6 e9 3c
       -0.14163902 -0.09661285 0.029820854 0.028552094
000210 a0 2c 4e 3d 5e a8 d0 bd 96 11 fc bd 0e 04 a2 3d
       0.050335526 -0.101883635 -0.12308042 0.079109296
000220 81 17 8b bc 50 ff e5 3d 4e 36 37 3d f9 6c 8c 3d
       -0.016978981 0.112303376 0.044729523 0.068567224
000230 74 c4 1a bd 1b f9 7f 3d aa 4e b2 bc 36 3a 1e bd
       -0.03778501 0.062493425 -0.021766026 -0.038629733
000240 59 eb 79 3d 14 72 11 3b 08 d3 06 be c7 f8 01 3c
       0.06101546 0.002219324 -0.1316644 0.007932848
000250 05 b7 25 3d 20 b1 80 bc 6b da 68 bd 89 13 a0 bb
       0.040457744 -0.01570946 -0.056848925 -0.0048851413
000260 1c 77 7c bd 44 d0 ed bc 5a 45 84 bc 77 2d 03 3d
       -0.06163703 -0.029029973 -0.01614635 0.03202578
000270 17 51 03 3d 7e 1d 20 3d 82 5e 16 3b b1 85 a9 3c
       0.032059755 0.039090626 0.0022944515 0.020693632
000280 52 62 f5 bc b8 df 47 bd 18 c6 85 3d 69 43 4e 3d
       -0.02995411 -0.04879734 0.06531924 0.050357256
000290 8e 99 47 3d 14 d7 9c 3d 62 54 f3 3c 9d eb 67 3d
       0.048730426 0.076582104 0.029703323 0.056621183
0002a0 ee 2d 60 3a 57 b5 f2 bc 23 3a b2 3b 84 6a 07 3e
       0.0008551766 -0.029627485 0.0054390593 0.13224226
0002b0 5c 94 7c 3d 04 e1 1b 3b 5f 0f 26 3e 61 38 ee 3c
       0.061664924 0.0023785243 0.16216801 0.029079618
0002c0 79 bb 1d bd 7d fc 55 3d af 37 70 bd dc 4b 30 bd
       -0.038508866 0.052242745 -0.058646854 -0.043041095
0002d0 5b af 44 3d 66 52 db 3d 90 97 02 be 80 56 99 3d
       0.048018795 0.10709076 -0.12753129 0.07487202
0002e0 86 71 a6 3d b9 5f a5 bc c5 a3 62 3b 7b ec 11 bd
       0.081271216 -0.020187246 0.0034582478 -0.035625916
0002f0 24 4a d5 bb 5b 8d 0e bd d9 46 27 be e4 a9 a8 3d
       -0.0065090824 -0.034802776 -0.1633562 0.08235529
000300 27 f9 ba 3d 45 d2 0f bd c6 38 57 3e 67 3b d8 3a
       0.09129553 -0.035112638 0.21017751 0.0016497195
000310 68 95 c0 3d cd e0 8f bb 5a fb 7e 3d 31 a9 07 3e
       0.09403497 -0.004390812 0.062251426 0.13248135
000320 38 b5 85 bd 22 a5 bf bc ce 5b 28 bd 92 50 3f bc
       -0.06528705 -0.023394171 -0.041103177 -0.011676924
000330 c3 2b 07 3d 01 01 a1 bc 08 8d 13 bd 92 ff 8b 3c
       0.03300072 -0.019653799 -0.03602317 0.017089639
000340 36 20 7b bc 57 b6 a4 3d 13 85 82 3d 22 0a 59 bd
       -0.015327504 0.08042591 0.06373038 -0.05298818
000350 dd 56 c8 3c 02 7e 86 bc 5f c3 ae bd 08 13 92 3c
       0.024455482 -0.016417507 -0.08533358 0.01783134
000360 72 77 21 be 53 6a 55 bd 20 f6 3a 3d 04 19 33 bd
       -0.15768221 -0.05210335 0.04564488 -0.04372503
000370 01 dc 8d bc 9b ab 88 3b 2d 8b ef 3b 33 72 dc 3d
       -0.01731682 0.0041708476 0.007310292 0.10763969
000380 f6 4c 3b 3d 60 77 19 3e 87 7a f3 3c 4a 77 18 be
       0.045727693 0.14986944 0.029721512 -0.14889255
000390 12 85 c4 3d 0c a3 74 bc 4c 1b fa 3d ad 73 3f bd
       0.09595694 -0.0149314515 0.12212238 -0.046741176
0003a0 68 54 8b 3c 92 a2 f5 bd 8d 80 7e bd 7b 97 8f 3b
       0.017008021 -0.119938985 -0.062134314 0.0043820716
0003b0 13 1f 8a 3d 81 93 87 3d 0f 31 03 bd 79 03 cb bd
       0.06744208 0.06619931 -0.032029208 -0.09912772
0003c0 61 c0 01 3e bd 3b 0c be a0 c6 98 bd 01 f9 3f 3d
       0.12671043 -0.13694663 -0.0745976 0.046868328
0003d0 f5 d4 1e bd 0f 9e 27 3d 68 a8 16 be fe 97 6a 3d
       -0.03877731 0.04092222 -0.1471268 0.057273857
0003e0 05 3e 96 3d d4 8d b0 bc 17 fa 55 3d 28 26 86 bc
       0.07336048 -0.021552004 0.052240457 -0.016375616
0003f0 e7 23 c8 3d 96 df a6 3b 71 9f d3 3c 0d 0e 84 bd
       0.09772473 0.0050925715 0.025832864 -0.064479925

gc1.bias f4 [200]
000000 46 93 08 be 86 ba c2 bd 3a 4e ab bd 65 fa eb bd
       -0.1333743 -0.09508233 -0.0836453 -0.11522368
000010 e3 a7 f2 bd bb 32 03 be 4a 3c 35 be 3e 73 e1 bd
       -0.11848428 -0.12812321 -0.1769878 -0.11008309
000020 22 77 25 be 4f 3e 03 be 69 71 d9 bd 9b 0d 32 be
       -0.16158727 -0.12816738 -0.106173344 -0.17388003
000030 3c 54 06 be 68 fb 37 bd 36 0e 6f bd 8f 70 a7 bd
       -0.1311807 -0.044917494 -0.058363162 -0.08175766
000040 54 26 12 be c4 2f f0 bd 2a 95 17 be 35 b3 41 be
       -0.14272434 -0.117278606 -0.14802995 -0.18916018
000050 dd 0b 12 bd 06 b3 a8 bd f5 56 1a be 62 7b 17 be
       -0.035655845 -0.08237271 -0.15072234 -0.1479316
000060 0c 92 82 bb c0 19 f0 bd 1a 7b ad bd 61 1c bd bd
       -0.0039846953 -0.117236614 -0.084707454 -0.092339285
000070 71 fd 18 be a4 9e bc bd 0a 50 27 be dd a0 5a bd
       -0.1494043 -0.09209946 -0.16339126 -0.053376067
000080 0d b2 d9 bd 9c 66 f8 bd e5 d8 d5 bd 3e ac 91 bd
       -0.106296636 -0.12128946 -0.1044176 -0.07112931
000090 b4 5c a4 bd 15 5f d2 bd 5c c6 2c be e3 da 27 be
       -0.08025494 -0.10272042 -0.16872543 -0.16392092
0000a0 0a 60 1d be ae 98 53 be 4e d2 c8 bd 3d 4b 12 be
       -0.15368667 -0.20663711 -0.098057374 -0.14286514
0000b0 7c fd bb bd 73 44 fe bd 67 b7 c0 bd 80 32 50 bd
       -0.09179208 -0.124153994 -0.09409981 -0.05082941
0000c0 6d 81 d0 bd 22 9e e2 bd ce c5 e8 bd 98 98 16 be
       -0.10180936 -0.11065318 -0.11365853 -0.14706647
0000d0 98 31 cd bd 55 c1 ba bd 1b a6 ea bd a2 f8 df bd
       -0.10019225 -0.091189064 -0.11457463 -0.10936095
0000e0 32 58 0c be fa ff ab bd a4 b6 95 bd 13 94 01 be
       -0.13705519 -0.08398433 -0.073102266 -0.12654142
0000f0 bc 05 00 be 9e 9e 35 be 13 00 c3 bd bb 80 d4 bd
       -0.12502187 -0.17736289 -0.095214985 -0.10376116
000100 be 3d d3 bd 8f f5 fc bd cc ff 94 bd fc 9c 47 bd
       -0.10314511 -0.12351524 -0.07275352 -0.048733696
000110 a7 43 90 bd ac ec 20 be fa 9d ac bd c1 cf eb bd
       -0.07044154 -0.15715283 -0.08428569 -0.11514235
000120 68 ab df bd ee ef ae bd b9 fe ee bd 5f 3e 9d bd
       -0.10921365 -0.08541857 -0.11669678 -0.07677912
000130 fe 4a d9 bd da 9e d8 bd 51 e2 90 bd 39 2f dc bd
       -0.10610007 -0.105771735 -0.070744164 -0.107511945
000140 84 c5 3d be ae 13 05 be 4f b5 c1 bd 5d 51 04 be
       -0.18532377 -0.12995788 -0.0945841 -0.12921663
000150 f9 c3 b8 bd 85 31 15 be 66 3f 06 be eb 6a 08 be
       -0.09021754 -0.14569671 -0.13110122 -0.13322036
000160 50 27 c8 bd f4 d3 0f be 7b 53 06 be bf 80 1e be
       -0.09773123 -0.14045697 -0.13117783 -0.154788
000170 38 49 06 be 59 7f aa bd 29 0b af bd 1c ce 00 be
       -0.13113868 -0.08325071 -0.085470505 -0.12578624
000180 14 de 02 be 09 9e af bd 42 15 04 be 45 e3 b1 bd
       -0.12780029 -0.08575065 -0.12898734 -0.08685926
000190 88 11 0a be ba ee 1b be a0 fd 0f be 8b 82 f2 bd
       -0.1348325 -0.15227786 -0.14061594 -0.11841305
0001a0 02 20 bc bd 18 6e f2 bd 81 f3 f7 bd 49 7d e4 bd
       -0.091857925 -0.11837405 -0.121069916 -0.11156709
0001b0 6b d5 2b be 50 e1 fc bd 92 2d 8e bd c7 25 9a bd
       -0.16780631 -0.123476624 -0.069422856 -0.07526737
0001c0 5a cf ed bd 85 ea 02 be 12 2e f1 bd f5 3b 35 be
       -0.11611815 -0.12784775 -0.11776365 -0.17698653
0001d0 1b cd fc bd b9 62 29 be 0c 55 19 be bf f9 32 be
       -0.12343808 -0.16541566 -0.14973849 -0.17478083
0001e0 c5 03 1c be d1 2f 0a be ce 01 19 be 16 37 5e bd
       -0.15235813 -0.13494803 -0.14942095 -0.054251753
0001f0 71 d6 e8 bd 07 cf 80 bd d5 81 41 bd ad d1 f6 bd
       -0.113690265 -0.06289487 -0.047242958 -0.12051711
000200 b6 69 82 bd 25 61 30 be 8b 66 a2 bd b0 7b 2c be
       -0.06367819 -0.17224558 -0.07929715 -0.16844058
000210 da f7 04 be 49 98 f9 bd b9 42 08 be 4f ee e3 bd
       -0.12985173 -0.12187249 -0.13306703 -0.11129438
000220 48 35 03 be 12 8c fa bd 96 04 1d be b8 d0 d6 bd
       -0.12813294 -0.122337475 -0.1533378 -0.10489029
000230 4e 99 8c bd 0d 91 26 bd f8 49 de bd bb 72 c3 bd
       -0.06865178 -0.040665675 -0.10853952 -0.095433675
000240 e7 d5 cb bd c5 ec d7 bd 72 fc 0b be 2c 55 ea bd
       -0.09952908 -0.10543207 -0.13670519 -0.114420265
000250 1a 29 1b be 61 30 2d be 53 41 e1 bd 62 12 e0 bd
       -0.15152398 -0.16912986 -0.10998788 -0.10941006
000260 b3 5d 00 be 0a f8 35 be 81 6b a9 bd b6 82 03 be
       -0.12535743 -0.177704 -0.08272458 -0.12842831
000270 e1 e4 03 be ef 5f 30 be 95 8f 3f bd 2c a0 17 be
       -0.12880279 -0.17224096 -0.04676779 -0.14807194
000280 ec 2f 07 be 2f ef 33 be a3 a7 cf bd 4e e8 be bd
       -0.13201874 -0.1757171 -0.10139396 -0.09321652
000290 49 94 b6 bd 39 78 0a be fb eb e6 bd 34 10 b3 bd
       -0.08915002 -0.13522424 -0.112754785 -0.08743325
0002a0 8e 85 fc bd 4b 69 1f be 7c bd 1a be 51 ca a1 bd
       -0.12330161 -0.1556751 -0.15111345 -0.07899917
0002b0 dd 35 27 be cf 73 1d be cf 09 c3 bd 99 33 e0 bd
       -0.16329141 -0.15376209 -0.09523355 -0.109473415
0002c0 74 c0 f2 bd c7 77 e3 bd 3d b9 bd bc ad 19 cd bd
       -0.11853114 -0.1110683 -0.023159618 -0.10014663
0002d0 cb 5d 00 be 63 04 1d be 16 ab f9 bd 88 96 d6 bd
       -0.12535779 -0.15333705 -0.12190835 -0.1047793
0002e0 ca b5 ce bd 3f 60 06 be 2f 6f 02 be f6 d7 ba bd
       -0.10093267 -0.13122652 -0.12737726 -0.091232225
0002f0 f9 4d 33 be 2c a0 0b be 57 4c 0f be 11 13 18 be
       -0.17510213 -0.1363532 -0.13993965 -0.14851023
000300 4e 7e c1 bd f4 63 25 be 4e af d2 bd ab 78 d9 bc
       -0.09447919 -0.1615141 -0.10287343 -0.026546797
000310 f0 c1 07 be 92 5d 90 bd 7b f3 f3 bd c1 ab 0f be
       -0.13257575 -0.07049097 -0.119116746 -0.14030363

gc2.weight f4 [200, 200]
000000 bc 67 51 bb 06 1a 5b bc 52 d6 14 3e a2 db 80 3d
       -0.00319527 -0.013372904 0.14534882 0.06291892
000010 28 08 a6 bd f6 3b 83 3e 1f d1 1e bd 7b 14 2a 3d
       -0.081070244 0.25631684 -0.038773652 0.041523438
000020 17 d0 e2 3d 35 bd da 3d b1 51 a5 bd f3 c5 ac bd
       0.11074846 0.106806196 -0.08072222 -0.08436193
000030 20 9a 21 3c fa 3a e4 3c 70 63 4e 3e 6b b2 4a 3c
       0.009863406 0.027860153 0.2015512 0.01237164
000040 dc d2 3a bd 15 a0 ae bd 1c 60 db bd f6 db 06 3d
       -0.045611247 -0.08526627 -0.10711691 0.032924615
000050 4c a0 9b 3d 64 7b af bc 83 13 1a bd 34 05 b1 3c
       0.075989336 -0.021421142 -0.037616264 0.021608926
000060 24 61 38 bd d2 22 14 3a 55 07 fa bc 4e f0 85 bd
       -0.045014516 0.00056509406 -0.030521074 -0.06539975
000070 5a 54 6a 3c 58 5a d5 3d 7b f4 39 bd 9c e1 36 bd
       0.014302338 0.10417622 -0.04539917 -0.04464875
000080 c7 f2 1a 3e 11 39 43 bd c3 52 05 bd a3 14 15 bd
       0.15131675 -0.047661845 -0.03254963 -0.036396634
000090 bd 00 19 3d 80 c3 90 3d 0d b8 8e bd 42 8e a7 3d
       0.03735422 0.07068539 -0.06968699 0.081814304
0000a0 40 8e 42 3e d7 55 02 3d 30 91 53 bd a7 9a 68 bd
       0.18999577 0.031820145 -0.051652133 -0.056788113
0000b0 90 bd e2 3d db 85 6e bd 0b 2e 08 3d cb 42 fb b9
       0.110713124 -0.058233123 0.033247035 -0.00047924215
0000c0 02 76 b8 3d 9c 36 d4 bd 98 79 f3 3b ee 0c 81 bd
       0.09006883 -0.103619784 0.0074302666 -0.06301294
0000d0 66 8f dc bd ba 5f 2e 3d 81 c2 27 bd 97 4d a1 39
       -0.107695386 0.04257176 -0.040956978 0.00030766122
0000e0 91 25 91 3d eb 4c f8 bd fd 22 fd 38 d2 50 01 3d
       0.07087243 -0.12124046 0.00012070497 0.031571217
0000f0 c2 9b a3 3d 17 d3 99 bc fc ff 2c bd 4a cd 04 be
       0.07988693 -0.018777413 -0.042236313 -0.12968937
000100 a8 ed dc bd 80 75 77 bd 00 92 43 3e 98 14 72 3b
       -0.10787517 -0.06041479 0.19098663 0.0036938544
000110 e2 11 14 3e 7d 97 3b bb a6 85 16 3e c6 65 93 3d
       0.14459947 -0.002862423 0.1469942 0.07197146
000120 51 c9 92 bd d6 b8 3f 3d d9 4e 2d bd 4b 49 0c 3d
       -0.07167304 0.046807133 -0.042311523 0.034249585
000130 66 db e9 3d 98 e7 54 bd 51 11 44 3e 9d 85 ca bc
       0.114188 -0.051978678 0.1914723 -0.024721915
000140 26 98 3e bd e6 15 c3 bd ff 2b 08 bd 7e cc a0 3a
       -0.04653182 -0.09525661 -0.033245083 0.0012267975
000150 58 52 27 be a0 06 2a 3e 8c cd 22 bc f6 77 32 3d
       -0.16340005 0.1660409 -0.0099367015 0.043571435
000160 e8 76 0d 3e 75 25 07 3d c7 d8 bc bb 4d 26 21 3e
       0.1381489 0.032994706 -0.0057631466 0.15737267
000170 66 13 64 ba 41 49 32 3d bc 2b 89 3e 53 d6 9f bc
       -0.00087004004 0.04352689 0.2679118 -0.019511377
000180 27 aa 02 3d 1a 50 b4 bd f3 a1 d9 3d de 68 f8 ba
       0.03190055 -0.08804341 0.106265925 -0.0018952151
000190 ee 4b e5 3d be 6a 00 be 71 d4 a1 bd 7d ef a2 3d
       0.11196123 -0.12540719 -0.07901848 0.07955835
0001a0 3d a4 cb bc 80 bc 30 3d 8a 61 dd 3c 91 6d ad 3c
       -0.024858588 0.043148518 0.02702405 0.02117041
0001b0 66 41 e4 bd a3 74 07 bd 9b 83 50 3d 56 39 91 bd
       -0.11145286 -0.033070218 0.05090676 -0.07091014
0001c0 83 42 a0 bd c8 98 03 3d 5f fa 0d bc 15 27 f6 3d
       -0.07825186 0.032128125 -0.00866565 0.12019173
0001d0 f8 58 df ba 97 09 7e 3d 0f 25 08 3d fd 98 27 3d
       -0.0017040065 0.062020864 0.033238467 0.040917385
0001e0 43 ee b3 bd 76 63 c1 3d c1 8f 97 bc 35 69 4a 3d
       -0.08785679 0.09442799 -0.018501164 0.04941674
0001f0 91 27 40 bd 86 a1 b6 3d 3c 10 1e bd c1 fe c2 bd
       -0.046912733 0.08917527 -0.0385897 -0.09521247
000200 a9 43 e1 bc 97 eb d6 3d 51 f8 1e bb 34 97 9a 3d
       -0.027498083 0.10494154 -0.0024256895 0.07548371
000210 92 ec 95 bd 81 58 0b 3d d0 78 cd 3d c7 db 9e 3d
       -0.07320513 0.03401995 0.10032809 0.07756763
000220 4f ed ec 3d a1 dc c9 bd 00 b9 f4 3c 2e 4a d5 3c
       0.115687005 -0.09856535 0.029873371 0.026036348
000230 8a 3e 20 3d 6d 0e b0 3c 00 c9 c4 bc cc ff a8 3d
       0.039122142 0.021491254 -0.024021626 0.082519144
000240 c2 58 2f 3b 38 de 0f bd 74 69 1b be 03 a7 5c bd
       0.0026755785 -0.035124034 -0.15176946 -0.053870212
000250 1c 95 12 3c 87 98 b0 3d 12 dd 78 3a bf 75 f8 3d
       0.008946683 0.08622842 0.0009493391 0.12131833
000260 62 64 e4 3d 39 a8 36 bd ee a0 cf bb 2e 16 65 bd
       0.11151959 -0.044594023 -0.006336323 -0.055929355
000270 2e 5a 04 3e b6 9d 44 bd ce 78 fb bd 65 47 0a be
       0.12925026 -0.048001967 -0.12278901 -0.13503797
000280 f6 e4 37 ba 59 39 3d 3d 45 bd 32 bd 9c e7 91 bd
       -0.0007015014 0.04619727 -0.043637533 -0.07124254
000290 a7 a1 75 3e 04 00 d5 bd 7a 86 cd bc a4 35 95 3a
       0.23987447 -0.104003936 -0.025088537 0.0011383784
0002a0 1e f3 9f 3d 7a aa a2 bd 44 91 d7 3d f2 1d 2f 3e
       0.07810043 -0.07942672 0.10525754 0.17101267
0002b0 9a 5a 55 bc 24 b6 aa bd f5 ae 9a bc 7c b2 8a bc
       -0.013022089 -0.08335522 -0.018882254 -0.016930811
0002c0 77 33 47 3c f5 66 b7 bd 3b e4 29 3e 49 e0 eb 3d
       0.012158266 -0.08955184 0.1659097 0.115173884
0002d0 e3 80 49 bd 12 ae 04 3d c3 04 61 3c 50 a2 c1 3d
       -0.04919518 0.03239257 0.013734045 0.09454787
0002e0 64 91 c0 bd 45 ef c3 3d f9 b3 75 3d 1c 24 45 bd
       -0.09402731 0.095671214 0.05998609 -0.04813014
0002f0 3f a7 ea 3c ea 76 b4 bc 44 c9 f2 3d f5 24 ef 3c
       0.028644202 -0.022029359 0.118547946 0.029192427
000300 b8 ef b5 bd 4d d5 88 3d ce 70 1f 3e 6f 35 6d bc
       -0.08883613 0.06681309 0.15570375 -0.014478072
000310 b3 93 ea bc 14 8d 6f 3c 86 de ee ba 55 6e 94 3b
       -0.028634882 0.014621038 -0.0018224276 0.004529754
000320 08 51 73 3d ff 1e e2 3d 71 57 80 bd ad 59 18 3d
       0.05940345 0.11041068 -0.06266678 0.037194896
000330 1f 3c 59 be 71 25 2c 3d e4 1d 1c be 03 59 d2 3d
       -0.2121434 0.042027894 -0.15245777 0.10270884
000340 05 30 c1 bd b1 93 af 3c aa c5 9a 3d 6d 86 81 bc
       -0.09432987 0.02143273 0.07557233 -0.01581117
000350 44 61 e1 bd 79 5d 92 bc 4f 7c a1 bc 92 02 01 3d
       -0.1100488 -0.017866837 -0.019712595 0.031496592
000360 f1 07 81 3d cc 7b ec 3d 62 4d 16 3d e7 1d 14 be
       0.06300343 0.1154705 0.03669489 -0.14464532
000370 f6 ab 58 be b4 f3 3a bd cb 52 82 3d 70 3c 8a bc
       -0.21159348 -0.04564257 0.06363448 -0.016874522
000380 1f d5 2a bd 21 52 5f 3c 94 dc 19 3e b5 0d 1b bd
       -0.041707154 0.013630421 0.1502555 -0.03785487
000390 e8 a5 19 bd 84 1d c5 3c 6b 38 b1 bd 02 c6 a3 bd
       -0.037511736 0.024061926 -0.08653339 -0.07996751
0003a0 af e8 30 bd 66 14 14 3d 3a cf 9a bd 2f 34 56 3d
       -0.043190654 0.036152266 -0.075590566 0.05229586
0003b0 de 13 0c 3e 27 bc 40 3e db 69 d0 bb 2f a2 92 bd
       0.13679454 0.18821774 -0.006360275 -0.0715984
0003c0 84 8b 71 3a d3 54 ec 3d 73 26 a3 bd cb 95 21 bd
       0.000921421 0.115396164 -0.07966318 -0.039449494
0003d0 c7 b0 4e be 1f e1 12 3e 60 05 d2 3d 07 f2 42 bd
       -0.20184623 0.1434369 0.102549314 -0.047594097
0003e0 5f 9a 5a bc e2 f6 be bd 80 43 28 bd b5 27 4f bd
       -0.013342469 -0.09324433 -0.041079998 -0.050574977
0003f0 d7 30 8c 3d 0e 66 f5 3d 99 67 60 3d 21 c6 12 bd
       0.06845253 0.11982356 0.0547863 -0.03583348

gc2.bias f4 [200]
000000 13 53 7d bd 55 d5 56 bc 73 b2 d0 bc f6 56 54 bd
       -0.061846804 -0.013112386 -0.025475716 -0.051840745
000010 7e ff c5 bc df 8b dd bc f9 99 90 3b 0b f2 cd bc
       -0.02416968 -0.027044235 0.004412886 -0.02513983
000020 b7 f3 82 3d 3b 62 7c bc c5 cb b9 bc 70 a9 4a 3d
       0.06394141 -0.015404279 -0.022680173 0.049477994
000030 68 b1 81 3a fb 8d 1f bd b4 aa 08 bd 94 b7 0f bd
       0.000989479 -0.038953763 -0.03336592 -0.035087183
000040 e6 41 a8 bc 78 25 ec bb ee d3 5d bc 82 93 01 bd
       -0.020539235 -0.007206615 -0.0135392975 -0.031634815
000050 18 de 26 3d 21 37 10 bd 97 9a f9 bb 21 46 7b bc
       0.04073915 -0.035208825 -0.0076173055 -0.015336544
000060 d0 42 c9 bb 43 c5 1d bd f9 7c 33 bd 7f c7 60 bd
       -0.006141998 -0.0385182 -0.043820355 -0.054877754
000070 fd e3 d9 3a a1 0f ef bc c7 ce 03 bc e2 d0 a9 3c
       0.0016623732 -0.029182257 -0.008044905 0.020729486
000080 56 5c 62 bb de 57 84 bc d3 ea 47 bc fe 8f 94 bc
       -0.00345399 -0.01615518 -0.012201983 -0.018135067
000090 13 68 8a bc 27 db fd bc 20 8a 4a 3c 71 9e 30 bc
       -0.01689533 -0.030988289 0.012362033 -0.010779963
0000a0 f5 b5 11 bd 11 5d 1c bd e0 3e d7 bc 67 77 52 b9
       -0.03557392 -0.038174693 -0.026275098 -0.00020071641
0000b0 d9 00 f0 bc ba fd 21 bd 7a d3 73 bd bb ad 6c bd
       -0.02929728 -0.039548613 -0.05952785 -0.05778287
0000c0 25 3f 30 bd 19 1f 00 3b 56 21 2e 3c 40 40 27 3c
       -0.04302897 0.0019549786 0.010628065 0.0102081895
0000d0 52 79 4c bd c4 8a 92 bd b6 77 1b bd 3a 53 69 bc
       -0.049920388 -0.07155374 -0.037955962 -0.014241034
0000e0 99 29 41 bd 1a 03 08 bd e1 3c b3 ba e7 48 af bc
       -0.04715881 -0.033206083 -0.001367476 -0.021397067
0000f0 aa 2d 83 bd 5a e7 5b bd 12 2f c9 bc 5a 85 c3 bc
       -0.06405194 -0.05368743 -0.024558578 -0.023867298
000100 00 92 2c bd cd d8 1e bd a5 10 97 bc e6 f0 a9 3c
       -0.042131424 -0.038780976 -0.018440554 0.020744752
000110 9d 97 35 bd a7 87 1d bc 49 50 28 bd 1c d3 2d bd
       -0.044334043 -0.009614862 -0.04109219 -0.042437658
000120 c2 2b 0e bc 52 fe e4 bb fc a3 4b bb e7 5c 0b bd
       -0.008677425 -0.006988325 -0.0031073084 -0.034024145
000130 4e bc 72 bd 70 eb a6 bc 5f 01 35 bd c2 cf f5 3b
       -0.059261613 -0.020375937 -0.04419076 0.0075015733
000140 80 49 5a bc 4f 57 5b bd 77 16 60 bc 2e f6 3c bc
       -0.013323188 -0.05355006 -0.013677231 -0.011533303
000150 f9 be 20 bb 08 81 3c bd 23 f6 c2 bc 8f e6 a3 bc
       -0.002452789 -0.04602149 -0.023799008 -0.0200074
000160 63 13 00 bc ee 30 06 3d 77 0b 99 3b 0c 47 90 3c
       -0.007817122 0.032761507 0.004670556 0.017612003
000170 61 2e 21 bd 7c 21 02 bd 81 a0 11 bd f3 7f 11 bd
       -0.03935087 -0.031770214 -0.03555346 -0.035522413
000180 ae 84 82 bc 3d c3 6f bd ff 84 4e bc f9 62 ae bc
       -0.015932407 -0.058535803 -0.012604951 -0.021287428
000190 59 cc af bc 93 57 e1 39 d1 07 86 bb 22 bc cd bc
       -0.021459745 0.00042980592 -0.0040902873 -0.025114123
0001a0 8e c8 8c bc ea 6f a6 3d c3 67 22 bd a4 8d 8d bd
       -0.017185476 0.08126815 -0.039649736 -0.069117814
0001b0 f1 dc 88 3c e5 03 12 bd 8a 73 60 bd 29 18 82 bd
       0.016706916 -0.035648245 -0.054797687 -0.063522644
0001c0 ba 57 98 bc 51 6a c9 bc 35 87 af bb b8 ee 7d bd
       -0.018596519 -0.024586828 -0.005356694 -0.061995238
0001d0 79 6b d9 bc 85 be 12 bd fc de 50 bd 44 e2 96 bc
       -0.026540505 -0.035826225 -0.050993904 -0.018418439
0001e0 1c a3 24 3c 3d 3d f3 bc 3e c7 61 bd fc 1c b0 bb
       0.010048654 -0.029692287 -0.055121653 -0.005374549
0001f0 98 af 2c bd e3 0e bb bb 5d 7a a6 bc 06 ca 1c bd
       -0.042159647 -0.0057085617 -0.02032202 -0.038278602
000200 fe 35 18 bd a3 36 48 3b 33 19 18 bd ea f5 ad bc
       -0.037160866 0.0030550144 -0.037133407 -0.021235425
000210 d7 8d 29 bd c5 95 07 bd 06 26 40 bd 98 88 62 bd
       -0.041395035 -0.033101816 -0.046911262 -0.055306047
000220 0a 3e 63 bd ba 30 c3 bb 75 cc 8c bc 8e e6 5b bd
       -0.055479087 -0.0059567364 -0.017187336 -0.05368667
000230 6c a7 23 bd b9 69 23 bd a1 52 0c bd 6e 5c 18 bd
       -0.039954588 -0.039895747 -0.03425849 -0.037197523
000240 c0 09 83 bd 13 86 fc bc 39 26 0b bd 82 d0 d7 3b
       -0.06398344 -0.03082565 -0.033972 0.0065861354
000250 88 f6 17 bd f9 bf 31 bd c6 a1 b6 bc b2 b4 dd bc
       -0.037100345 -0.04339597 -0.022293936 -0.027063701
000260 1c 1d 38 3d df a6 92 bb 5b 12 21 bd e0 83 b6 bc
       0.044949636 -0.004475459 -0.039324146 -0.02227968
000270 bc 02 f5 bc 77 0c 9d bc d3 63 88 bb 50 ea 85 bc
       -0.02990853 -0.019170983 -0.0041622906 -0.01634708
000280 2c 39 12 3d cc 6c 18 bd 6b a7 15 bd 60 c4 72 bc
       0.035699055 -0.03721313 -0.036536615 -0.014817327
000290 0d 0d 09 bd a3 b1 92 bc a1 fc 00 3d 77 76 2f 39
       -0.03345971 -0.01790697 0.031490926 0.00016733432
0002a0 be 47 53 bd 35 3f 0a bd 75 73 5b bd 65 eb 79 bc
       -0.05158209 -0.033751685 -0.053576905 -0.015253876
0002b0 73 32 37 bd 7f 22 55 bd 75 cf b9 bc e3 e2 88 bc
       -0.044725846 -0.05203485 -0.022681931 -0.01670975
0002c0 fe 99 a9 bc a4 b4 18 bc f7 08 9e 3b 49 c7 ee bc
       -0.020703312 -0.009320412 0.004822846 -0.029147761
0002d0 41 cd 29 bb 66 0b 05 bc 92 67 16 bc c3 8b 53 bd
       -0.0025909694 -0.008120393 -0.0091799665 -0.05164696
0002e0 5f a8 81 bc b5 39 97 bc a7 53 f2 3c 50 08 66 ba
       -0.015827356 -0.018460134 0.029580904 -0.00087750424
0002f0 9d e4 30 3b 3f 56 1b 3d df 05 3f 3c 74 5f dd bb
       0.0026991733 0.037924048 0.011659115 -0.0067557637
000300 3e 8a e5 bb 47 8f 02 3d 4e 1b 91 bc 9e 8a 00 bd
       -0.007005005 0.03187492 -0.017713215 -0.031382196
000310 87 31 01 bd 70 c1 18 bd e5 28 cb bc e7 29 56 bd
       -0.031541374 -0.03729385 -0.024799773 -0.052286055

gc3.weight f4 [200, 100]
000000 b7 a6 2f bd 34 b8 f2 ba 6e 38 32 bd c7 96 1d be
       -0.0428836 -0.0018518032 -0.043510847 -0.15389548
000010 94 06 77 bd c2 d0 7e 3d 5d f2 7f 3c 8b 64 90 3d
       -0.060309008 0.062210806 0.015621749 0.07050427
000020 f8 5e 90 3d 44 b7 fc bc f1 4a 5a 3c 12 45 95 3d
       0.07049364 -0.030849107 0.0133235315 0.07288565
000030 af 38 b4 3d ff f8 41 3d ba e3 01 3d ef 2a b8 3b
       0.08799874 0.0473566 0.031711318 0.0056203525
000040 1b 15 11 3c 89 36 45 3e dd 36 af bd 3d 9a 39 bd
       0.00885513 0.19259085 -0.08555386 -0.04531311
000050 38 ad aa 3c 1b 12 d2 3d 2e 6a 8c 3c fb a7 9c 3d
       0.02083455 0.102573596 0.017140474 0.07649227
000060 fc 86 26 3e 42 37 96 bd 6a 6a 01 bd e2 50 0b bd
       0.1626243 -0.07334758 -0.031595625 -0.034012683
000070 68 23 88 bc ec c7 0d 3d 66 4a 50 3e fb 0b 48 bd
       -0.016618446 0.03461449 0.20340881 -0.04883955
000080 1d 00 f2 bb 11 ac 88 bd 5e 41 5a bc 0f 8d 01 3d
       -0.0073852674 -0.06673444 -0.013321249 0.031628665
000090 77 15 79 bc 0a a3 bf 3d 4d 5a 0d 3d e5 e0 77 3d
       -0.0152028715 0.09357269 0.034509946 0.06051721
0000a0 36 88 f2 3c c5 26 ab 3c 31 52 a9 3d 3a 23 36 bc
       0.029605966 0.02089251 0.0826763 -0.011116797
0000b0 78 1e f4 3d 63 d5 0e 3e 3f 0f a8 bd 63 a7 af 3d
       0.11919874 0.13948588 -0.08206033 0.08576848
0000c0 fa 31 d3 3c 46 99 c4 3c 5b 8b a9 bd b7 5d 81 bd
       0.025780667 0.023998868 -0.08278533 -0.06316703
0000d0 46 61 67 bd 7a b8 d4 bc d6 ad aa bc ce 18 2a be
       -0.05648925 -0.025966872 -0.020834845 -0.16611025
0000e0 b7 70 0e bd bb 82 f4 3d f7 99 3d bd c4 03 77 bd
       -0.034775462 0.11938997 -0.04628941 -0.060306326
0000f0 cc 84 99 bd 14 8e 21 3d 8e d4 41 bd c5 54 2a bd
       -0.07496032 0.039442137 -0.04732185 -0.04158475
000100 02 98 63 3c fd 70 01 3b 89 43 81 3c 06 5c 3a 3d
       0.013891222 0.0019751184 0.015779274 0.045497917
000110 44 f9 c9 bd dd 8a 3f bd bf d9 9b bc 1e 87 0e 3d
       -0.09861997 -0.04676329 -0.019024728 0.034796827
000120 20 4b 96 bd c0 e5 2c bd 3f 61 23 be ab 0a ff bc
       -0.07338548 -0.042211294 -0.15955065 -0.031133017
000130 84 27 83 3c b1 b4 57 3d e6 51 76 3d 8c 68 37 3d
       0.016010053 0.052662555 0.0601367 0.044777438
000140 da f6 57 bd 1f d0 b2 bd 2c e1 46 bd 01 bd 60 ba
       -0.05272565 -0.08731102 -0.048554584 -0.00085730857
000150 c6 4c 8a bd 89 a8 45 3e e9 3e cd 3d 60 f2 3a 3d
       -0.067529246 0.19302572 0.10021765 0.045641303
000160 d9 33 1e be 1b d7 34 3d d5 9e 3b 3d c0 d4 ff bd
       -0.15449466 0.044150453 0.04580577 -0.12491751
000170 f3 c8 a2 bd 1d 53 36 be ac 58 f6 3d 91 1f a2 3c
       -0.07948484 -0.17805143 0.120286316 0.019790443
000180 df 16 01 be 3f 14 d2 3c 99 48 1c bd a7 e8 b7 bc
       -0.12606381 0.02564442 -0.038155172 -0.022449804
000190 0e ee ee 3d e1 db 9f bd db 25 aa 3d e5 f4 00 3d
       0.11666499 -0.078056104 0.083080016 0.03148355
0001a0 b0 0d 04 be 7e 02 16 3e 86 d9 a1 bd b9 4b 26 be
       -0.12895846 0.14649388 -0.079028174 -0.16239823
0001b0 4e 4c ca bd e6 c7 03 be eb ef 40 bc e1 41 a1 bd
       -0.09877835 -0.12869224 -0.011775951 -0.078738935
0001c0 0a 0d 0a 3c 3c 36 32 3d 49 8b a8 3c 27 f1 9d bd
       0.00842596 0.043508753 0.020574229 -0.07712012
0001d0 dc d0 df bd ba 7b 3a 3c 7e 14 5b 3d ab 90 91 bc
       -0.10928509 0.011382038 0.05348634 -0.017769178
0001e0 d9 4f 0c 3d 76 da 8a 3d a0 3b a1 3a c3 2b cb 3d
       0.034255836 0.06779949 0.0012301095 0.09920456
0001f0 f8 2d 54 be 9a 91 f6 3c c9 28 36 bd fc 63 ad bd
       -0.2072066 0.030098725 -0.04447249 -0.08466336
000200 17 e0 68 bd d7 0b 61 bd 4b 24 47 bb 3d f3 73 3d
       -0.056854334 -0.054942932 -0.0030386623 0.059558142
000210 94 ab e9 bd d7 21 3a bc 8f 1c f9 bc cf ec c5 3d
       -0.11409679 -0.011360607 -0.030409126 0.09664308
000220 4e 2c a6 3d 93 06 7b 3d a1 02 af bd e3 7a b3 bd
       0.08113919 0.061285567 -0.08545423 -0.08763673
000230 3f 60 fd bc 97 9a b1 3d 49 ee 7e 3d e5 c6 9e 3d
       -0.030929683 0.08672064 0.062238965 0.0775278
000240 e3 79 c9 bc e5 da 76 3d 69 4f 13 3e 99 9e 68 3d
       -0.024594253 0.060267348 0.14385761 0.056791876
000250 fb 5c 80 3d 05 b0 29 be e5 a2 4b 3e a9 cb 61 3d
       0.062677346 -0.16571052 0.19886358 0.055125866
000260 22 5a 18 be a7 51 5a bc 00 bc 4f 3d e4 25 45 be
       -0.14878133 -0.0133251315 0.0507164 -0.19252735
000270 ef 65 5b 3e ba 83 45 bd dc 9b ab bd cb 4c b4 3d
       0.21425603 -0.048221327 -0.08379337 0.088037096
000280 c5 66 d2 3c d1 77 1e be 5d ed 1d bd 00 2c 83 bd
       0.02568377 -0.15475394 -0.038556445 -0.06404877
000290 37 fe 8d bd e4 a7 26 bd 30 02 32 bc b7 44 28 3d
       -0.06933253 -0.040687457 -0.010864779 0.041081157
0002a0 e0 36 d9 3d be 42 aa bb e5 f5 56 3b e9 60 93 bc
       0.1060617 -0.0051959446 0.0032800373 -0.017990546
0002b0 88 52 d5 3c 00 81 f8 bd db f6 3a bd d6 fc 94 3c
       0.02604033 -0.1213398 -0.045645576 0.018186968
0002c0 a1 f5 66 3b 15 5c a4 3d 36 19 78 bd 4c 76 28 be
       0.003524162 0.08025376 -0.060570918 -0.16451377
0002d0 7c c0 03 bc f7 66 c9 bc 72 ff 8a bc 0f 41 e6 bd
       -0.008041497 -0.02458523 -0.016967509 -0.11242878
0002e0 83 63 e6 bd ab 04 0c 3d af 25 a4 3d f7 8e 5f bd
       -0.11249449 0.03418414 0.08015 -0.0545797
0002f0 b3 a8 81 bd 9d 89 43 be d2 79 3f 3c 70 b4 f7 3a
       -0.06331005 -0.19095464 0.011686759 0.0018898379
000300 4d d2 c4 3d f8 a4 f4 3c 2f b1 12 3e de 27 58 bd
       0.09610424 0.02986382 0.14325403 -0.052772395
000310 5a 95 48 bc 9d 9a ab 3d 55 f2 c9 3d 7a 8c 0a 3e
       -0.012242639 0.083790995 0.09860674 0.1353015
000320 18 cd 81 3d fb 29 07 bc c2 a2 94 bd 4e 1a 14 3d
       0.06337947 -0.008249755 -0.07257606 0.0361579
000330 c2 fd 4f bc 6e e6 84 3c e7 04 d4 3d 43 5f d7 bc
       -0.012694778 0.016223159 0.103524975 -0.026290542
000340 97 4d b9 bd 19 62 94 bd 26 f2 bb bd e2 26 fb 3c
       -0.09048002 -0.07245273 -0.091770455 0.03065819
000350 df df c9 bd d8 6b cc bc 64 6a 8c 3d 59 b9 c7 3c
       -0.09857153 -0.024953768 0.0685623 0.024380373
000360 cb 8f 1b bc aa 50 e6 bd d8 1c 4c 3d 20 11 87 bd
       -0.009494732 -0.11245854 0.049832195 -0.06595063
000370 00 e2 aa 3d 4e fe 2b be 67 25 7a 3d 6d b5 a6 3d
       0.08343887 -0.16796228 0.061070826 0.08140073
000380 6a 74 6a bc c9 5b e0 3d ff de 5d bd 14 e9 38 3e
       -0.014309982 0.10955007 -0.054167744 0.18057662
000390 a0 8f 8f 3d b9 7f 67 bd a4 e0 c3 bd 8e f2 53 bd
       0.07009816 -0.05651829 -0.09564331 -0.05174499
0003a0 21 78 c0 bd 28 86 c9 bd 90 d9 e0 bd dc b3 85 bd
       -0.09397913 -0.098400414 -0.10978997 -0.06528446
0003b0 95 7f 08 3c f8 7b 66 3d 80 2e 25 3e 52 7e e8 3d
       0.008331199 0.05627057 0.1613102 0.11352219
0003c0 b9 44 1e be e3 39 97 bc 8b d6 66 3d ec 49 b4 3d
       -0.15455903 -0.01846022 0.056356948 0.08803162
0003d0 c3 a4 63 39 da 19 9a bd 41 d6 21 bc 84 f2 f7 bd
       0.00021709786 -0.07524462 -0.009877742 -0.12106803
0003e0 97 17 3f bd ea f8 93 bc 89 74 04 3e 44 02 e8 3d
       -0.046653356 -0.018063027 0.1293508 0.11328557
0003f0 3c 86 d4 3d a1 5a f3 bc 33 86 68 3d 49 e2 7a 3b
       0.10377166 -0.029706301 0.056768607 0.003828185

gc3.bias f4 [100]
000000 36 05 8b 3c ae 03 cc 3c 6d 4f 5f 3c 36 26 11 3b
       0.016970258 0.024904098 0.013629776 0.002214802
000010 99 d6 b1 3a a3 8a 4c bc b3 64 bc 3c 87 5b 4f bc
       0.0013567983 -0.012484225 0.022997236 -0.012656099
000020 30 0a 12 3c 28 0c 10 3d db 6f b7 3c 79 54 c9 3c
       0.008913562 0.035167843 0.022392204 0.024576413
000030 d4 31 48 3b 20 9a aa 3c 74 60 c4 bc c3 0d d6 bb
       0.0030547278 0.020825446 -0.023971774 -0.0065324022
000040 84 0c 33 3c fd 6b a3 3b e3 eb 85 bc b6 16 a6 bc
       0.010928277 0.0049872384 -0.016347831 -0.020274501
000050 b0 c4 ef bb 36 1a ce 3c 66 46 bd 3b 9e 7c a5 3c
       -0.007317148 0.025158983 0.0057762144 0.020201024
000060 fd 2e b7 3c f4 f0 60 3d 80 a4 0b 3a d3 d6 3f 3c
       0.022361273 0.05491729 0.00053269416 0.011708933
000070 b0 54 20 3d 05 85 b8 bb 50 25 42 3c 39 99 99 bc
       0.039143264 -0.0056310915 0.011849716 -0.01874982
000080 72 a8 c7 bc 7f d0 7c bc 58 4a 62 3c 38 7b f7 bb
       -0.024372313 -0.015430569 0.01381167 -0.0075525306
000090 8e fc 83 3c 73 25 74 37 15 70 73 3c e2 f8 45 bc
       0.016111638 1.4552253e-05 0.014858265 -0.012083264
0000a0 86 f7 db 3c 25 f9 ab 3b 67 c1 42 bc d9 4f 81 bc
       0.026851427 0.005248206 -0.011886931 -0.015785145
0000b0 84 7e fd 3b f4 49 a4 bb 31 e4 fa 3c f4 1e 66 3c
       0.007736029 -0.0050136987 0.030626388 0.014045466
0000c0 20 ce 63 3b c7 a2 24 3a 6c 57 95 3c d0 52 82 3c
       0.0034760311 0.0006280359 0.018230163 0.015908629
0000d0 15 b1 31 3d 23 e2 3a bc cc 72 81 bc 4d 7c c5 bc
       0.04338177 -0.011406454 -0.01580181 -0.024107123
0000e0 cd c1 af 3b 76 2d da 3b d4 0e 30 ba d0 5e 69 bc
       0.005363679 0.0066582514 -0.0006716077 -0.0142437965
0000f0 a1 49 c3 bb d1 a3 95 3c 8c 93 6b bb 5b 1d 61 3c
       -0.005959705 0.01826659 -0.00359461 0.013739909
000100 01 36 ed bb d2 d9 0d b9 c0 c9 0c 39 f9 97 46 3c
       -0.007239104 -0.00013527952 0.00013426598 0.012121194
000110 46 85 ca 3c b8 cf 43 3a a1 0d 9e 3c 52 f6 87 bc
       0.024721753 0.0007469612 0.019293608 -0.016596947
000120 e3 e7 4d 3c 30 1d c7 ba d5 cf 85 3c 8a 6d 3c bc
       0.012567493 -0.0015191194 0.016334454 -0.0115007255
000130 46 68 b9 3c c6 f1 84 3c 8e 7c 84 3c fc db 98 3b
       0.02263273 0.016228568 0.016172674 0.004664896
000140 ec 5f 2a 3c 62 ff 22 3c 4d e9 18 3c 5c 1c 80 ba
       0.010398846 0.009948583 0.009332967 -0.0009774077
000150 11 56 c1 bc c3 0e cb 3c 43 bc 03 3d c8 dc 0b 3d
       -0.02360061 0.024787312 0.032161962 0.0341461
000160 2d 34 8d bb e7 b5 86 3c 2e 48 4f 3c 77 12 37 3c
       -0.0043091984 0.01644416 0.012651486 0.011173836
000170 68 5f 52 bc fe 96 0c 39 38 f0 83 3b 8b 82 cf 3b
       -0.012840129 0.0001340769 0.004026439 0.0063327006
000180 29 53 bd 3a 19 90 a8 bc 03 f9 16 bc f3 f4 d6 bc
       0.0014444339 -0.020576524 -0.009214642 -0.026239848
