best_models/MOGONET/fold_3/E2.pth (torch, 838359 bytes, 6 tensors)

gc1.weight f4 [743, 200]
000000 27 e1 4f bd 87 d0 80 3d c6 28 e3 3d cd 38 d8 b9
       -0.05075183 0.062897734 0.11091761 -0.0004124105
000010 ab fa 3d bd cf 27 2a bd 23 3e a5 3c c9 94 a9 bd
       -0.046381634 -0.04154187 0.02017123 -0.08280332
000020 80 de 78 3c 00 f2 64 bb 5d 9a 1c bc b7 98 66 bd
       0.015189767 -0.0034934282 -0.009558287 -0.056297984
000030 c4 31 c3 bd f2 c4 e4 3d 4f ca ae bd e9 7b c4 bc
       -0.095309764 0.11170377 -0.08534681 -0.023984866
000040 e2 88 b7 bc 9b f2 2d 3d 6b 41 f9 3b 41 bd aa 3c
       -0.022404138 0.042467695 0.0076066754 0.020842196
000050 74 77 2b 3d 3a a7 90 3d 42 af 99 bd 6b f3 a7 bb
       0.041861966 0.07063146 -0.07504131 -0.005125453
000060 fc db 92 bd 0a fb 52 3d 8e 5d 7d bb 48 c3 9a bd
       -0.07170865 0.05150894 -0.00386605 -0.07556778
000070 f6 00 cf bd 31 e2 2a 3d 68 1a 11 3c 9a b1 07 bc
       -0.10107605 0.04171962 0.008856393 -0.00828209
000080 87 df 98 bc a2 d2 89 3d 54 37 15 3d f4 4d 73 3c
       -0.018661274 0.06729628 0.036429718 0.014850128
000090 2f 06 77 3c 90 e1 d2 bd 1b 43 38 3d 9c 9b 41 3c
       0.015077158 -0.10296929 0.04498587 0.011816885
0000a0 73 82 18 be 31 7e 03 bc 88 85 50 bd 78 ba 44 3d
       -0.14893512 -0.008025692 -0.050908595 0.048029393
0000b0 15 92 30 bd 4f a4 d7 bb cd b2 0a bd 64 87 c7 bb
       -0.043108065 -0.0065808664 -0.033861924 -0.006089138
0000c0 20 d1 48 bc ea d6 d9 3d 46 0c f1 bc 99 21 67 bd
       -0.012256891 0.10636695 -0.029424798 -0.056428526
0000d0 4b 6c 0f 3c c0 9e 1f bd 32 4f d9 3d 2c 2a 20 bd
       0.008753846 -0.038969755 0.106108084 -0.03910272
0000e0 1d 25 f3 3c 37 7c 86 bd 64 bb c0 bd 3d 7f ba 3d
       0.029680783 -0.06566661 -0.09410742 0.091063
0000f0 e2 a3 87 bd 0e a2 45 3d bd cc c3 3b 67 d8 49 bd
       -0.06623055 0.04825025 0.0059753344 -0.049278643
000100 2a c6 10 3d 0a 50 e0 3c e3 36 ff bc 67 b5 d1 3d
       0.035345234 0.027381916 -0.031154102 0.10239678
000110 81 8a c2 3d 13 8f 08 38 b0 d3 7f 3d 63 37 16 3d
       0.09499074 3.2558175e-05 0.06245774 0.036673915
000120 b9 97 48 bd 46 a6 81 bd 0a 40 2f bc 31 b5 84 bd
       -0.04897282 -0.06330542 -0.01069642 -0.06479872
000130 ce 64 a3 bd 03 ee 48 bd 7e d9 1e bd 17 ae 27 3d
       -0.07978211 -0.04905511 -0.038781635 0.04093751
000140 73 0c a9 bc 30 cb d8 bd fc 8a bc bd 0e 83 38 bc
       -0.020635819 -0.1058563 -0.09206197 -0.011261715
000150 55 7a 6a bd 41 b3 d7 3d 60 ea e9 3c 61 79 98 3d
       -0.05724557 0.10532237 0.028554142 0.07445026
000160 ae d5 91 bc 0e c4 d7 bc 3c 53 30 3d eb 11 90 bb
       -0.017802086 -0.026338603 0.04304813 -0.0043966672
000170 06 4e 14 3d 20 b3 f5 bc 69 c2 a7 3c e6 8a 37 3d
       0.03620722 -0.02999264 0.020478444 0.0448102
000180 44 c2 80 bd f2 cc c0 ba f3 a4 f0 3c 31 29 92 3c
       -0.06287053 -0.0014709516 0.029375529 0.017841907
000190 5d 38 da 3c 08 a7 4e 3d f1 f1 02 bc 2a 28 94 bd
       0.026638204 0.050452262 -0.007992254 -0.07234223
0001a0 72 d9 2a 3d 90 ea c4 3d 9e 07 85 bd ab 70 6f bd
       0.04171128 0.09615052 -0.064955935 -0.058457058
0001b0 0f d2 a1 bd 3d 2a a5 3d 24 c8 b0 3c 05 cd 69 bd
       -0.079013936 0.08064697 0.02157981 -0.057080287
0001c0 47 f5 ce 3c 51 10 99 3c 2f 45 af bc 9d 15 d7 bc
       0.025263442 0.018684538 -0.021395294 -0.026255423
0001d0 48 0d 24 ba 7f 49 92 bc 36 df 88 bd 7a 4d 6f bd
       -0.00062580826 -0.017857311 -0.06683199 -0.058423497
0001e0 ec d7 e4 3c ec a1 2f bc 5f d4 de bc 73 55 e8 bd
       0.02793499 -0.0107197575 -0.027200876 -0.11344423
0001f0 66 87 23 bd 5d c5 12 3c 67 5d aa 3d a8 b5 fe bc
       -0.039924048 0.008958188 0.08318596 -0.03109248
000200 a1 e1 cf bc af 3c 10 bd 87 cb 0d bd f7 6d 68 bd
       -0.025376143 -0.035214122 -0.034617927 -0.056745496
000210 87 7c 4d 3d 31 e7 31 bc d7 df 11 bc d7 f2 8d 3d
       0.050167587 -0.010858343 -0.008903465 0.06931084
000220 7a e7 e0 bd f3 06 e3 3c 1f 50 7d 3d b9 57 fd 3c
       -0.10981651 0.027713275 0.061843988 0.030925618
000230 73 94 9a bd 8d 43 59 bd ca 04 ca bb 02 ab f5 bd
       -0.07547846 -0.053042937 -0.0061651217 -0.11995508
000240 d3 60 3a bd 45 0e a5 3d 2f 8d a9 bb 60 e8 fa bc
       -0.045502495 0.08059362 -0.005174301 -0.030628383
000250 7f 3f 28 bd 07 80 92 bd e4 f1 a0 3c 03 36 2b 3d
       -0.04107618 -0.071533255 0.019646592 0.041799556
000260 72 db 32 bd 8e 4d 07 bd 05 7b 91 bd ea 3b 10 bc
       -0.04366631 -0.033032946 -0.07103542 -0.008803347
000270 03 7a c9 3c 90 ea 9b bd cf 21 aa 3d a9 c3 7f bc
       0.024594313 -0.076130986 0.0830723 -0.015610614
000280 f4 0e fc bc a9 f9 90 bc 04 49 14 3d 7b 9b 3b bd
       -0.030768849 -0.017697172 0.036202446 -0.045802575
000290 b4 5e dc 3c 96 ac a6 bd e4 7e 2b 3d f4 9f 04 3d
       0.026900627 -0.08138387 0.04186906 0.032379106
0002a0 3e f5 36 3d 7c e6 68 3d c9 d9 f2 3c 46 67 00 bd
       0.044667475 0.056860432 0.029644864 -0.03134849
0002b0 00 0b 85 3d df 2b f2 bc ec 99 d0 bd a1 0f 57 3d
       0.06496239 -0.029561935 -0.10185608 0.05250514
0002c0 08 e5 75 bb 5f 4b 9c 3c 79 43 38 3d 02 f5 6a 3d
       -0.0037520546 0.019078908 0.044986222 0.057362564
0002d0 dd 01 89 3b 54 f5 4b bd 36 1b a2 bc 8f 61 af bb
       0.0041811303 -0.04979451 -0.019788366 -0.005352206
0002e0 03 7a c7 3c d9 d8 0b bc 5f 34 58 bd 0e 9b 1a bd
       0.024350172 -0.008535587 -0.05278432 -0.037745528
0002f0 78 fd 6b bd d7 c3 68 bd 54 3a c9 3c 89 3a a2 bd
       -0.057614774 -0.056827392 0.024563946 -0.07921321
000300 de 7f dc 3c a2 f9 ab bb 84 3f d1 bd 6b 87 f9 bd
       0.02691644 -0.0052482644 -0.10217193 -0.12184032
000310 4f b8 05 3d 77 44 fa bc 83 77 b5 bb 46 2b 93 bd
       0.032646473 -0.030550225 -0.0055379285 -0.07185988
000320 b4 4f c5 bc c8 a9 fc bd 75 f1 c0 3d a0 45 06 bc
       -0.024085857 -0.12337071 0.09421054 -0.008195311
000330 fc c7 d1 3c 9f 71 b4 bd 1b 3d 8a bc 83 b9 af bc
       0.025608055 -0.08810734 -0.01687484 -0.021450764
000340 be e9 d6 3c 94 c3 3e bc 69 4b e5 3d bd ed ac 3c
       0.026234504 -0.011643309 0.11196024 0.021109456
000350 e0 d9 3e 3b a3 dd e0 3c 4f cf a7 bd 16 b1 58 ba
       0.0029121563 0.027449435 -0.08193838 -0.0008266134
000360 92 8c 6f bd e4 a6 ce bc 7f 6d 25 bd e7 1a aa 3c
       -0.058483668 -0.025226064 -0.040387627 0.020764781
000370 5d ac a1 bc f0 64 8c bd 77 a9 1f 3d d5 59 50 bd
       -0.01973551 -0.0685519 0.038979974 -0.05086692
000380 98 b4 11 bd 5f dc 9a bd 0d 25 60 bd a2 30 8e 3d
       -0.03557262 -0.07561564 -0.054722834 0.0694287
000390 fd 1d 28 bd 2c 8b 97 bd 24 b3 02 be de 1f aa 3b
       -0.041044224 -0.07399592 -0.12763649 0.005191787
0003a0 ae 99 d9 bc 36 ea 4a bc eb f7 75 3d 28 29 a4 3c
       -0.026562538 -0.012384942 0.060050886 0.020039156
0003b0 6f 20 3d 3d 5b 93 5f 3d d7 f4 96 3d 8e 75 74 3b
       0.04617351 0.05458389 0.07370918 0.0037301513
0003c0 88 4f 87 3c ec b6 86 bd 74 e2 54 bd 81 34 09 bd
       0.016517416 -0.06577858 -0.051973775 -0.033497337
0003d0 b3 9d d0 3d 50 50 2d 3d c0 10 06 bd 30 b9 8c bd
       0.10186329 0.04231292 -0.032730818 -0.06871259
0003e0 f0 2b 06 3d bc 48 4b 3d b5 a1 02 bd c2 47 6f bc
       0.032756746 0.04962991 -0.031892497 -0.014604511
0003f0 1c d5 5d 3c da 1f c6 bb fa d4 df bc 16 ae b9 bc
       0.013539579 -0.0060462775 -0.027323235 -0.022666018

gc1.bias f4 [200]
000000 0c 58 16 bd c2 f7 4d bd b8 67 46 bd 08 5d 55 bd
       -0.03670506 -0.05028511 -0.048438758 -0.052090675
000010 99 02 82 bc a9 5c 1d bd 3c a9 6d bd da 14 49 bd
       -0.01587038 -0.038418446 -0.058022723 -0.04909215
000020 70 35 3b bd b8 06 9b bd 8a a7 83 bd ae 6b 58 bd
       -0.04570526 -0.07569641 -0.0642844 -0.052837066
000030 79 7b 6c bd d7 83 6f bd 75 8a a0 bd 0a 22 1b bd
       -0.05773494 -0.05847534 -0.078389086 -0.03787426
000040 52 62 07 bd 96 55 fb bc ef 82 5d bd 19 d5 7d bd
       -0.03305275 -0.030680459 -0.054079946 -0.061970804
000050 5b 35 93 bd fd cf cb bc b5 04 2d bd 40 61 7e bc
       -0.07187911 -0.02487945 -0.042240817 -0.015526116
000060 7b 6d fe bc 3e 7b ad bc 00 18 18 bd 90 d0 55 bd
       -0.031058064 -0.02117693 -0.037132263 -0.052200854
000070 73 13 49 bd 38 7d 81 bd 37 57 78 bd c2 54 a6 bc
       -0.049090814 -0.06322712 -0.06063005 -0.020304088
000080 52 9c 82 bd 05 85 73 bd a4 a4 1b bd 29 88 50 bd
       -0.06377472 -0.05945303 -0.03799881 -0.050911102
000090 d9 be 9a bc eb 1d 0b bd 2f b4 3a bd a1 4f d4 bc
       -0.018889831 -0.03396408 -0.045581993 -0.025916876
0000a0 80 2c 0c bd 13 e4 db bc f2 fd 21 bd 9c da 45 bd
       -0.034222126 -0.026842153 -0.03954882 -0.048304185
0000b0 46 36 38 bd ef ea 6a bd 11 ca 6d bd bd 2e 96 bc
       -0.044973634 -0.057352956 -0.058054034 -0.018332833
0000c0 c1 7d fb bc 86 f1 a8 bd 2a 06 38 bd 5b 50 ac bc
       -0.030699613 -0.08249192 -0.044927754 -0.02103441
0000d0 1c ff 2d bd a9 a4 68 bd 03 49 49 bd d7 07 97 bd
       -0.04247962 -0.056797657 -0.049141895 -0.07374542
0000e0 f1 cf af bd 10 fc 01 bd ba 25 3f bd da 34 17 bd
       -0.085845836 -0.031734526 -0.04666684 -0.036915638
0000f0 ae 52 82 bd 1b f5 ba bc 79 3d 7c bd 35 d0 e1 bc
       -0.06363426 -0.022821954 -0.061582062 -0.027565101
000100 75 58 a8 bc 1c 59 78 bd 73 db 88 bd bd de 3e bd
       -0.020549992 -0.060631856 -0.066824816 -0.04659914
000110 c8 e7 85 bd b0 d5 47 bd aa 1f 1e bd 5d 76 6b bd
       -0.065383494 -0.048787773 -0.038604416 -0.057485927
000120 d7 d3 42 bd cc 76 93 bd 4b b5 15 bd 6c 76 a2 bc
       -0.047565307 -0.07200393 -0.036549848 -0.019831859
000130 29 f0 ce bd 05 22 15 bd 5b d7 39 bd 38 c4 50 bd
       -0.10104401 -0.036409397 -0.045371395 -0.05096838
000140 cf f0 ff bc d6 ee 43 bd dc e1 e4 bc 49 89 21 bd
       -0.031242756 -0.047835194 -0.02793973 -0.039437566
000150 ee 4a 8c bd 77 94 6e bd 90 80 90 bc 7c cb 53 bd
       -0.06850229 -0.058247056 -0.017639428 -0.05170773
000160 77 b5 03 bd 03 ce ae bc db 41 27 bd da 3b 54 bd
       -0.03215548 -0.021338468 -0.04083429 -0.05181489
000170 88 0a 8c bd e6 32 8e bd 50 0d aa bc 73 30 3a bd
       -0.06837946 -0.06943302 -0.020758301 -0.04545636
000180 23 ec e4 bc f2 e6 50 bd d0 ed 84 bd d9 10 61 bd
       -0.02794463 -0.051001497 -0.06490672 -0.054947708
000190 79 b7 85 bd f2 f8 19 bd 6b de 58 bd 8a 67 ba bc
       -0.06529135 -0.03759093 -0.05294649 -0.02275445
0001a0 ee 1b 73 bc c4 fb 6c bd 35 9d 48 bd a4 4e ed bc
       -0.014838202 -0.05785729 -0.04897805 -0.028968163
0001b0 6b af 18 bd 8f 78 f8 bc 32 5d 4f bd 37 a7 5c bd
       -0.037276667 -0.030330924 -0.050625987 -0.053870406
0001c0 0c 2b 2a bd fd fa 2d bd 1d 6a 5f bc ee 6c 1d bd
       -0.04154496 -0.04247569 -0.013636139 -0.03843396
0001d0 3c 31 06 bd 02 d0 40 bd f8 97 61 bd 25 e5 e5 bc
       -0.032761797 -0.04707337 -0.05507657 -0.028063366
0001e0 81 6c 65 bd f0 0d d0 bc 2a 5a 67 bd 10 9f 96 bd
       -0.05601168 -0.02539727 -0.05648247 -0.073545575
0001f0 27 2f 23 bd 27 60 10 bd 93 fc 31 bd 07 cf a5 bd
       -0.03983989 -0.035247948 -0.043453764 -0.08096128
000200 72 1d 4e bd e7 ad f6 bc 70 5c 8c bd 23 95 3d bd
       -0.05032105 -0.03011222 -0.068535686 -0.046284806
000210 dc e6 7c bd 65 ef ab bc 70 fd ca bc f4 6f 30 bd
       -0.061743602 -0.020988176 -0.024779052 -0.043075517
000220 eb 81 2f bd c2 c7 6e bd 86 d7 38 bd 23 06 3e bd
       -0.04284851 -0.058295973 -0.045127414 -0.04639257
000230 4d cf 86 bd 7d 43 2e bd c1 82 55 ba a3 d7 eb bc
       -0.06582508 -0.04254483 -0.0008144789 -0.028789347
000240 26 17 2d bd 12 06 a3 bd e6 66 e3 bc 6c 2b 85 bd
       -0.042258404 -0.07960142 -0.027759027 -0.06502423
000250 37 e2 0c bd b3 fc 62 bd bd 0e b2 bd 3f ff 54 bd
       -0.034395423 -0.055416774 -0.08694217 -0.052001234
000260 4c 24 8e bd 8e 5c 49 bd 89 53 80 bd c9 d0 ba bc
       -0.06940517 -0.049160533 -0.06265933 -0.022804635
000270 a0 a6 aa bd 5c 8b b3 bc 1e a2 04 bd 46 ad 51 bc
       -0.083325624 -0.021917038 -0.03238117 -0.012797659
000280 ad ca 22 bd 36 ec 0c bb 29 e1 4e bd da df 39 bd
       -0.039744068 -0.0021503097 -0.0505077 -0.045379497
000290 fb f8 51 bd 15 64 a1 bc 8f e8 33 bd 87 15 7c bc
       -0.051262837 -0.019701043 -0.043922957 -0.015385992
0002a0 da 4f 1a bc d0 bc 08 bd c9 7e 45 bd 7b 66 5d bd
       -0.009418452 -0.03338319 -0.048216615 -0.05405281
0002b0 f3 bc 27 bd 7e fd 78 bd 6b 4b 33 bd 03 37 34 bd
       -0.04095168 -0.060788624 -0.043773096 -0.043997776
0002c0 65 50 03 bd 71 49 33 bc ae 35 83 bd c1 6a 82 bd
       -0.032059092 -0.010942803 -0.06406723 -0.06368018
0002d0 bb 2d 1f bd 82 12 63 bd e1 f2 42 bd 2c 73 1a bd
       -0.03886197 -0.055437572 -0.04759491 -0.037707493
0002e0 09 08 6d bd ba 8e c6 bc 86 6f 66 bc a8 14 0c bd
       -0.05786899 -0.02423798 -0.014064675 -0.034199387
0002f0 fd 21 06 bd ba e6 a0 bd 89 95 2e bd a6 0e 4c bd
       -0.032747258 -0.078565076 -0.042623077 -0.049818657
000300 5f 68 0e bd 35 0e 90 bd 76 5d c1 bc d7 9f e9 bc
       -0.034767505 -0.0703396 -0.023604136 -0.0285186
000310 23 25 00 bd 9e dc 46 bd e8 7f 24 bd 7b 1d 97 bd
       -0.031285416 -0.04855024 -0.040161043 -0.0737867

gc2.weight f4 [200, 200]
000000 73 69 dc bd 20 ae c2 3c c1 29 02 bd 09 ab 61 3d
       -0.107623 0.02376467 -0.0317781 0.055094752
000010 f4 4a 98 3d ae 63 e7 3d c0 bf 2b 3d 0b 2d 8d bd
       0.07436171 0.11298309 0.041930914 -0.06893357
000020 e9 58 82 bc 48 a2 0f be fe b8 21 3b b7 9d 41 bd
       -0.015911536 -0.14026749 0.0024676914 -0.04726955
000030 2c c2 5e 3d 2d 17 1b bd da c6 9a 3d 87 ba 31 3d
       0.054384395 -0.0378639 0.07557459 0.043390777
000040 ca 1f 78 bd 5b 6b 3d 3d 6a 76 82 bb 88 04 59 bd
       -0.06057719 0.04624496 -0.003981401 -0.052982837
000050 87 ba 74 bd b6 56 05 bd b4 96 05 bd 36 3e c9 bd
       -0.0597482 -0.032553397 -0.032614425 -0.09826319
000060 e7 61 36 3d 5b ce 00 bd f5 91 5e bd 26 58 fc 3d
       0.04452696 -0.031446796 -0.054338414 0.123215005
000070 fa ff b3 bd a0 a2 8a bd c3 43 85 3d 4b b8 03 3e
       -0.08789058 -0.067692995 0.06507065 0.12863271
000080 22 59 cc bc 40 ff 53 3d 54 b7 70 3e c3 88 a7 b9
       -0.024944846 0.051757097 0.23507434 -0.00031954618
000090 fc fb 33 3d b3 54 97 3d 94 f7 e2 bd ac 53 a9 3c
       0.043941483 0.07389202 -0.11082378 0.02066978
0000a0 f4 91 a7 3d 77 1a 4e be 61 c9 59 3d 4a 98 67 bd
       0.08182135 -0.20127283 0.053170566 -0.05654172
0000b0 1f 5b d9 3d 22 ff 06 bc d7 b2 dc bc 36 01 91 bd
       0.10613083 -0.008239539 -0.026940746 -0.07080309
0000c0 96 80 32 3e 6e f5 f3 3d 30 bc 2c 3d b2 5d cf bd
       0.17431864 0.119120464 0.042171657 -0.10125293
0000d0 0f 91 fd bd ae 0d b1 3c 4b 4b f5 bd 22 cf 98 3d
       -0.12381183 0.021612968 -0.119772516 0.074613824
0000e0 ab 39 c2 bd 98 ae 4f bd 06 b9 97 3c 0c e6 1d 3d
       -0.094836555 -0.050703615 0.018520843 0.038549468
0000f0 8c a9 ab bd a0 e5 7c bd d3 09 19 be 59 09 aa bd
       -0.08381948 -0.061742425 -0.14945154 -0.08302564
000100 07 dc 14 3d 0d a4 67 3d 03 ef 08 bc db 56 9c 3c
       0.036342647 0.056552935 -0.008357766 0.019084385
000110 53 9c 0e 3e 3a d6 84 3d 80 e3 aa 3d 56 02 22 bd
       0.1392682 0.06486173 0.083441734 -0.03955301
000120 26 9b cc 3a 8b 15 14 3d f8 67 6c 3c 47 fb 3e be
       0.0015610203 0.036153357 0.014429085 -0.18650542
000130 dd a3 bc 3c 42 84 ed bd 8f 48 14 3c 50 03 97 bd
       0.023027355 -0.11597492 0.009050502 -0.07373679
000140 bd 8d fd 3d 2e 40 71 3d c0 4b a9 3b d6 23 3a bd
       0.1238055 0.058899097 0.005166501 -0.045444332
000150 af 62 6b 3d 02 ba c0 bd 08 c7 e7 bd 18 1a f4 3d
       0.05746716 -0.09410478 -0.11317259 0.119190395
000160 41 6d 1d 3d 9a fa b0 3d b7 0e 64 bd 45 49 b9 bd
       0.03843427 0.086415485 -0.055678096 -0.09047178
000170 b3 34 de ba fe 8b b4 bd 90 8d b6 3d e7 15 12 3e
       -0.0016952961 -0.08815764 0.0891372 0.14266168
000180 62 35 ea 3d 3d eb 98 bd 0d e7 b0 bd ac dc 9a bd
       0.11435963 -0.07466743 -0.086378194 -0.07561621
000190 ec ac a2 3d f3 b0 87 3d 11 66 3f 3d 77 0b 4f 3d
       0.079431385 0.06625547 0.046728197 0.050548043
0001a0 9c c7 c0 3d 41 79 12 3c 84 44 83 bd 41 56 76 3d
       0.094130725 0.008940042 -0.06409553 0.060140852
0001b0 d0 dd 10 3e 03 15 99 bd 1f f4 f6 3d 0c a4 c2 bd
       0.14147115 -0.07474711 0.12058281 -0.09503946
0001c0 46 15 26 3c 86 ec df bd c2 85 40 3d 8d b4 69 bd
       0.010136908 -0.10933785 0.04700256 -0.057056952
0001d0 a1 f0 af bc 51 35 31 3d f9 b5 d1 bb 3e b9 13 3b
       -0.021477045 0.043263737 -0.0063998667 0.0022540833
0001e0 b4 59 13 be 89 c1 c6 35 d3 fa 7b bd ed 26 9a 3d
       -0.14389688 1.4808476e-06 -0.0615185 0.07526956
0001f0 44 26 87 bd 4d b9 9d 3d e2 8d 06 3e c4 67 25 bd
       -0.065990955 0.07701359 0.13140061 -0.04038216
000200 b4 d6 49 3b a6 b8 ed bd 4b c0 1a 3d 7a 96 ad 3d
       0.003079814 -0.116074845 0.03778104 0.08475967
000210 88 24 16 3d 9a ba 20 3e cb 69 5d bd 47 81 9f 3d
       0.036655933 0.15696183 -0.05405597 0.077883296
000220 90 2c 2d bb 88 f4 b3 3c 82 2b 26 bd 16 88 9e bd
       -0.0026424266 0.021967188 -0.040568836 -0.077408
000230 7c 53 7d 3d 6f 3c 60 bd f3 3c 2f 3c 37 2b d1 3a
       0.061847195 -0.054745134 0.010695684 0.0015958314
000240 8e 5b 3b 3c 23 f9 4a 3d 87 ec 18 3e a7 cc bf bd
       0.011435403 0.049554 0.14933978 -0.09365206
000250 77 e9 b0 3d 8b 5e 9d bd 5c 24 11 be 8e 30 af 3c
       0.0863828 -0.07684048 -0.14174026 0.021385457
000260 d9 47 17 bc 0f 10 24 3e 9c 5d cd ba fd c1 21 bc
       -0.009233438 0.16021751 -0.0015668157 -0.009872911
000270 3e 36 11 3e e2 de 8c 3d 81 27 08 be 1c b4 a9 bb
       0.14180848 0.06878449 -0.1329632 -0.0051789414
000280 67 79 2c bd 81 df ba 3d 08 56 63 3c 86 53 0d 3d
       -0.042107966 0.09124661 0.013875492 0.034503482
000290 a9 09 58 bd 93 98 b8 bd 5d f1 db bd 68 78 a7 bc
       -0.052743588 -0.09013476 -0.10739396 -0.020443156
0002a0 e2 26 e3 bc 91 d4 bf bd 3c 4b 52 3e ab a4 a0 bd
       -0.027728502 -0.09366716 0.20536512 -0.07843908
0002b0 70 20 a5 bd 5d 1d ae 3d d2 c5 f4 bd c7 6a 84 bd
       -0.080628276 0.08501694 -0.11951794 -0.06465679
0002c0 a8 e4 b5 bd 17 0a a7 bd 28 35 cb bb b6 62 a4 3d
       -0.08881503 -0.08156221 -0.006201405 0.0802664
0002d0 2d f8 8f bc fe 6f 75 3d e6 aa 94 bd 2e 56 5e bd
       -0.017574394 0.059921257 -0.07259159 -0.054281406
0002e0 40 62 21 be 6a df b7 bc 90 21 09 bd b6 5d d8 3c
       -0.15760136 -0.0224454 -0.033479273 0.026411872
0002f0 9a 1c 49 bb 0c b1 0b bd e7 3a 08 bc 48 4e b9 bd
       -0.0030687214 -0.034104392 -0.008314825 -0.09048134
000300 26 ad cd bd 60 01 d6 3d 18 f2 b4 bd 0b e8 b4 bd
       -0.10042791 0.10449481 -0.08835238 -0.08833321
000310 49 5c 4e bd 57 6d 5d bd bb c9 f7 bd 7b ac 61 3c
       -0.05038098 -0.054059353 -0.12099024 0.013774033
000320 28 2d 9b 3c 97 b9 a8 bd 07 a2 2d be 01 f3 d2 bc
       0.01894243 -0.082385235 -0.1695634 -0.025750639
000330 5c e4 0a 3d f8 36 46 3e b0 c3 0f 3c e4 e6 dd 3d
       0.033909187 0.19356906 0.008774683 0.108350545
000340 f1 07 25 be fe d2 39 3d 88 8f d4 bd 16 3f 72 3e
       -0.1611631 0.045367233 -0.10378939 0.23656878
000350 db ae 28 3d 84 07 14 3d 18 39 ea 3c 43 39 8e 3a
       0.04118238 0.03613998 0.028591678 0.0010850806
000360 76 a6 55 bd ab 7f 57 bb 31 2f ac 3d b6 46 25 3e
       -0.052160703 -0.0032882493 0.084074385 0.16140255
000370 65 ce a3 3d d2 c6 3e bd 37 e1 b2 bd 2e 35 0b 3e
       0.07998351 -0.04657633 -0.087343626 0.13594505
000380 28 1b f6 bc 30 02 b5 bd 56 6c 8b bc fa fb ea 3d
       -0.030042246 -0.08838308 -0.017019432 0.11473842
000390 93 b6 c0 bc d3 44 4c 3b 05 75 a1 3d 38 a1 4a 3d
       -0.023524558 0.0031168952 0.07883648 0.049470156
0003a0 6a f3 8c bc af 69 e2 bd 17 91 a6 3d 0e c0 1e 3e
       -0.017205913 -0.11055314 0.081331424 0.1550295
0003b0 8a 68 e9 3d e3 68 a0 bd ed 6c 4e 3d c1 6f 63 bd
       0.11396892 -0.078325056 0.05039685 -0.0555265
0003c0 e4 bc 72 bb 11 fa f9 3d f0 d0 84 bd 55 1e d0 bc
       -0.0037038857 0.122058995 -0.06485164 -0.025405088
0003d0 b1 20 6f 3d 90 f5 a7 bc 58 40 7c bc 8a 6c 9c bc
       0.058380786 -0.020502836 -0.0153962 -0.019094724
0003e0 1f 45 49 3e 45 53 19 3e 15 d2 06 3d 51 2a bb bd
       0.19655274 0.14973171 0.032915194 -0.091389306
0003f0 dd 2f ae bc eb 2f fc 3b 3d 9d 27 3e 78 94 ca bc
       -0.021263057 0.007696142 0.16368575 -0.024728999

gc2.bias f4 [200]
000000 4b ac c1 bb 5c a5 7f 3c 92 30 bb bc a0 5b d1 bc
       -0.0059104315 0.01560339 -0.022850309 -0.025556386
000010 9a 10 68 3c 51 3f a4 3b ee f5 66 bc 19 9d 4f 3c
       0.014164114 0.0050124307 -0.01409672 0.012671732
000020 e0 97 e7 3c b9 7f 12 3d 11 8d 98 3c a0 f3 03 bd
       0.028270662 0.035766337 0.018621953 -0.03221476
000030 f9 5d 69 bc fb 9d 09 3b cd 6b df bc c0 5b 07 bd
       -0.014243596 0.0020998705 -0.027273083 -0.033046484
000040 48 e4 19 3c ed 87 71 3b 6c a8 0e bb 07 dc b5 3b
       0.009392805 0.00368547 -0.0021767868 0.005549911
000050 6a 37 ef 3c 04 27 9a 3b b2 90 3b 3c 5c 91 0a 3c
       0.029201228 0.004704358 0.011448072 0.008457508
000060 c9 61 84 bb 0b 59 97 ba 9c 45 0b 3c b3 ca 16 bc
       -0.004039977 -0.0011546923 0.008500483 -0.009203601
000070 96 8b 90 3b c9 90 e3 ba 2a 25 0a 3b 64 ca eb bb
       0.004411171 -0.0017361875 0.002107928 -0.0071957577
000080 d6 e9 8f 3b 7a 83 cd 3a 0e 4d 79 3c 26 62 eb 3c
       0.004391889 0.0015679442 0.015216125 0.028733324
000090 8a 06 52 3c 38 9b ee 3c 7c 6b 9f bc 11 4c d0 3a
       0.012818942 0.029126748 -0.019460432 0.001589181
0000a0 64 25 22 3a cb 96 c4 3c 98 c5 b5 bc f8 de eb 3c
       0.0006185381 0.023997685 -0.022188947 0.028792843
0000b0 97 ed 36 bc 79 dd ea bb b9 74 f3 3c 97 b1 18 3d
       -0.011165044 -0.007167515 0.029718744 0.037278738
0000c0 65 bd 41 bc 42 15 75 3c d5 0d 88 bc 16 b7 e9 3c
       -0.01182494 0.014958682 -0.016608158 0.028529685
0000d0 1a 33 27 bc b0 e4 2d 3d c0 49 95 3c 9a cb a7 bc
       -0.010205055 0.04245442 0.018223643 -0.020482827
0000e0 cd 1b a6 3c 33 21 5e 3d 9d a8 05 bc 40 31 83 bc
       0.020276928 0.05423088 -0.008157876 -0.016014695
0000f0 be e1 ad bc ba eb 8f 3b 4c 2e b4 3c 25 12 fe 3c
       -0.021225806 0.0043921145 0.021994732 0.031014511
000100 2d 51 b3 3c 6a a2 f8 bb f0 66 24 bc 5e ab 62 3c
       0.021889294 -0.0075877206 -0.010034308 0.013834802
000110 18 15 c2 3c 83 33 02 3c f8 f2 e6 bc 60 53 e8 3b
       0.023691699 0.007946852 -0.028192028 0.007090017
000120 af 86 ac 3b f2 82 77 bb 50 f0 d4 bc 69 8b 34 3d
       0.005265079 -0.0037767258 -0.025993496 0.044078264
000130 86 82 f9 3c d9 fe 15 3b 8d 60 08 3c 7b 19 cc 3a
       0.030457746 0.0022887497 0.008323801 0.0015571559
000140 e2 de 1b 3d 8f c0 ba 3b 64 08 8d 3c 7e fb 1a bd
       0.038054354 0.0056992243 0.017215915 -0.037837498
000150 10 7d d3 3c 54 5d 42 bb 3c d5 84 3c ca 5e 2a 3b
       0.02581647 -0.0029657679 0.01621496 0.002599644
000160 a9 69 aa 3b 8c ba a8 3c 19 5a 19 bc 3c 6c 82 3c
       0.005200584 0.020596765 -0.00935986 0.01592075
000170 ce 42 d4 bb c1 41 da bb e5 70 24 bc 4c ae 03 3b
       -0.0064776903 -0.0066606705 -0.010036682 0.0020092903
000180 cb 0b f9 3b ea 17 11 bc 40 ad d7 bc ca 01 a2 3c
       0.007600283 -0.008855799 -0.02632773 0.019776244
000190 eb 82 89 3c c6 a4 09 3c cd b1 87 3c 9e 1a 97 3b
       0.01678606 0.008401101 0.016564274 0.0046113273
0001a0 8b 4b fc 3b 93 36 9b 3a fc be 89 3c ba cb 87 ba
       0.007699435 0.0011841826 0.016814701 -0.0010360398
0001b0 22 e9 ed bb a8 ef ef ba 77 16 b2 39 ec a2 51 3c
       -0.0072604576 -0.0018305676 0.00033967543 0.012795191
0001c0 67 bf c8 3b 95 a5 89 3c dd e0 9f 3c 61 c1 c8 ba
       0.0061263326 0.016802588 0.019516403 -0.001531642
0001d0 c1 ec b3 bb a7 1f a5 3a bc 40 73 bc 8e 63 84 bc
       -0.0054908697 0.0012597934 -0.014846977 -0.016160753
0001e0 a1 ff ab 3c e2 62 8c 3c 95 ba bb bb b8 3b 0e bc
       0.020995917 0.017136995 -0.0057290294 -0.00868123
0001f0 0e a4 0f 3d af 21 80 bb f4 09 07 bd 5c 61 cc 3c
       0.035068564 -0.0039102654 -0.032968476 0.024948768
000200 c5 94 84 3c 74 69 ac bc 05 1e 0f 3d 8f b4 b7 bc
       0.01618422 -0.021046378 0.03494074 -0.022424964
000210 c7 35 65 3c ff c7 13 3c b5 f6 6d bc 99 0a 77 3c
       0.013989872 0.009019851 -0.014524152 0.01507821
000220 b3 d4 27 bd 1d 9e 81 bc 9c e9 8d 3b af f0 6c bc
       -0.04097433 -0.015822465 0.004330827 -0.01446168
000230 e8 d7 bf bc fe 85 f7 bc 0e 9c b3 bc 3c 09 52 bc
       -0.023418382 -0.03021526 -0.021924999 -0.012819584
000240 a9 f9 02 bc b8 8a 79 3c 38 87 3e b9 13 85 b6 3b
       -0.007994094 0.015230827 -0.00018170185 0.005570063
000250 e0 84 95 3c a2 00 de 3c c7 dd b3 3c 5b 81 83 3b
       0.018251836 0.027099911 0.021956338 0.004013223
000260 0d 54 95 bb f9 b2 9c 3c fe dc 8b bc 06 03 e4 3b
       -0.004557139 0.01912831 -0.01707315 0.0069583682
000270 ed 02 a4 3b 9b 18 20 3d f7 97 ce 3b d7 b5 aa 3b
       0.0050052316 0.039085966 0.0063047367 0.0052096653
000280 70 a2 f5 3a 6e 68 da bb 94 69 ce bc a9 2b 51 3a
       0.0018740427 -0.006665281 -0.025196828 0.0007979223
000290 ed b0 6b bc ce eb 74 3c 31 df b7 3b ec bf 30 3d
       -0.014385444 0.014948798 0.0056113233 0.04315178
0002a0 70 3a 38 3c 03 74 80 3a 72 d1 17 bd 73 6f fa bb
       0.011244401 0.0009800199 -0.037064977 -0.0076426803
0002b0 b9 aa 97 3c d6 44 c4 bc da da 94 bc 41 51 28 bc
       0.018514024 -0.023958605 -0.018170763 -0.010273279
0002c0 6a 35 de bc 56 dc 9f 3c 6b 4c 09 bd 5d 51 75 38
       -0.02712508 0.019514244 -0.033520143 5.8488327e-05
0002d0 c5 c0 57 3b 29 76 6d 3c f3 38 72 3b ca b5 22 bc
       0.0032921296 0.014493504 0.0036960214 -0.009931037
0002e0 15 af 74 3c 4f 4c d0 3b 8c 26 55 bb 46 98 73 bb
       0.014934321 0.006356753 -0.0032524196 -0.003716962
0002f0 48 3c a7 3c 01 5f 55 bc 50 23 3f 3c 31 15 32 bc
       0.020414487 -0.013023139 0.011666134 -0.01086931
000300 c5 72 71 3c f5 ed d4 bc c0 74 22 3d 6a 59 24 3c
       0.014736836 -0.025992373 0.039662123 0.010031084
000310 16 c7 66 3a b0 5b 11 bc 1f b0 6c 3c f7 d2 fc 3c
       0.000880347 -0.008871958 0.014446287 0.030862315

gc3.weight f4 [200, 100]
000000 96 02 ba bd fc a4 0d be cc 8b d7 ba d7 90 33 3e
       -0.090825245 -0.13832468 -0.0016444861 0.17535721
000010 16 e7 7a bd 15 6c ed 3d 9b 42 7d bd e0 28 95 3d
       -0.061255537 0.11592881 -0.061831098 0.07283187
000020 fc 45 5a 3d bc 4b 41 3d 13 15 b7 3d c0 b7 e5 3c
       0.0532894 0.047191367 0.089395665 0.02804172
000030 7d fd 3f 3c 84 78 33 3d 41 56 a2 bd 29 4b 3e 3e
       0.011718151 0.043816105 -0.07926608 0.18583359
000040 f7 30 48 be b6 48 02 3c 49 40 07 3e bb ba 9d 3b
       -0.19549929 0.007951906 0.13208117 0.00481352
000050 87 a7 04 3c b8 51 11 be c5 3d b2 bc c1 79 38 bd
       0.008096582 -0.1419133 -0.02175797 -0.04503799
000060 8d 59 56 3d cd bf a1 bd 35 c2 f1 bd 93 6c 93 bd
       0.052331496 -0.07897911 -0.1180462 -0.07198443
000070 40 a6 7e bd b9 82 86 bc 1b f9 1d 3e 70 1f 10 3e
       -0.062170267 -0.016419755 0.15427057 0.14074492
000080 47 40 38 be 98 2c 30 bd 4a 03 e4 bc ec 18 08 bd
       -0.1799327 -0.043011278 -0.0278336 -0.033226892
000090 ee ff cb bc 6e 24 d6 3c 28 63 5f bb 91 c0 27 3e
       -0.02490231 0.026140418 -0.0034086201 0.16382052
0000a0 1d 2c b2 bc ec 3a 32 be 26 90 0f be ba ed 13 3d
       -0.02174955 -0.1740529 -0.14019832 0.036115386
0000b0 17 a9 32 be 38 b2 1f 3d 1c e3 0b bc b5 72 26 bd
       -0.17447315 0.038988322 -0.008538034 -0.040636737
0000c0 8a e8 c0 bc 38 69 b4 bd 68 7d 57 3d b8 be 13 be
       -0.023548383 -0.088091314 0.05260983 -0.14428222
0000d0 48 77 cb 3c 52 b9 b8 3c c8 46 c1 bc 60 9f 38 3c
       0.024837151 0.022549305 -0.023593321 0.011268467
0000e0 09 71 8a 3d 88 62 7e bd d1 51 fe 3d 7e 57 3e 3e
       0.06759841 -0.062105685 0.12417949 0.18588063
0000f0 a1 17 2c 3e fe 0f ab 3d db 51 3a 3d 2c 30 10 bc
       0.16805889 0.0835266 0.04548822 -0.008800548
000100 12 9f 9f 3d d7 fb 43 3e 65 df 6f 3d 8e a7 aa bc
       0.07794012 0.19139038 0.058562655 -0.02083185
000110 94 04 00 bd 6c 56 ba bd bf 03 00 be 8f f0 91 3d
       -0.031254366 -0.09098515 -0.12501429 0.07125961
000120 e1 39 84 bd 6b cf 19 bd b1 b5 83 3d 6e d0 b5 3d
       -0.06456352 -0.037551325 0.06431139 0.088776454
000130 3c e7 ad 3d 99 91 59 3d 25 0f e6 bd 04 7e 1c be
       0.0849137 0.05311737 -0.11233357 -0.15282446
000140 2b fe 31 3e b8 4e 0a be d2 b1 0a be 79 6f e4 3d
       0.17382114 -0.13506591 -0.13544396 0.11154074
000150 c2 66 5a bc 23 41 e5 bc 2a 2c e6 3c a9 15 45 3e
       -0.013330163 -0.027985161 0.028097231 0.19246544
000160 fb e9 d6 bd c9 15 d0 bb 39 7d 1c be e2 ec a9 3c
       -0.10493847 -0.0063502532 -0.15282144 0.020742837
000170 d2 59 bf 3c 69 7f 18 bd 7e d2 d8 bc f2 3e d3 3d
       0.02335826 -0.037230883 -0.026467558 0.1031474
000180 17 e4 04 bd e2 af 88 3d f5 63 56 3d 41 4a 30 3b
       -0.032444086 0.06674172 0.05234142 0.0026899728
000190 03 dd 98 3e 7f c9 e4 bb 4a 96 4d 3c ce 7d a9 ba
       0.2985612 -0.006982028 0.012548039 -0.001293117
0001a0 28 69 96 bd 1a 74 06 be ee 06 a2 3c b7 7e b4 3d
       -0.07344276 -0.13130227 0.019778695 0.088132314
0001b0 34 0e 60 bd b0 7b 4b bd 96 17 31 bd a3 ff 4d bd
       -0.054701045 -0.049678504 -0.043235384 -0.050292622
0001c0 cd 23 c5 bb be 86 4f be c0 21 0d bd 34 c0 d4 3d
       -0.0060162307 -0.20266244 -0.034456015 0.10388222
0001d0 58 ee dd 3d cf 84 bd bd 37 1e 8d bd dc 68 3e bd
       0.10836476 -0.09253847 -0.06890529 -0.04648672
0001e0 65 85 f5 3d aa f9 d6 3c dd fe a9 bd 6d 31 13 3c
       0.119883336 0.026242096 -0.083005644 0.008983952
0001f0 e8 d4 8e 3d 96 e4 22 3b 95 d3 8f bd 80 17 ee bc
       0.069742024 0.0024855486 -0.07022778 -0.02906394
000200 ee 7c 58 bc 8a 4a 98 3d 66 1d bc 3d be 56 4a bd
       -0.013213379 0.07436092 0.09185295 -0.04939913
000210 46 83 1f bc 32 25 a8 bc 42 07 33 3a db 9b 95 3c
       -0.009735888 -0.020525549 0.00068293896 0.018262794
000220 ab 02 90 bd 69 24 5f 3b c7 d6 cf 3d c4 3e 8a 3d
       -0.07031759 0.0034048802 0.101483874 0.06750253
000230 7f 09 e2 bd 70 69 14 bd b0 5e 6f 3d a1 cd fe bb
       -0.110369675 -0.036233366 0.05843991 -0.0077759777
000240 01 1d f6 bd 4c b3 15 be c3 57 70 bc 3e 13 cb 3c
       -0.12017251 -0.14619178 -0.0146693615 0.024789449
000250 d5 0a 19 be 5c 87 de bd 62 76 c9 3d 68 64 82 3d
       -0.14945538 -0.108656615 0.09837033 0.06366807
000260 5e 94 bb bd 21 5e e9 bd f3 d7 aa 3d 85 ce fc 3d
       -0.09159158 -0.11394907 0.0834197 0.12344078
000270 00 e3 d0 3d 4a 26 48 bd bf 90 09 3d c4 b0 d1 3b
       0.10199547 -0.04886464 0.033585306 0.006399246
000280 64 6a ca bc 54 15 74 bc 8c b2 ac 3d a3 e3 1f bc
       -0.024708934 -0.014897663 0.084324926 -0.009758863
000290 cb cf 73 bd 78 b2 9f 3a e3 73 d1 3b 1b 65 90 bc
       -0.05952434 0.0012183925 0.0063919886 -0.017626336
0002a0 d3 17 21 3d 98 0c 62 3d 06 3d ed 3d 38 46 42 be
       0.03932936 0.05518779 0.11583905 -0.18972099
0002b0 82 52 85 bb 46 ca 0e 3d 40 a9 ca 3d a2 5c 56 3d
       -0.0040686736 0.03486087 0.09895563 0.052334435
0002c0 92 09 56 3d aa ab e9 b8 89 bc 9f bd 7d 30 91 3c
       0.05225522 -0.00011142281 -0.07799632 0.017723316
0002d0 53 a7 37 bc db d6 a0 3d b3 d3 e7 bd f4 56 ed 3d
       -0.011209327 0.078534804 -0.11319675 0.115888506
0002e0 84 c2 3a 3e 54 cf f6 bc 06 01 32 3e b4 77 df 3c
       0.18238264 -0.030128159 0.17383203 0.027278759
0002f0 84 a7 ec 3c 1c 3d 75 bd 1d 66 4a bd 5c 41 c3 bb
       0.028888471 -0.05987273 -0.04941379 -0.005958719
000300 77 8c c4 3c af 9e 37 ba 87 7d 66 3c 98 02 49 3d
       0.02399276 -0.00070045417 0.014068014 0.04907474
000310 19 f4 2a 3c 34 e5 47 3d 35 77 71 3c ba 4e 69 bd
       0.010434174 0.04880257 0.014737894 -0.056959845
000320 86 10 b4 bb df 02 1b bc 0e b7 ff 3b 94 a7 fa bd
       -0.005495134 -0.009461134 0.0078038042 -0.12238994
000330 23 53 c2 bd e0 f9 27 bc e0 d4 6a 3e 34 85 2b bd
       -0.09488513 -0.010252446 0.22932768 -0.04187508
000340 1c a5 ad bd e3 4c 8a bd 61 ed 68 3d 84 a7 02 3e
       -0.08478758 -0.06752946 0.056867007 0.12759215
000350 82 25 86 3c a2 7e dc bd a3 21 46 3d 97 09 af bd
       0.016375307 -0.10766341 0.048371922 -0.08546751
000360 b3 1f d3 bb 5f e3 3c 3e dd 91 94 bd d5 b3 ef 3c
       -0.006442988 0.1844611 -0.07254384 0.029260555
000370 33 73 c1 bd dd 5d 7d 3d ee c2 24 3d 90 d1 4a bd
       -0.09445801 0.061857093 0.040224962 -0.04951626
000380 00 d6 e0 3c b0 57 8b bd 0e 5e d8 3c 33 c5 69 3d
       0.027445793 -0.068038344 0.026412036 0.05707283
000390 ab 97 6a bd 61 fe 00 bc f4 74 0f be dd 96 d0 bd
       -0.057273548 -0.007873149 -0.14009458 -0.10185025
0003a0 d1 39 91 3d 58 3a 91 38 ba 60 b9 bd 49 86 38 3b
       0.07091106 6.925006e-05 -0.09051652 0.0028156212
0003b0 2a e7 fe bd 0b 68 2f be 92 28 ca 3d a7 6d 1b be
       -0.12446435 -0.17129533 0.098710194 -0.15178548
0003c0 cb 17 4e 3c 59 de 26 3a 20 28 b2 bc 10 73 42 3d
       0.012578915 0.000636553 -0.021747649 0.047473013
0003d0 88 a8 d1 3d 82 39 c1 3d b5 01 94 bd 6d 6e c5 3c
       0.10237223 0.09434797 -0.07226888 0.024100507
0003e0 bf 6a f6 3b e6 9a 4e b9 6e 27 8f 3c 5d 80 f8 3d
       0.0075200493 -0.00019703395 0.017474856 0.12133858
0003f0 03 87 d4 bd 91 5e b9 3d a0 d6 4f be f1 f6 1b 3d
       -0.10377314 0.0905124 -0.20296717 0.0380773

gc3.bias f4 [100]
000000 d9 fd 42 bc e8 a8 a0 3c 38 f6 e0 3b c1 4d 6e 3c
       -0.011901342 0.01961179 0.006865289 0.014544905
000010 af 6c 06 bb 7a 0c 00 3c c7 aa fc ba 40 a3 1f bc
       -0.0020511558 0.007815475 -0.001927697 -0.009743512
000020 75 a2 98 bc ca 25 a0 bc d6 bf 9d bc 29 6f df 3b
       -0.018632153 -0.01954927 -0.019256514 0.0068186712
000030 31 6a d5 bb 28 b0 05 3d 42 30 d3 3a a5 39 31 bc
       -0.006512903 0.0326387 0.0016112404 -0.010816966
000040 20 af 8f 3b f8 eb fc ba 58 d4 aa bb f5 99 45 bc
       0.00438489 -0.0019296398 -0.0052133016 -0.012060632
000050 6f 42 73 3b 6f 30 e4 ba 0b ec 0a 3d 7b dd 27 bc
       0.0037118455 -0.0017409454 0.033916514 -0.010245676
000060 38 8a cf bc 2a 01 8e 3c 55 52 3b bb e8 03 86 bc
       -0.025334463 0.01733454 -0.002858301 -0.016359285
000070 23 c0 54 3c 4c 0b 82 bc bd 7c 04 bd 57 1e 80 bc
       0.012985262 -0.015874527 -0.032345522 -0.015639467
000080 bf 8c bc bb fb 86 73 3c 4e 32 e4 bb 4a 77 24 3c
       -0.005754083 0.014863725 -0.0069640046 0.010038206
000090 2c 07 b9 bc d8 6a 2e bc 1d bd 33 3c c9 78 50 bc
       -0.022586428 -0.010645591 0.010970381 -0.01272411
0000a0 b9 cb cb 3a 30 d2 8d bc c9 8a a0 3b 99 9b da 3a
       0.0015548385 -0.01731214 0.004899357 0.0016678452
0000b0 27 f9 30 3c c0 6e 5c ba 3d c7 21 ba 6d 4c 49 bd
       0.01080159 -0.0008408837 -0.00061713514 -0.04914515
0000c0 b5 e1 c6 3a e1 03 8c 3c cb c7 e0 bb 02 32 f4 bb
       0.0015173467 0.017091693 -0.0068597547 -0.0074522505
0000d0 9b d3 bb bc 10 11 d1 3b 42 32 e2 bb 86 49 2b ba
       -0.02292805 0.006380208 -0.006902964 -0.0006534088
0000e0 2e 76 32 bc 4e 89 ab bc c5 36 14 bd d2 8e 97 bc
       -0.010892434 -0.020939495 -0.036185045 -0.01850072
0000f0 59 75 34 bc ba 56 36 3c 49 06 0b 3d 5f 6f 11 bc
       -0.011014306 0.011129076 0.03394154 -0.008876651
000100 b1 10 6f bb 05 69 07 bd ba bf c7 bc 62 32 98 3c
       -0.0036478455 -0.03305914 -0.024383415 0.018578712
000110 ff e9 57 bc 3d b9 2c bb 4c c6 49 3c c6 f6 d1 3c
       -0.013178348 -0.0026355528 0.012315344 0.025630366
000120 aa ab 7f bb d7 27 b1 bc a4 24 8a bc bc a3 c8 bb
       -0.0039012232 -0.021625442 -0.016863175 -0.0061230343
000130 9f 69 6d 3c 71 25 9a bc 86 e6 c5 bc f6 50 94 bb
       0.014490514 -0.018816682 -0.024157774 -0.004526253
000140 11 65 17 3d 7f ed 93 3c 77 cb a9 bc 6c ea 51 3a
       0.03696162 0.018057583 -0.020726902 0.0008007649
000150 f5 41 27 3c 70 d7 1e bc 14 ce b2 bc 6c de 56 bc
       0.0102085965 -0.009694919 -0.021826781 -0.013114553
000160 9e ac 60 bc ae 21 4a ba eb 15 a0 bc 67 c4 a0 bb
       -0.01371303 -0.0007710707 -0.019541701 -0.0049062255
000170 af 7d ec 3b 01 e0 f8 ba 9f f9 61 3c ae 5e 9c 3c
       0.007217131 -0.0018987657 0.013792424 0.019088116
000180 00 ea 29 bb dd 37 1e bb 2a 14 22 3c ec 3d 89 ba
       -0.0025926828 -0.0024142184 0.009892503 -0.0010470725
