best_models/MOGONET/fold_3/E3.pth (torch, 901527 bytes, 6 tensors)

gc1.weight f4 [822, 200]
0	0x3d0bf535	0.034169395
1	0xbbbed0eb	-0.005823245
2	0x3daa4d34	0.083155066
3	0x3e310f80	0.17291069
4	0x3d6bfe1d	0.05761539
5	0x3d2750f4	0.040848687
6	0xbd8d80c3	-0.06909325
7	0x3ce625d9	0.028094219
8	0xbd18d8b0	-0.037316024
9	0x3c5e9679	0.01358568
10	0xbd914218	-0.070926845
11	0x3da0f252	0.07858719
12	0xbd3c8c23	-0.046032082
13	0xbd9c36d9	-0.07627649
14	0xbd8fee38	-0.070278585
15	0xbd84833e	-0.06470345
16	0x3dd78150	0.10522711
17	0x3c57d296	0.013172766
18	0x3c8b50be	0.017006274
19	0x3d2c6299	0.042086218
20	0xbb659bf5	-0.0035035585
21	0x3d818ea6	0.06326036
22	0x3d469bd2	0.048488446
23	0x3e1aeb9c	0.1512894
24	0x3b3b8082	0.0028610532
25	0x3b27f0fc	0.0025625816
26	0xbd456d08	-0.048199683
27	0xbc72bc61	-0.014815421
28	0x3e12b298	0.1432594
29	0xbd15dda9	-0.036588345
30	0xbb239de2	-0.0024965932
31	0x3ddd2f89	0.10800082
32	0x3dd6f71e	0.104963526
33	0xbd981306	-0.074255034
34	0xbd9b6044	-0.075867206
35	0x3cd9040d	0.02649119
36	0xbd881d05	-0.0664616
37	0x3cde9b49	0.027173655
38	0x3dd8eb3b	0.10591742
39	0xbd40b35a	-0.047046043
40	0xbdec3f40	-0.115355015
41	0x3c909562	0.017649356
42	0x3d32ea8a	0.043680705
43	0xbc97db5b	-0.018537214
44	0x3dbb7e6b	0.09154972
45	0xbc9bc790	-0.019016057
46	0x3d516af5	0.051127393
47	0xbcc9e52c	-0.02464541
48	0xbd8fca37	-0.07020991
49	0xbda2b053	-0.079437874
50	0x3b9a0eef	0.0047014873
51	0xbd7d4f83	-0.061843406
52	0xbc36875a	-0.011140669
53	0x3dc0c90b	0.09413346
54	0x3d982869	0.074295826
55	0x3d66b49f	0.056324597
56	0x3cf17c63	0.029478258
57	0xbd5e5bb7	-0.054286685
58	0xbd0f756c	-0.03502409
59	0x3c35303b	0.011058862
60	0xbcecd150	-0.028908402
61	0x3d35191f	0.04421341
62	0x3b971fc7	0.0046119425
63	0xbd71e517	-0.059056368
64	0xbd203a35	-0.03911801
65	0x3d27887b	0.040901642
66	0xbb506a37	-0.003180159
67	0xbdaa4ce0	-0.08315444
68	0xbcb4026b	-0.02197381
69	0xbd2bd4c6	-0.041950963
70	0x3d3c397f	0.04595327
71	0xbc757500	-0.014981508
72	0x3d38bda2	0.045102723
73	0x3dbb9742	0.091597095
74	0xbd6f178c	-0.058372065
75	0xbddde2ce	-0.10834275
76	0xbd9981d1	-0.07495464
77	0x3cda4582	0.026644472
78	0xbd2d4259	-0.042299602
79	0xbd13e8db	-0.03611074
80	0xbda15e6f	-0.0787934
81	0x3e202644	0.15639597
82	0x3c934478	0.017976984
83	0xbd5494da	-0.05189977
84	0x3c855831	0.016277405
85	0x3c829434	0.01593981
86	0x3dd1fe46	0.10253577
87	0x3d5eb968	0.054376036
88	0xbd9c32ac	-0.076268524
89	0xbdb0d812	-0.08634962
90	0x3d1aaf9d	0.037765134
91	0xbd456e5b	-0.048200946
92	0xba465d2e	-0.00075669854
93	0xbd9ee8de	-0.0775926
94	0x3d7ef160	0.062241912
95	0x3b6bc3b5	0.0035974805
96	0xbcc659ed	-0.024212802
97	0x3db8e2fb	0.09027668
98	0x3d802024	0.0625613
99	0xbd9f8141	-0.07788325
100	0x3daae223	0.083439134
101	0x3e0b92e6	0.13630256
102	0xbb0b7242	-0.002127782
103	0x3d293a65	0.041315455
104	0x3cbfd3d8	0.023416445
105	0xbd21cf6f	-0.039504465
106	0x3d088d19	0.033337686
107	0x3daa0318	0.08301371
108	0xbdbbcee7	-0.09170323
109	0x3d9aeda3	0.07564857
110	0x3d9f8a35	0.07790033
111	0xbc9cda51	-0.01914707
112	0xbc2da72a	-0.010598937
113	0x3ca1f953	0.019772207
114	0x3c95edd2	0.018301878
115	0x3d80ac73	0.06282892
116	0xbd3ebfcd	-0.046569634
117	0x3cd5f307	0.026116861
118	0xbcb4d2f0	-0.02207324
119	0xbd8eb6b2	-0.0696844
120	0x3bd4ea92	0.0064976895
121	0xbd51b6ad	-0.051199604
122	0x3d3779f9	0.044794057
123	0x3da566d3	0.08076253
124	0x3d84396f	0.06456267
125	0x3c551bb8	0.013007097
126	0x3d229d8b	0.039701026
127	0xbd7a17b8	-0.061057776
128	0xbcd44d8d	-0.025915885
129	0x3d4fc64e	0.050726227
130	0x3dd11695	0.10209385
131	0x3b3cd11f	0.002881117
132	0x3dc83136	0.09775011
133	0xbd97f1f9	-0.074191995
134	0x3c0ae9e1	0.008478613
135	0xbd37fe21	-0.04492009
136	0x3ce8f73d	0.028438205
137	0x3d2a4503	0.04156972
138	0x3d918a63	0.07106473
139	0xbced3ccd	-0.028959656
140	0x3d331dcd	0.043729592
141	0x3cc2471a	0.023715544
142	0xbdabcfc8	-0.083892405
143	0xbd3ca84f	-0.04605895
144	0xbd895783	-0.06706145
145	0x3cb0b5bf	0.021571038
146	0xbdeac413	-0.114631794
147	0xbb1e707d	-0.0024175935
148	0xbc3323e8	-0.010933854
149	0x3d6bb34b	0.057544034
150	0x3b55fb6d	0.0032651082
151	0xbda35de5	-0.07976893
152	0x3d05d01d	0.032669175
153	0x3ba50ff4	0.005037302
154	0xbd2c4220	-0.04205525
155	0xbdd8af9c	-0.1058037
156	0x3c49c446	0.012314862
157	0xbb01b8c4	-0.0019793967
158	0xbcbe857e	-0.023257013
159	0xbd1783af	-0.036990818
160	0xbd331dd9	-0.043729637
161	0x3cba6a43	0.022755748
162	0x3d92d117	0.07168787
163	0x3ce87b56	0.028379124
164	0x3dad0acf	0.08449327
165	0xbd9e4321	-0.077276476
166	0xbd5b2a7b	-0.05350731
167	0x3d0f3e21	0.03497136
168	0xbdabc0f6	-0.08386414
169	0xbcd34117	-0.025787873
170	0x3c429968	0.011877395
171	0xbdc2e522	-0.0951636
172	0xbd87c8ec	-0.0663012
173	0x3d1704b5	0.036869723
174	0x3c29e41a	0.010369325
175	0x3d2ed9e5	0.04268827
176	0x3d905283	0.07046988
177	0x3d3b2c1a	0.045696355
178	0x3b0da72b	0.0021614532
179	0x3d9de52c	0.07709727
180	0x3da3bb1a	0.07994671
181	0x3d076436	0.033054553
182	0x3d83d975	0.06437961
183	0xbdd773a2	-0.10520102
184	0xbd6c48ac	-0.057686493
185	0x3c9bdeb9	0.0190271
186	0xbc7c013c	-0.015381154
187	0x3c803c6a	0.015653808
188	0x3d6d2a38	0.05790159
189	0xbd683e0b	-0.056699794
190	0x3c26ea9a	0.010187769
191	0x3cb53fb8	0.02212511
192	0x3dae71b2	0.085177794
193	0x3ce070a0	0.027397454
194	0xbdb97346	-0.0905519
195	0x3ca19865	0.019725988
196	0xbdcff91b	-0.10154935
197	0x3cd3f783	0.025874859
198	0xbdb91c45	-0.09038595
199	0x3d750560	0.05981958
200	0xbbf92780	-0.0076035857
201	0xbcacdf19	-0.021102475
202	0x3cecc940	0.028904557
203	0xbc7ee589	-0.015557655
204	0x3be5c568	0.007012058
205	0x3d6a43bf	0.057193514
206	0x3c26bb71	0.010176525
207	0xbb4083bc	-0.0029375395
208	0xbd000964	-0.031258956
209	0x3cb8149c	0.022470765
210	0xbceefac9	-0.029172318
211	0xbc82b245	-0.015954146
212	0x3ceeb6ad	0.029139841
213	0x3d18b720	0.037284017
214	0x3d31a531	0.04337043
215	0xbb6094d0	-0.0034268387
216	0x3c6513a1	0.013981731
217	0x3d9b0c5b	0.07570716
218	0x3d1b699f	0.037942525
219	0x3d16d61d	0.036825288
220	0xbd557ec3	-0.052122843
221	0x3d2ffc8f	0.042965468
222	0xbbb8b33f	-0.005636602
223	0xbcab87f6	-0.020938855
224	0xbda7653c	-0.08173606
225	0xbd3bd9fd	-0.045862187
226	0x3d2f16cc	0.04274635
227	0x3d242c82	0.04008151
228	0xbd2f8878	-0.042854756
229	0xbd1a9f5d	-0.037749637
230	0x3ca42214	0.020035781
231	0xbd78893a	-0.060677744
232	0x3cc50601	0.024050714
233	0x3c3a2c5f	0.011363118
234	0x3b610530	0.0034335367
235	0xbd4de763	-0.050269496
236	0x3d0a1e78	0.033720464
237	0xbdcd27ee	-0.100173816
238	0xba7ab08c	-0.00095630507
239	0x3be19378	0.0068840347
240	0x3d388272	0.045046277
241	0xbd50af70	-0.05094856
242	0xbc5c66ca	-0.013452241
243	0x3ce6446d	0.0281088
244	0x3c74f811	0.014951722
245	0x3d3cfecf	0.046141442
246	0x3cc66fdd	0.024223262
247	0x3c572119	0.01313045
248	0xbd9327b2	-0.07185306
249	0x39cd4af4	0.0003915649
250	0x3daf688a	0.08564861
251	0xbc64a260	-0.013954729
252	0xbd03fb2b	-0.032221954
253	0xbe3fb4c2	-0.18721297
254	0xbd0f7391	-0.035022322
255	0x3ce21e52	0.027602348

gc1.bias f4 [200]
0	0xbd800bd5	-0.06252257
1	0xbc96e3bb	-0.018419137
2	0xbc9e7930	-0.019344896
3	0xbd0633e0	-0.032764316
4	0xbd6dd0d8	-0.058060497
5	0xbbd5ec68	-0.006528426
6	0xbdac892c	-0.08424601
7	0xbd66567d	-0.056234825
8	0xbd1bacfd	-0.03800677
9	0xbd80bbe0	-0.06285834
10	0xbd6b68e5	-0.057473082
11	0xbdbd9ef2	-0.09258832
12	0xbcdd8515	-0.027040998
13	0xbc6bc003	-0.014389041
14	0xbd347354	-0.044055298
15	0xbcf469f3	-0.029835677
16	0xbcad5bfa	-0.021162022
17	0xbd0c1dbb	-0.03420804
18	0xbcc60f4a	-0.024177212
19	0xbd6588a4	-0.056038514
20	0xbd1c1499	-0.03810558
21	0xb8c4c18c	-9.382059e-05
22	0xbd92f7b8	-0.07176155
23	0xbcc58ff8	-0.024116501
24	0xbd856594	-0.06513515
25	0xbdc73f2c	-0.09728846
26	0xbd0ca8c9	-0.034340654
27	0xbd1f12a9	-0.038836155
28	0xbd130e4a	-0.0359023
29	0xbc80bc7d	-0.015714878
30	0xbc87bf13	-0.016570603
31	0xbd16e840	-0.036842585
32	0xbb4b4030	-0.00310136
33	0xbd09da2c	-0.03365533
34	0xbda8a654	-0.082348496
35	0xbd9ed686	-0.07755761
36	0xbd826bf2	-0.06368245
37	0xbc2681b1	-0.010162757
38	0xbccb2256	-0.024796646
39	0xbd376136	-0.044770442
40	0xbd89dbef	-0.06731402
41	0xbd5c5afa	-0.0537977
42	0xbc00262a	-0.007821599
43	0xbd0138b2	-0.03154821
44	0xbd0a24a4	-0.03372635
45	0xbd5bfe91	-0.05370957
46	0x3bc47780	0.005995691
47	0xbd3f0762	-0.0466379
48	0xbd933505	-0.07187847
49	0xbda86464	-0.08222273
50	0xbca9a28c	-0.020707391
51	0xbd81babe	-0.06334446
52	0xbd652636	-0.055944644
53	0xbc6b778b	-0.014371763
54	0xbcb8268c	-0.022479318
55	0xbd2aba27	-0.041681435
56	0xbc73acd6	-0.01487275
57	0xbd1a96e2	-0.03774155
58	0xbd38060e	-0.04492765
59	0xbcf32fa1	-0.029685797
60	0xbcfeb584	-0.031092413
61	0x3c908862	0.017643157
62	0xbd48a05c	-0.048981056
63	0xbd75023d	-0.059816588
64	0xbd49c9d1	-0.049264733
65	0xbd85d7b5	-0.065352835
66	0xbd789563	-0.06068934
67	0xbd408924	-0.047005787
68	0xbd82d6b2	-0.06388606
69	0xbd9cdd5b	-0.07659408
70	0xbc100109	-0.008789309
71	0xbca8d038	-0.020607099
72	0xbd0208a8	-0.031746536
73	0xbd3aab66	-0.045573615
74	0xbd0de30c	-0.034640357
75	0xbd5c96a0	-0.053854585
76	0xbd7ca914	-0.061684683
77	0xbd0c634b	-0.03427438
78	0xbd4fa3ad	-0.050693203
79	0xbbe08a33	-0.006852412
80	0xbd68d4a6	-0.056843422
81	0xbce64d67	-0.02811308
82	0xbcd32c96	-0.025778096
83	0xbd8b227e	-0.06793688
84	0xbd0eea81	-0.03489161
85	0xbd7c2233	-0.061556052
86	0xbcb2788c	-0.021785997
87	0xbd841e6d	-0.06451116
88	0xbd830ade	-0.06398557
89	0xbd39cac4	-0.045359388
90	0xbc67715e	-0.01412615
91	0xbd0ce1e3	-0.03439511
92	0xbd5abf50	-0.053405106
93	0xbda7b490	-0.081887364
94	0xbc9f7c33	-0.019468402
95	0xbd1023f8	-0.035190552
96	0xbd5853bd	-0.052814234
97	0xbcb9776e	-0.022639956
98	0xbd5aa431	-0.05337924
99	0xbd7de0df	-0.061982032
100	0xbcbdb11c	-0.023155741
101	0xbbaa2f1a	-0.005193603
102	0xbda8550f	-0.08219349
103	0xbd6e8f6b	-0.058242243
104	0xbc3068f5	-0.010767211
105	0xbc326e2b	-0.010890524
106	0xbc512637	-0.012765459
107	0xbcab84e3	-0.020937389
108	0xbd3d07e9	-0.04615012
109	0xbc68332f	-0.014172359
110	0xbcc8f443	-0.024530536
111	0xbc909be0	-0.017652452
112	0xbce553aa	-0.027993996
113	0xbbd7a8b7	-0.0065813917
114	0xbc3b2072	-0.01142131
115	0xbcefac3a	-0.029256929
116	0xbd905023	-0.07046535
117	0xbd1634e7	-0.036671545
118	0xbd9ad480	-0.075600624
119	0xbd7381f3	-0.0594501
120	0xbc597a9d	-0.013273862
121	0xbd566190	-0.052339137
122	0xbc4ab463	-0.012372109
123	0xbd6f484a	-0.05841855
124	0xbd163d1c	-0.036679372
125	0xbd217f9e	-0.039428346
126	0xbd245f4a	-0.040129937
127	0xbd530ada	-0.05152402
128	0xbd98da1f	-0.07463478
129	0xbcd0e6fa	-0.025500763
130	0xbcc46186	-0.023972284
131	0xbc32040c	-0.010865223
132	0xbc8dbc45	-0.017301688
133	0xbd404d7e	-0.046948902
134	0xbdd84596	-0.105601475
135	0xbd421edb	-0.047392707
136	0xbc2eacb6	-0.010661295
137	0xbd1e9f69	-0.038726244
138	0xbd4f995d	-0.050683368
139	0xbd26fe70	-0.040769994
140	0xbccd021d	-0.025025422
141	0xbd06b2b0	-0.032885253
142	0xbd88abb2	-0.06673373
143	0xbd1a34f6	-0.037648164
144	0xbdba47f9	-0.09095759
145	0xbd24ccb5	-0.040234286
146	0xbd473f36	-0.048644267
147	0xbd030f34	-0.03199692
148	0xbcabf3e0	-0.020990312
149	0xbd2908a4	-0.041268006
150	0xbd7629f7	-0.060098615
151	0xbd24087a	-0.040047146
152	0xbd8586bc	-0.06519839
153	0xbd631f50	-0.055449784
154	0xbd8b52a2	-0.0680287
155	0xbcec5c77	-0.028852684
156	0xbce84d27	-0.028357102
157	0xbc9d54af	-0.01920542
158	0xbdba2273	-0.09088602
159	0xbd26f863	-0.040764224
160	0xbd73e2c6	-0.05954244
161	0xbd6b712c	-0.057480976
162	0xbd624f99	-0.05525169
163	0xbd0b9ff9	-0.03408811
164	0xbbfcbc9d	-0.007712914
165	0xbd7f2e6c	-0.06230013
166	0xbd7e0460	-0.06201589
167	0xbc12cdc6	-0.008960193
168	0xbd85876b	-0.065199696
169	0xbd9a8651	-0.0754515
170	0x3c35d78d	0.011098755
171	0xbd61ac5d	-0.05509602
172	0xbd1dfb12	-0.038569517
173	0xbc4cee21	-0.012507946
174	0xbd0310f0	-0.031998575
175	0xb9ed4e87	-0.0004526267
176	0xbcd7716f	-0.026299207
177	0xbd755cfb	-0.059903126
178	0xbc0ce2fa	-0.008599037
179	0xbc4d3f27	-0.012527264
180	0xbcf98926	-0.030460905
181	0xbccd096a	-0.025028903
182	0xbd58805b	-0.052856784
183	0xbd481fb6	-0.048858367
184	0xbd8579c4	-0.065173656
185	0xbcc2a63b	-0.023760905
186	0xbd2b0749	-0.041754995
187	0xbccf1780	-0.02527976
188	0xbc27dbcb	-0.010245274
189	0xbd54cd29	-0.05195347
190	0xbca1ea2c	-0.019764982
191	0xbd633a2b	-0.055475395
192	0xbd34842a	-0.044071354
193	0xbce31355	-0.02771918
194	0xbd4e06ec	-0.05029957
195	0xbd42e326	-0.047579907
196	0xbc035f3e	-0.008018313
197	0xbb0e39b8	-0.0021701884
198	0xbd2af618	-0.0417386
199	0xbd07a628	-0.033117443

gc2.weight f4 [200, 200]
0	0xbd28b30a	-0.04118637
1	0x3cb56494	0.022142686
2	0x3c398441	0.011323036
3	0xbdb3bc3e	-0.08776139
4	0xbd2b38c3	-0.04180218
5	0x3d11ba8d	0.0355783
6	0x3dbbcfcf	0.09170496
7	0xbdde70e9	-0.1086138
8	0xbdb3e9ee	-0.08784853
9	0xbccb38d7	-0.024807377
10	0x3b4b77b9	0.0031046702
11	0x3c46f06c	0.012142282
12	0x3db8fb69	0.09032328
13	0x3d869f90	0.06573403
14	0xbdfdd4f8	-0.12394136
15	0x3d7a7a5a	0.06115184
16	0x3cf0d11b	0.029396584
17	0x3cedf15d	0.029045755
18	0x3da22d96	0.07918851
19	0x3adb8d22	0.0016750435
20	0xbe2eb53c	-0.17061323
21	0x3d25e52a	0.04050175
22	0x3cb0aaab	0.021565756
23	0x3d937820	0.072006464
24	0xbdba48ff	-0.09095954
25	0xbc5e4170	-0.013565406
26	0xbd9ffeb9	-0.07812256
27	0xbd85d281	-0.06534291
28	0xbe02449c	-0.12721485
29	0x3da2aff9	0.0794372
30	0x3d160049	0.036621366
31	0xbdb07725	-0.08616475
32	0xbdcae1d2	-0.09906353
33	0xbd442835	-0.047889907
34	0x3e546453	0.20741396
35	0x3dcd8efb	0.10037037
36	0xbdb718fe	-0.08940314
37	0xbd8706bb	-0.065930806
38	0xba62adeb	-0.00086471316
39	0xbd63efc2	-0.055648573
40	0x3da16e73	0.07882395
41	0x3db3a1bb	0.08771082
42	0x3ca69bb7	0.020337922
43	0xbda64a0e	-0.081195936
44	0xbd2f311f	-0.042771455
45	0xbbd9bcc2	-0.006644816
46	0xbd052b56	-0.03251203
47	0xbce61175	-0.028084496
48	0xbcd21a52	-0.025647316
49	0x3d4389c2	0.047738798
50	0x3db5a07c	0.088685006
51	0xbcda321a	-0.026635218
52	0xbd438294	-0.04773195
53	0x3c8a2cdc	0.016867094
54	0xbca62fc7	-0.020286454
55	0xbe094c0b	-0.13407914
56	0x3e0c7406	0.13716134
57	0x3d914629	0.0709346
58	0x3bd50762	0.0065011242
59	0xbd3f9b29	-0.04677883
60	0x3d6c706f	0.057724413
61	0xbd93b133	-0.072115324
62	0xbe2e6f5d	-0.17034669
63	0x3d87356e	0.06601988
64	0x3df32d6a	0.118738964
65	0xbd76c1b1	-0.060243312
66	0x3d7ac693	0.06122453
67	0xbbe34598	-0.0069357865
68	0x3da84ad9	0.08217401
69	0xbd080116	-0.03320416
70	0xbdffe085	-0.124939956
71	0x3d9d4060	0.07678294
72	0xbca0b539	-0.019617664
73	0x3ba3539f	0.0049843336
74	0x3dc69113	0.096956395
75	0xbc0d96a8	-0.008641876
76	0x3b64f3d0	0.0034935363
77	0xbca30a86	-0.019902479
78	0xbd072f12	-0.033003874
79	0x3cf8c356	0.030366581
80	0x3d1b05f9	0.037847493
81	0x3d64329e	0.055712335
82	0xbc6a690f	-0.0143072745
83	0x3d8d49a8	0.068988144
84	0x3d00e323	0.031466614
85	0x3e2992a4	0.16559845
86	0xbcab0250	-0.020875126
87	0xbd195656	-0.037435852
88	0xbd3576c8	-0.04430273
89	0x3e024b9c	0.12724155
90	0xbda35857	-0.07975834
91	0x3df0bfa1	0.117553
92	0x3d62cc4c	0.055370614
93	0x3db46e77	0.08810132
94	0xbe753295	-0.23945077
95	0x3b68e76b	0.0035538326
96	0x3cb0c498	0.021578118
97	0xbd3ae1dd	-0.045625556
98	0xbadae123	-0.0016699176
99	0xbe0bc032	-0.13647535
100	0x3d69446d	0.05695002
101	0x3dc82739	0.09773106
102	0xbd096dda	-0.03355203
103	0xbd9c3030	-0.076263785
104	0x3cbfa54e	0.023394253
105	0xbdab2aa8	-0.083577454
106	0xbd46bbd2	-0.048518963
107	0x3cb51b42	0.022107724
108	0xbbad3292	-0.0052855695
109	0xbbbe57bb	-0.005808798
110	0xbdbf606c	-0.09344563
111	0xbca57322	-0.020196501
112	0x3cc6e341	0.024278285
113	0xbd450554	-0.048100784
114	0xbba83400	-0.005133152
115	0xbd554301	-0.052065853
116	0xbe28ea11	-0.16495539
117	0xbd5d6a4f	-0.054056462
118	0x3dc08950	0.0940119
119	0xbc6562ea	-0.014000634
120	0xbc2d7aa0	-0.010588318
121	0xbd340311	-0.043948237
122	0xbdaa669c	-0.083203524
123	0xbdb0c30d	-0.08630953
124	0x3cc2ca80	0.0237782
125	0xbd897bde	-0.06713079
126	0x3c69b293	0.014263767
127	0xbd80091e	-0.06251739
128	0x3cf4df7f	0.029891727
129	0xbe6a4ec2	-0.22881606
130	0x3e26e920	0.16299868
131	0xbc0b49e7	-0.008501506
132	0xbd8c56b3	-0.06852474
133	0x3e434be6	0.19071922
134	0xbda46326	-0.080267236
135	0x3d36e459	0.044651363
136	0xbcf50a4e	-0.02991214
137	0xbca482f1	-0.020081969
138	0xbb20e8cb	-0.0024552818
139	0x3d7acca3	0.061230313
140	0xbc741a4d	-0.014898849
141	0x3c7c04eb	0.015382032
142	0xbdc5e5e5	-0.096629895
143	0x3e0a10e2	0.13483003
144	0x3e2109c0	0.15726376
145	0xbd9ef7bb	-0.077620946
146	0xbd63ee9a	-0.05564747
147	0x3e20aa40	0.15689945
148	0x3dec4de0	0.11538291
149	0x3da38e3d	0.07986114
150	0x3df2bb6c	0.11852154
151	0xbce3ae41	-0.027793052
152	0xbd814467	-0.06311875
153	0xbde32d52	-0.110926285
154	0x3cd13377	0.025537236
155	0x39669cd7	0.00021992937
156	0x39ebe0d2	0.00044990197
157	0x3cdae7cc	0.026721857
158	0x3d88f51c	0.06687376
159	0x3db29e49	0.08721597
160	0x3cf5be37	0.029997928
161	0x3cef4e8d	0.02921226
162	0x3d54f7e8	0.051994234
163	0xbe72fe54	-0.23729831
164	0x3d130dbb	0.035901766
165	0xbe108d07	-0.14116298
166	0x3dae28b8	0.0850386
167	0xbdcae5bd	-0.099071
168	0xbd72dfdd	-0.059295524
169	0xbd4b49c1	-0.049630884
170	0xbb426d10	-0.0029667057
171	0xbdcd80f6	-0.10034363
172	0x3d8607ba	0.065444425
173	0xbdda2d85	-0.106532134
174	0x3ce7620b	0.028244993
175	0x3c54f51d	0.012997893
176	0x3da6d9cc	0.0814701
177	0xbe0dda59	-0.13852824
178	0x3c7e2e83	0.015514019
179	0x3e2905b1	0.16506077
180	0xbdcd98f7	-0.10038941
181	0x3c43efee	0.011959059
182	0x3d77c07c	0.0604863
183	0xbcf70dc5	-0.030157933
184	0x3cced1fd	0.025246615
185	0x3d29e79d	0.04148065
186	0xbc99a2b7	-0.018754346
187	0x3ad450b5	0.0016198369
188	0xbd2b1a66	-0.041773222
189	0x3c2daa45	0.010599677
190	0xbdd2c5bf	-0.10291623
191	0x3d27459b	0.040837865
192	0x3d44f434	0.048084453
193	0xbc700c8f	-0.014651432
194	0x3d6fd89f	0.058556195
195	0x3d29fafb	0.04149912
196	0xbccb9b78	-0.024854407
197	0xbd9dee17	-0.07711428
198	0x3da6e66f	0.081494205
199	0xbdaf71ab	-0.08566602
200	0x3c8de44e	0.017320778
201	0x3c2d8c3a	0.010592515
202	0xbaefece4	-0.0018304852
203	0x3da257bd	0.07926891
204	0x3c5ee065	0.0136033045
205	0xbc573dc6	-0.0131372865
206	0xbbe22d63	-0.006902383
207	0x3d66d5b1	0.056356136
208	0x3d379c4a	0.044826783
209	0x3db4488a	0.08802898
210	0x3d6278e3	0.055291068
211	0xba383800	-0.00070273876
212	0x3d14f2b1	0.03636426
213	0x3d07103b	0.032974463
214	0xbd696bf5	-0.05698772
215	0xbdd25b1d	-0.10271285
216	0x3ccc8153	0.02496401
217	0x3d61ecda	0.05515752
218	0xbde9d7aa	-0.11418088
219	0x3d529c50	0.051418602
220	0x3cf8f875	0.030391911
221	0xbe1db3c9	-0.15400614
222	0xbb22e28f	-0.0024854278
223	0xbcdc922b	-0.026925167
224	0x3d7b280b	0.061317485
225	0xbd6d255d	-0.05789696
226	0xbe3bd1ab	-0.183417
227	0x3db44ee8	0.08804113
228	0x3cb92308	0.022599712
229	0x3d27a474	0.04092832
230	0xbdc7851b	-0.09742185
231	0xbdb82106	-0.08990674
232	0x3d636c38	0.055523127
233	0x3d43f0f8	0.047837228
234	0x3cf45ca4	0.02982933
235	0xbd93beef	-0.07214152
236	0xbc356a36	-0.011072686
237	0xbe24bdca	-0.16088024
238	0xbdc156ba	-0.0944037
239	0x3d2cac34	0.042156413
240	0x3caca018	0.021072432
241	0x3aae7c65	0.0013312219
242	0xbcf09038	-0.029365644
243	0xbdcdf8e6	-0.10057239
244	0x3d789772	0.060691305
245	0xbcbfb6cb	-0.023402592
246	0xbd100e35	-0.0351698
247	0xbc6ec082	-0.014572265
248	0x3c58a26a	0.013222316
249	0xbd3cfe7d	-0.046141136
250	0x3d22e56b	0.03976957
251	0x3d1cd0ea	0.038285173
252	0x38ffb829	0.0001219365
253	0x3de97282	0.11398794
254	0x3ccbb63a	0.024867166
255	0x3cdd5fa3	0.027023142

gc2.bias f4 [200]
0	0x3b515d28	0.0031946395
1	0xbc5ff9f8	-0.013670437
2	0x3ba4820d	0.005020386
3	0x3baebdc0	0.0053326786
4	0x3bcb014e	0.006195224
5	0x3ca5d412	0.020242725
6	0xbc9db5a4	-0.019251652
7	0xbb05a535	-0.002039266
8	0xbc33416e	-0.010940893
9	0xbc8afb44	-0.016965516
10	0xbc3eb903	-0.01164079
11	0xbc85e9d1	-0.016346844
12	0x3be70e66	0.007051277
13	0xbb7a212c	-0.0038166745
14	0x3bb885c2	0.0056311795
15	0xbc82af1c	-0.01595264
16	0xbb701c49	-0.0036637953
17	0x3ceafd8b	0.028685352
18	0xbc4efe36	-0.012633851
19	0xbbbb78eb	-0.0057212017
20	0xbbb200b0	-0.005432211
21	0xbbeaa70e	-0.0071610278
22	0xbb8cd403	-0.0042977347
23	0x3c18e92c	0.009332936
24	0xbc527cb8	-0.012847118
25	0xbc041259	-0.008061015
26	0x3c16d948	0.009207077
27	0x3ca29341	0.019845607
28	0x3b7d1261	0.003861569
29	0x3c4af791	0.012388126
30	0x3d262dba	0.040570952
31	0xbc764b6f	-0.015032633
32	0xbcda8503	-0.026674753
33	0x3c70ce53	0.014697629
34	0x3bb190dc	0.00541888
35	0x3c491f1f	0.012275486
36	0xbae0300a	-0.001710416
37	0x3ca213d5	0.019784847
38	0x3c54dad7	0.012991629
39	0xbc8bbe08	-0.017058387
40	0xbc64fefc	-0.013976809
41	0xbc94993e	-0.018139478
42	0xba356705	-0.0006919953
43	0x3c0c206a	0.00855265
44	0x3c4399c9	0.011938521
45	0xbc82b8f0	-0.015957326
46	0xbc520e93	-0.012820858
47	0x3d035f71	0.032073442
48	0x3c617e02	0.013762953
49	0xbce52aeb	-0.027974566
50	0xbb9b757e	-0.004744231
51	0x3c0306fd	0.007997272
52	0x3c8bc9d4	0.017064013
53	0xbc8528ed	-0.016254866
54	0x3c853bec	0.016263925
55	0xbcc74c16	-0.024328273
56	0x3c020b1d	0.00793722
57	0x3c8f8faa	0.017524559
58	0xbc2845b9	-0.010270529
59	0xbc83cd8c	-0.016089223
60	0xbbbf7eb6	-0.0058439625
61	0xbcf649d4	-0.0300645
62	0xbd25cc35	-0.04047795
63	0x3d0721ae	0.032991104
64	0x3c4d6816	0.012537023
65	0xbba7f9c1	-0.0051262085
66	0x3bb1d14b	0.005426561
67	0x3cbb746d	0.022882665
68	0xbcc2ce81	-0.02378011
69	0xbb12c5f1	-0.0022395814
70	0x3c2aa327	0.010414875
71	0xbd456087	-0.04818776
72	0x3c3f82d5	0.011688908
73	0x3c8fcb05	0.017552862
74	0xbbb1b887	-0.0054236087
75	0x3b7a4427	0.0038187595
76	0xbba74d0c	-0.0051056203
77	0x3a0defcd	0.0005414456
78	0xbd0d153d	-0.034444083
79	0xbce166b3	-0.027514791
80	0xbb18062f	-0.0023197045
81	0x3b5dbf76	0.0033836043
82	0xbbf3754e	-0.0074297553
83	0xbd483b7c	-0.048884854
84	0x3bb71499	0.005587172
85	0xbcaa4800	-0.020786285
86	0x3cd3da2c	0.025860868
87	0xbc84230b	-0.016129991
88	0x3d179473	0.037006807
89	0xbd3f3592	-0.046681948
90	0xbc8759bd	-0.016522283
91	0xbb3ebd0d	-0.0029104382
92	0xbcc344ca	-0.023836512
93	0x3a8425a2	0.0010082016
94	0x3b6fb27e	0.0036574895
95	0x3baff39e	0.0053696176
96	0x3c7262de	0.01479408
97	0x3c0773e5	0.0082673775
98	0xbc032177	-0.008003584
99	0x3d2c1f03	0.042021763
100	0x39c251d1	0.0003706352
101	0x3c8a4eff	0.016883371
102	0xbb22d7bb	-0.0024847824
103	0x3b9a9e22	0.004718558
104	0x3c1a85cd	0.009431315
105	0xbb94d6b6	-0.004542197
106	0xbb2c20f7	-0.0026264766
107	0x3b2a362b	0.0025972228
108	0x3d360924	0.04444231
109	0x3ad11c2e	0.0015953833
110	0x3cc71929	0.02430399
111	0x3ba472ad	0.005018553
112	0xba4cdda6	-0.00078150106
113	0x3c996d53	0.018728888
114	0x3c0eed0a	0.008723507
115	0x3c7fa9b9	0.01560443
116	0x3cf62618	0.030047461
117	0x3d043836	0.03228017
118	0x3cae2e34	0.021262266
119	0xbbca64c7	-0.0061765644
120	0xbc885616	-0.016642611
121	0x3cb50b58	0.022100136
122	0x3ca7c55f	0.020479856
123	0x3cf2a5fd	0.029620165
124	0x3c877fc4	0.016540416
125	0xbc88548d	-0.01664188
126	0x3c2de98b	0.010614763
127	0x3ca3c177	0.019989712
128	0xbc1cdcb5	-0.009574105
129	0x3c1c7a78	0.009550683
130	0xbc1c13fc	-0.009526249
131	0x3d1b0a3b	0.037851553
132	0xbcaea748	-0.02132
133	0x3c1e033c	0.009644326
134	0x3c863d2e	0.016386595
135	0xbcfe88cb	-0.031071087
136	0x3c8089a2	0.015690628
137	0x3c4b31c3	0.012402001
138	0x3c759bba	0.014990741
139	0x3cc0d4b9	0.023538934
140	0x3c3278f3	0.010893094
141	0x3c1282e6	0.008942341
142	0x3cbe34e3	0.023218578
143	0xbc6266bc	-0.013818439
144	0x3ce62f91	0.028098853
145	0x3bfcdffd	0.007717131
146	0x3c0ad8fa	0.008474583
147	0x3c7e246d	0.015511614
148	0x3cd89851	0.026439818
149	0x3c8412b9	0.016122209
150	0xbb041676	-0.002015499
151	0xbc5833e0	-0.013195962
152	0x3ccb9f06	0.024856102
153	0x3c6f8aa4	0.014620457
154	0xbcd6d2c6	-0.026223551
155	0xbcbad2c2	-0.022805575
156	0x3c459523	0.012059483
157	0x3c70ffb4	0.014709402
158	0xbbd3c6da	-0.006462914
159	0x3cd351d8	0.025795862
160	0x3bba4a34	0.0056851152
161	0xbc1740df	-0.009231775
162	0x3ca48c14	0.020086326
163	0x3a230c07	0.0006219749
164	0xbbe7ffd5	-0.007080058
165	0xbd3df4cf	-0.046376046
166	0xbcc21f1f	-0.02369648
167	0x3c82673a	0.015918363
168	0xbc76919f	-0.015049367
169	0x3d25aabb	0.040446024
170	0x3ca1c2ea	0.019746263
171	0xbbc1db18	-0.0059160106
172	0xbb902295	-0.0043986537
173	0x3d313718	0.043265432
174	0x3a7d812e	0.00096704334
175	0xbc251f6b	-0.010078291
176	0x3baa29c2	0.005192966
177	0x3c7899d2	0.015173392
178	0xbcaac7ae	-0.020847168
179	0xbc64a58a	-0.013955483
180	0xbc54d87e	-0.012991069
181	0xbd043b0a	-0.032282867
182	0x3c382f10	0.011241689
183	0xbd184d3c	-0.03718303
184	0x3c7faa05	0.015604501
185	0xbd162e5f	-0.036665317
186	0x3c8776c7	0.01653613
187	0x3b79fb28	0.0038144086
188	0x3aa57184	0.0012622331
189	0xbd47601a	-0.048675634
190	0x3c18aed8	0.00931903
191	0x3d810caa	0.063012436
192	0xbc75e6fe	-0.015008686
193	0xbd07a4b1	-0.033116046
194	0xbbde72d6	-0.006788592
195	0x3b11c8b2	0.0022244868
196	0x3b067c9c	0.002052105
197	0x3cdfc19e	0.027314004
198	0x3cc78181	0.024353744
199	0x3c8b730f	0.017022638

gc3.weight f4 [200, 100]
0	0xbcc8b767	-0.024501516
1	0xbc7a5db6	-0.0152811315
2	0xbdfb5536	-0.12272112
3	0x3e570e6a	0.21001592
4	0x3d02fafb	0.031977635
5	0x3dbe9a45	0.09306768
6	0x3db7c330	0.08972776
7	0x3d00c08f	0.03143364
8	0x3ca8944f	0.020578532
9	0xbe328e58	-0.17437112
10	0x3e251690	0.16121888
11	0x3e00857a	0.12550917
12	0xbc709646	-0.0146842655
13	0xbd2f3139	-0.04277155
14	0xbc5ae3d9	-0.013359987
15	0x3c3ee64b	0.011651586
16	0xbdd687a5	-0.10475091
17	0xbe3b2bb4	-0.1827839
18	0x3e043fa1	0.12914898
19	0x3d8e2186	0.06939988
20	0xbd649e44	-0.055814996
21	0xbda0144a	-0.0781637
22	0xbdc5324a	-0.096287325
23	0x3cc120e3	0.023575252
24	0x3c822fcc	0.015891932
25	0xbe2b7ab0	-0.1674602
26	0x3da3b66e	0.0799378
27	0xbdd03286	-0.101658866
28	0xbdae1cd9	-0.08501596
29	0xbd2e4855	-0.04254945
30	0x3d1bc2d8	0.038027614
31	0x3e0370d2	0.12836006
32	0x3dcedd54	0.10100809
33	0xbdf057b3	-0.11735477
34	0x3d3cf9fe	0.04613685
35	0xbcb80254	-0.022462048
36	0xbd6556a5	-0.055990834
37	0xbdf4e80b	-0.11958321
38	0xbd8be7e3	-0.06831338
39	0x3e0cabac	0.13737363
40	0xbde9e69b	-0.11420938
41	0xbdc99dd5	-0.09844557
42	0xbc97be14	-0.018523254
43	0xbde49414	-0.11161056
44	0xbe15eb79	-0.14640607
45	0xbe2a3ec1	-0.16625501
46	0x3c924a78	0.017857775
47	0x3d8d3276	0.0689439
48	0xbda03ea1	-0.078244455
49	0xbde5a3b9	-0.11212868
50	0x3d094ced	0.033520628
51	0x3de0f120	0.10983491
52	0xbd86b2dd	-0.06577084
53	0xbda9f500	-0.08298683
54	0x3b40e7dd	0.0029435076
55	0xbc14b151	-0.009075479
56	0xbc6464fc	-0.013940092
57	0x3cf62565	0.030047128
58	0x3bce0919	0.0062877056
59	0x3d823b69	0.06358988
60	0xbe1a8a5e	-0.15091845
61	0xbda7b068	-0.08187944
62	0x3c211b33	0.009833145
63	0xbda619a6	-0.08110361
64	0x3d10351c	0.0352069
65	0xbd979651	-0.074017175
66	0x3e10da2e	0.14145729
67	0xbd5cfae6	-0.053950213
68	0xbd6f8816	-0.05847939
69	0x3de0ae5d	0.10970757
70	0x3e44ad3c	0.19206709
71	0xbd0b01a3	-0.033937108
72	0xbb2271ed	-0.0024787143
73	0xbd7850bb	-0.060623866
74	0x3d065ed7	0.03280529
75	0x3e233b80	0.15940666
76	0xbd421b97	-0.047389593
77	0x3dff7b11	0.12474645
78	0xbdfd745a	-0.12375708
79	0x3d2313d1	0.03981382
80	0xbe1d59f7	-0.1536635
81	0xbb06ca10	-0.0020567216
82	0x3c8ae34c	0.016954087
83	0x3c949811	0.018138917
84	0x3dc978b2	0.09837474
85	0xbd0b9b81	-0.034083847
86	0x3d95e33f	0.073187344
87	0xbd9a2068	-0.07525712
88	0xbd118893	-0.035530638
89	0x3dd88fea	0.105743244
90	0x3d95c876	0.073136255
91	0xbca089ce	-0.01959696
92	0xbda2d2ef	-0.07950389
93	0xbd1b54b0	-0.03792256
94	0x3cb5b427	0.02218063
95	0x3dafac69	0.085778065
96	0xbd1bcaff	-0.03803539
97	0x3e23c858	0.15994394
98	0x3d99061d	0.07471869
99	0xbe0e0cd9	-0.13872088
100	0xbe1d341d	-0.15351911
101	0x3dd9a0af	0.10626351
102	0x3ce5962a	0.028025705
103	0x3c30a7fc	0.010782238
104	0x3e21e727	0.15810834
105	0x3dd7e421	0.10541559
106	0xbd6eef6b	-0.058333796
107	0xbc6c6e20	-0.014430553
108	0x3e4d029a	0.20020524
109	0x3c1c0ace	0.00952406
110	0x3d3674b8	0.044544905
111	0xbce5d470	-0.0280554
112	0x3da0716f	0.07834136
113	0xbd48ce03	-0.049024593
114	0x3dbd1845	0.09233145
115	0x3d7629b8	0.06009838
116	0xbd7c158b	-0.061543982
117	0x3d93c5f3	0.0721549
118	0x3da2b1f6	0.079440996
119	0xbd7ece65	-0.062208552
120	0x3dfb218f	0.1226226
121	0xbcc65dd8	-0.02421467
122	0xbd02e837	-0.03195974
123	0xbcd5b742	-0.02608836
124	0xbd5e494b	-0.054269116
125	0x3d91a02c	0.071106285
126	0x3d963da2	0.07335974
127	0xbd879892	-0.06620897
128	0x3e84b4a7	0.25919077
129	0xbd26d9c5	-0.040735025
130	0x3cadbaf5	0.021207312
131	0xbd1f7c01	-0.03893662
132	0xbdd5ed26	-0.10445623
133	0xbd84f09f	-0.06491207
134	0xbd5260ed	-0.051361967
135	0xbd5d3d46	-0.054013513
136	0x3e08169c	0.13289875
137	0xbdd973f6	-0.10617821
138	0x3c88bde1	0.016692104
139	0xbda2dffe	-0.07952879
140	0xbc828cf8	-0.01593636
141	0x3cedb6e8	0.02901788
142	0xbe0928d4	-0.13394481
143	0xbbceef3d	-0.0063151405
144	0x3cff7483	0.031183487
145	0x3d8be1c3	0.0683017
146	0xbc87c4b1	-0.016573282
147	0xbdbc9720	-0.09208512
148	0x3dab90e5	0.08377246
149	0xbd44a62c	-0.048010036
150	0xbaf227d7	-0.0018475008
151	0xbe18fd8b	-0.14940469
152	0x3dcc10a6	0.09964113
153	0x3cfa584f	0.030559687
154	0xbd671fdc	-0.056426868
155	0xbdd378ed	-0.10325799
156	0x3cf8d81c	0.030376486
157	0x3dd1833b	0.10230108
158	0x3e1d6398	0.15370023
159	0x3e10ac40	0.14128208
160	0xbc5ac37b	-0.01335227
161	0xbb1fac5a	-0.0024364204
162	0xbd945991	-0.07243646
163	0xbbb7921d	-0.005602135
164	0xbe1c68ef	-0.15274404
165	0x3d721c65	0.05910911
166	0xbcbbb7c4	-0.022914775
167	0x3d303c85	0.043026466
168	0x3e0b0796	0.13577113
169	0xbe117fb7	-0.14208876
170	0xbc2158d5	-0.009847839
171	0x3d17d37d	0.037066925
172	0xbd9d8522	-0.07691409
173	0x3c2d876e	0.010591371
174	0x3e2d4fcd	0.16924973
175	0xbc25763d	-0.010098991
176	0x3b439b56	0.0029847226
177	0xbd9e76e0	-0.07737517
178	0x3db184e3	0.08667924
179	0xbc394f49	-0.011310407
180	0xbdabf031	-0.08395422
181	0x3d8b9f3e	0.068174824
182	0xbe2153aa	-0.15754572
183	0x3cc0b357	0.023523016
184	0xbd4eb3c2	-0.0504644
185	0xbd4fed40	-0.05076337
186	0x3d7e56eb	0.06209461
187	0x3d9e652c	0.07734141
188	0x3c8470ba	0.016167033
189	0xbe06933f	-0.13142107
190	0x3dc36e69	0.095425434
191	0x3bcd0a5c	0.0062573384
192	0xbdd50535	-0.10401384
193	0xbdc0ce28	-0.09414321
194	0xbdc40d8d	-0.09572897
195	0xbe00febc	-0.12597173
196	0xbd5b3f82	-0.053527363
197	0xbe0da968	-0.13834155
198	0x3d81a7c4	0.06330827
199	0x3e154a3c	0.145791
200	0x3d22209e	0.039581887
201	0x3dcb3d2c	0.09923777
202	0xbd8c9100	-0.06863594
203	0xbd278670	-0.040899694
204	0x3ca8347a	0.020532835
205	0xbd99c7b8	-0.075087965
206	0x3d2330d2	0.03984148
207	0x3ccb342b	0.024805149
208	0xbc8f4bb9	-0.017492162
209	0xba8e4f8f	-0.001085745
210	0x3cdaed19	0.026724385
211	0x3ded6581	0.11591626
212	0xbc99689e	-0.018726643
213	0xbcb7e05a	-0.022445846
214	0xbdb3b835	-0.08775369
215	0x3dbb320c	0.09140405
216	0xbdd318dd	-0.10307477
217	0x3badf5b5	0.0053088316
218	0xbe05528f	-0.13019775
219	0xbe3a2f89	-0.18182196
220	0x3c6c2901	0.014414073
221	0x3ca8d844	0.020610936
222	0xbd9913b9	-0.07474465
223	0x3d3ac298	0.045595735
224	0xbd84d147	-0.06485229
225	0x3de0dd31	0.10979689
226	0xbb67bb7b	-0.003535955
227	0xbe273542	-0.1632891
228	0x3c3909e2	0.01129386
229	0x3d8148ce	0.063127145
230	0x3d0c7568	0.034291655
231	0x3cbe1788	0.02320458
232	0x3da354af	0.079751365
233	0xbdcbb2fc	-0.09946248
234	0x3e164760	0.14675665
235	0x3da16268	0.07880098
236	0xbc9b37f6	-0.018947583
237	0x3da40574	0.080088526
238	0xbe1a3632	-0.15059736
239	0xbda55985	-0.08073715
240	0xbcba7c6c	-0.022764407
241	0xbdf19c2a	-0.11797364
242	0xbd957663	-0.07297971
243	0x3d05cbce	0.032665066
244	0x3c9fa6fe	0.019488808
245	0x3e08ffa6	0.13378772
246	0x3db6b7ea	0.089217976
247	0xbdfc7f33	-0.12328949
248	0xbe3b03c3	-0.18263154
249	0x3d0352f7	0.032061543
250	0xbaaea026	-0.0013322874
251	0x3d90cdde	0.07070516
252	0xbb31e2b8	-0.0027143192
253	0x3dd43ff6	0.10363762
254	0x3dfa8fff	0.12234496
255	0xbd886ee3	-0.06661775

gc3.bias f4 [100]
0	0x3bfbf9a6	0.0076896725
1	0x3b15f67f	0.0022882519
2	0x3c207888	0.009794362
3	0xbc29186c	-0.010320764
4	0xbca01dd4	-0.019545473
5	0xbc370b59	-0.011172139
6	0xbc2f55ad	-0.010701579
7	0x3c72e008	0.014823921
8	0x3bcd687d	0.0062685595
9	0xbbebaa52	-0.0071919346
10	0xbcfdb180	-0.030968428
11	0xbc9b2621	-0.01893908
12	0xbc8acede	-0.016944345
13	0xbc75ae0f	-0.014995112
14	0x3c51067f	0.012757896
15	0x3c43da6d	0.011953932
16	0xbcc84c26	-0.024450373
17	0xbcbb1020	-0.022834837
18	0x3bb605a8	0.0055548735
19	0xbb8fa4b5	-0.0043836483
20	0xbb0a86e3	-0.0021137528
21	0xbcc0d36c	-0.023538314
22	0x3a5f0b0e	0.0008508422
23	0xbd265f37	-0.040618148
24	0xba4bd2a2	-0.0007775222
25	0x3d025348	0.031817704
26	0xbce05cfc	-0.027388088
27	0xbc4da70d	-0.012552035
28	0xbc48f6da	-0.012265885
29	0xbd12e234	-0.035860255
30	0xbd046d32	-0.0323307
31	0xbcab8bab	-0.020940622
32	0xbbb7e450	-0.005611934
33	0xbb977888	-0.0046225227
34	0x3c673fc4	0.014114324
35	0xbc911576	-0.017710429
36	0x3bc3497c	0.0059596878
37	0xbc5be1fb	-0.013420577
38	0xbcb6c518	-0.022310778
39	0xbacd5c19	-0.0015667706
40	0xbbf1cf9e	-0.007379486
41	0xbb5066b5	-0.00317995
42	0xbc7c425a	-0.015396679
43	0xbcb17894	-0.021663941
44	0xbcb80956	-0.02246539
45	0x3c10db4c	0.008841347
46	0xbc662a9b	-0.014048244
47	0x3b8a5780	0.0042218566
48	0xbc0fade2	-0.008769484
49	0xbbba922f	-0.005693696
50	0xbc990dab	-0.018683275
51	0xbce3e91d	-0.027821118
52	0xbacf1e2e	-0.0015801841
53	0xbbdf412f	-0.0068131904
54	0x3bdc2a97	0.0067189443
55	0xbc8a236c	-0.016862594
56	0xbc5f4a62	-0.013628574
57	0xbc8eac33	-0.017416095
58	0x3c2e6543	0.01064426
59	0x3b4e756f	0.0031503101
60	0x3ad74461	0.0016423577
61	0x3c549f3f	0.01297742
62	0xbc20580c	-0.009786617
63	0x3c4a847d	0.012360689
64	0xbcc950a0	-0.024574578
65	0x3be1e0bd	0.006893246
66	0xbb18acd5	-0.0023296375
67	0x3c9d95ab	0.019236406
68	0x3c040c02	0.0080595035
69	0x3c9a32fe	0.018823143
70	0xbc8396f8	-0.016063198
71	0xbb7c49d3	-0.003849615
72	0x3b0fb07d	0.0021925264
73	0x3c4ab16f	0.012371405
74	0x3b0e31cf	0.0021697169
75	0xbcd09e72	-0.025466178
76	0x3b4e1843	0.0031447567
77	0x3c2e478c	0.010637175
78	0x3bafa0f5	0.0053597637
79	0x3b2322e0	0.0024892613
80	0x3bcbca05	0.006219151
81	0xbb857c63	-0.004073666
82	0xbcdd078d	-0.02698114
83	0xbc86bd62	-0.016447727
84	0x3bd22a16	0.0064137084
85	0x3b13e9bc	0.0022569736
86	0xbb884e1d	-0.0041597025
87	0x3be7cf2b	0.007074257
88	0x3b486a1e	0.003058083
89	0x3ac4b311	0.0015006979
90	0x3c5e349d	0.013562349
91	0x3c4a5fdd	0.012351957
92	0xbc6e4439	-0.014542633
93	0x3be516eb	0.0069912574
94	0x3a144699	0.0005656272
95	0xbc5116fe	-0.012761829
96	0xbcd75a45	-0.026288161
97	0xbb994921	-0.004677907
98	0xbc90ea05	-0.017689714
99	0x3c07e09d	0.008293298
