best_models/MOGONET/fold_2/C.pth (torch, 1887 bytes, 4 tensors)

model.0.weight f4 [8, 8]
00000000: 6c33 403f 578c cb3e eb43 0b3f bff9 1fbf
00000010: 7fbc 9a3f a3a7 0ebf 9589 c4be 512f 45bf
00000020: 54ea 2e3f 279d 743f a1c3 273f fd6f 093e
00000030: 8797 093e a70f 25bf 4610 33bf 14d8 dabe
00000040: 953c 20bf 24a4 6bbd 3fb2 48bf 080a 223f
00000050: a88a efbd f1c8 313f 312f 063e 75f0 553f
00000060: 1c0b 6bbf 132f 743f c12b 1cbf 46fa 713f
00000070: e97c dfbe 7b90 a33f 9736 163f b48e 183f
00000080: 23f4 5fbf 01a3 dbbd eb67 2fbf 5000 2d3f
00000090: 3088 56bf 9368 183e 6977 703f 9801 473f
000000a0: 21ec f23e 87f9 603e 82a0 5cbe 6156 683e
000000b0: 3847 343d e8cc d73e d71a 9cbe f660 1dbe
000000c0: c150 303f 3ec8 e23e 89c0 cbbd 9d14 d9be
000000d0: 4a74 1f3f 6869 17bf a1fd 03bf fed3 6bbf
000000e0: 19ff 5dbf b900 bebd 6a1c dabe 0b12 e83e
000000f0: 64b7 b0be 37a4 963c 58d2 7b3e 7942 203f
0.75078464 0.39755508 0.5440051 -0.6249046 1.2088774 -0.55724543 -0.38386217 -0.77025324
0.68326306 0.95552295 0.6553288 0.13421626 0.1343671 -0.6447701 -0.69946706 -0.4274298
-0.6259244 -0.057529584 -0.7839698 0.63296556 -0.116963685 0.6944724 0.1310394 0.83570033
-0.91813827 0.9538433 -0.61004263 0.9452251 -0.43649986 1.2778467 0.5867705 0.5959275
-0.874819 -0.1072445 -0.6851794 0.675786 -0.83801556 0.14883642 0.93932205 0.77736807
0.47445777 0.21970187 -0.21545604 0.22689201 0.044013232 0.4214852 -0.30489227 -0.15369019
0.6887322 0.44293398 -0.099488325 -0.4239854 0.6228682 -0.5914521 -0.5155888 -0.9212035
-0.86717373 -0.092774816 -0.42599803 0.45326266 -0.34514916 0.01838885 0.24591959 0.6260143

model.0.bias f4 [8]
00000000: 8de2 453f 8ef8 e23e fbd9 ff3e 3e89 0f3f
00000010: e0f8 063f 8b7f 22be f340 f93e ac16 ce3e
0.77298814 0.44330257 0.49970993 0.5606879 0.52723503 -0.15868966 0.48682365 0.40251672

model.2.weight f4 [2, 8]
00000000: 337f b73f 9d30 fb3e 3784 22bf dbf8 2cbf
00000010: fab0 33bf 6bf0 35be 1e08 f23d 6c7e a03e
00000020: 0378 4dbf 41fd a5bf 4e72 933f f847 823f
00000030: 2de9 883f 022b 68be 8954 9cbf b317 7c3f
1.4335693 0.49060526 -0.63482994 -0.67567223 -0.7019192 -0.17767493 0.118179545 0.31346452
-0.8026125 -1.2967912 1.1519258 1.0178213 1.069616 -0.22672656 -1.2213298 0.9847366

model.2.bias f4 [2]
00000000: 3613 743e 7013 74be
0.23835453 -0.2383554
