best_models/MOGONET/fold_2/C1.pth (torch, 1895 bytes, 2 tensors)

clf.0.weight f4 [2, 100]
-0.001173239 0.25133902 0.22073206 -0.14741905 -0.0047102426 0.013780622 -0.043827515 -0.17673478
-0.26991656 0.21739173 0.039353415 -0.018730843 -0.018074363 -0.022223137 -0.291485 -0.117584795
0.16374159 0.007337022 0.059517797 -0.12298401 -0.08415439 0.09412736 -0.13714264 -0.16467667
-0.09617718 -0.17771749 -0.0357451 0.32280424 0.20945524 -0.012801903 -0.04161387 -0.027983291
0.16283906 0.10719203 -0.22924705 -0.11398257 -0.14646628 0.09577956 -0.03641183 -0.14366852
0.080230094 0.17455515 -0.021709157 0.00062481465 -0.23993385 -0.21876709 0.041262496 0.016489888
-0.044809006 0.16005807 0.025354031 -0.05781445 -0.119015835 0.14973286 -0.029588044 -0.1926948
0.16175833 -0.04481652 0.01528429 0.07965074 0.071751714 -0.094956316 -0.017202318 -0.05981066
-0.061544433 0.060157314 -0.102607824 0.3399862 0.08459187 -0.09947869 -0.0011391788 -0.18527225
-0.021244276 -0.08986847 -0.013137261 0.14548972 0.23556547 0.24402523 0.22975528 0.101414055
-0.15321113 0.068291746 0.0022579937 -0.0977806 -0.050908897 -0.033995822 -0.09276389 -0.11545612
-0.2185203 -0.21568434 -0.19142307 -0.20378993 0.3172503 0.17447923 0.37326026 -0.15883777
-0.1422173 -0.14280467 -0.15862583 0.16314289 -0.1781727 -0.04359112 0.1681975 0.025938151
0.071610264 0.1537341 -0.18675227 0.13725649 0.14599307 -0.23911417 0.2820093 -0.016936053
0.05713024 -0.14432548 0.11091583 -0.06507424 -0.028966274 0.1883991 -0.10015594 0.126059
-0.026609687 -0.17830008 0.32400516 0.21833304 0.14133917 0.11245243 0.12155125 0.011257409
-0.34403768 -0.11842126 -0.029248003 0.05216241 -0.05287102 -0.114676826 0.08745655 -0.18389086
-0.048919287 -0.30729735 0.11118915 0.09865704 0.23137048 -0.07223065 0.15638858 0.0892235
0.019457925 0.09396499 -0.07651515 -0.25567272 0.15301415 -0.025415799 -0.06569315 -0.11860987
-0.075132616 -0.11352942 -0.110679075 0.191801 0.015846958 -0.20316893 -0.18461718 0.17514062
-0.14926688 -0.10391166 0.1422148 0.08705502 0.23254931 0.15418436 0.06384617 -0.15702425
-0.049678683 0.24874637 0.021474497 0.28177115 0.023096548 0.1263107 0.11122421 -0.18217513
0.11509187 -0.11579743 0.17605968 -0.24101262 0.0054719895 -0.014961403 -0.08299995 0.12502927
0.08599561 0.062202647 -0.23750952 -0.23950689 0.28529844 0.13271636 0.05591057 0.50286233
-0.26357996 -0.27375543 -0.41428664 0.109981075 -0.033534735 0.23482582 -0.32301322 -0.21477795
00000000: 5ec7 99ba 82af 803e 9607 623e 05f5 16be
00000010: 6158 9abb 1ec8 613c 7b84 33bd f6f9 34be
00000020: 8132 8abe f09b 5e3e 0c31 213d 6d71 99bc
00000030: b010 94bc 4c0d b6bc 863d 95be 4cd0 f0bd
00000040: e0ab 273e 676b f03b efc8 733d 0adf fbbd
00000050: 2359 acbd d8c5 c03d 1f6f 0cbe 00a1 28be
00000060: 8bf8 c4bd 93fb 35be 7469 12bd 9946 a53e
00000070: 6f7b 563e 13bf 51bc 4e73 2abd 373d e5bc
00000080: 48bf 263e 7f87 db3d bdbf 6abe b26f e9bd
00000090: 42fb 15be 1328 c43d 9224 15bd d71d 13be
000000a0: ad4f a43d 96be 323e 67d7 b1bc 9aca 233a
000000b0: 38b1 75be 7b04 60be dd02 293d cd15 873c
000000c0: a689 37bd 43e6 233e 42b3 cf3c d8ce 6cbd
000000d0: 93be f3bd 9253 193e a062 f2bc c951 45be
000000e0: faa3 253e 8791 37bd f56a 7a3c ed1f a33d
000000f0: 90f2 923d 7578 c2bd e0eb 8cbc 06fc 74bd
00000100: 0416 7cbd 8467 763d 0d24 d2bd ac12 ae3e
00000110: 813e ad3d 7cbb cbbd 7f50 95ba 02b8 3dbe
00000120: 7a08 aebc f60c b8bd ab3d 57bc 42fb 143e
00000130: 1338 713e c0e1 793e f844 6b3e 2cb2 cf3d
00000140: 61e3 1cbe 8bdc 8b3d d9fa 133b 3241 c8bd
00000150: d985 50bd 343f 0bbd fffa bdbd 4274 ecbd
00000160: c9c3 5fbe 5bdc 5cbe 6904 44be 4fae 50be
00000170: a26e a23e afaa 323e f81b bf3e 5ea6 22be
00000180: 69a1 11be 633b 12be cf6e 22be ee0e 273e
00000190: e772 36be 9a8c 32bd f73b 2c3e 3f7c d43c
000001a0: 67a8 923d 796c 1d3e fd3b 3fbe f78c 0c3e
000001b0: 357f 153e 58da 74be 8663 903e 7abd 8abc
000001c0: 6601 6a3d 0fca 13be d727 e33d a545 85bd
000001d0: ae4a edbc b2eb 403e 8f1e cdbd 9c15 013e
000001e0: 8ffc d9bc 4c94 36be 01e4 a53e b292 5f3e
000001f0: 37bb 103e 764d e63d ddef f83d ff70 383c
00000200: b525 b0be d886 f2bd 8299 efbc 40a8 553d
00000210: 488f 58bd afdb eabd 6b1c b33d e34d 3cbe
00000220: 975f 48bd 1456 9dbe 23b7 e33d b40c ca3d
00000230: 62ec 6c3e aaed 93bd 5424 203e cfba b63d
00000240: 3a66 9f3c b770 c03d fab3 9cbd 89e7 82be
00000250: beaf 1c3e cb34 d0bc 218a 86bd bbe9 f2bd
00000260: 21df 99bd 1d82 e8bd b6ab e2bd 7b67 443e
00000270: 7bd1 813c 840b 50be 490c 3dbe 1058 333e
00000280: 6bd9 18be a3cf d4bd c2a0 113e e749 b23d
00000290: 6821 6e3e 81e2 1d3e c8c1 823d f7ca 20be
000002a0: e07b 4bbd 5eb7 7e3e 49eb af3c 4f44 903e
000002b0: f934 bd3c 9857 013e 85c9 e33d 1e8c 3abe
000002c0: 49b5 eb3d 3427 edbd fd48 343e 03cc 76be
000002d0: 604e b33b ac20 75bc e1fb a9bd ac07 003e
000002e0: 771e b03d 34c8 7e3d b235 73be 4b41 75be
000002f0: a312 923e cce6 073e 7b02 653d 96bb 003f
00000300: f4f3 86be ac29 8cbe 611d d4be c23d e13d
00000310: b85b 09bd 2e76 703e fd61 a5be c0ee 5bbe

clf.0.bias f4 [2]
-0.0021578462 0.0021571147
00000000: a76a 0dbb 615e 0d3b
