best_models/MOGONET/fold_2/C2.pth (torch, 1895 bytes, 2 tensors)

clf.0.weight f4 [2, 100]
-0.13166484 -0.059630495 -0.053413726 0.09585103 -0.03580867 -0.2622882 0.095705636 -0.029319413
0.04321297 0.07224755 0.023724433 -0.09272983 0.050533857 -0.016411137 0.007572225 -0.43048513
0.06832984 0.06437902 -0.063707925 0.23045726 -0.098067656 0.15281157 -0.1565774 0.021997686
0.00078005093 0.16891055 0.09198754 -0.009891771 0.048244495 -0.3121139 -0.11131166 -0.020952811
0.10108389 0.39700994 -0.09530105 -0.107620284 0.14915027 -0.23746105 0.12468758 0.02226279
-0.08978443 -0.3194739 0.038685717 0.10507455 -0.0063438425 0.024306562 0.17501414 0.12809102
-0.19920571 0.07048624 -0.024836972 -0.06050347 0.07517553 0.18282713 -0.15893804 0.24623537
0.11341112 0.050715722 0.028618531 0.19013792 0.21363527 0.041632164 -0.21174273 -0.058939893
0.033141732 -0.04920267 0.3059973 0.08785519 -0.04997627 -0.067754984 0.036410928 -0.17393441
0.05606092 0.026229437 0.034188688 0.14734115 0.10494916 0.021532502 0.118589506 0.23081939
-0.17464872 -0.06479864 -0.07919286 0.11377028 0.032352757 0.1701787 0.15371978 0.041741833
-0.06493858 0.15359075 -0.22488673 -0.114956565 -0.14271982 -0.13803813 0.011184395 0.023920367
0.07246035 0.37298462 0.09811703 0.055472374 0.002814017 -0.025988873 -0.013792512 -0.04141221
0.09718058 0.100195654 -0.07104696 -0.07467867 0.03152432 -0.2643625 0.16218711 0.17565845
0.013546523 -0.1407266 0.07536478 0.22241248 -0.38512 -0.03751529 -0.30590394 -0.14371751
-0.33339253 -0.12984951 -0.096967496 0.13557442 -0.07916103 -0.4589219 -0.060764473 0.098716766
0.19397089 -0.0780585 0.20442365 -0.23318705 -0.2101064 -0.07214019 0.13418506 0.07443533
-0.23460105 0.114960656 0.025392847 0.015426088 -0.10306166 -0.0932745 -0.23610929 0.10363473
0.050336905 -0.06409186 -0.014219263 -0.06524793 -0.124693 0.2507004 0.025614316 0.18609628
-0.20712167 0.17235504 -0.080409355 -0.11851384 0.14970738 -0.06146456 -0.22635469 -0.21776973
0.0501956 0.22731072 0.06319069 -0.18317628 0.0143620595 0.11676475 -0.20637564 0.13780619
-0.00095568894 -0.020272275 -0.1808044 -0.17360818 0.21249937 -0.19600531 0.037944183 0.161983
-0.20685032 0.0035964898 0.15488996 -0.24232508 -0.12350683 0.0048278463 0.039123904 -0.009845222
0.23654903 -0.13082492 -0.05166451 0.08968111 -0.033161342 -0.05664031 0.03291876 -0.28898805
0.1336481 0.037493967 -0.14659756 0.21772626 0.09429816 -0.08556472 0.034123506 -0.05629055
00000000: 26d3 06be 1b3f 74bd 5ac8 5abd 8b4d c43d
00000010: 1dac 12bd a44a 86be 5101 c43d 442f f0bc
00000020: 1500 313d 86f6 933d be59 c23c 23e9 bdbd
00000030: 97fc 4e3d a670 86bc 6d20 f83b 8c68 dcbe
00000040: 84f0 8b3d 26d9 833d 4d79 82bd fdfc 6b3e
00000050: b2d7 c8bd a37a 1c3e d355 20be 7e34 b43c
00000060: 557c 4c3a e3f6 2c3e f763 bc3d 1811 22bc
00000070: 059c 453d 65cd 9fbe 5ef7 e3bd 3ba5 abbc
00000080: 1205 cf3d e344 cb3e 322d c3bd 0668 dcbd
00000090: d9ba 183e fd28 73be 345c ff3d 7460 b63c
000000a0: e6e0 b7bd 1592 a3be ea74 1e3d 5331 d73d
000000b0: 02e0 cfbb 8e1e c73c e836 333e 4b2a 033e
000000c0: 95fc 4bbe 175b 903d e876 cbbc 7dd2 77bd
000000d0: a1f5 993d 0937 3b3e a7c0 22be 2025 7c3e
000000e0: 1744 e83d 4abb 4f3d 6971 ea3c 84b3 423e
000000f0: 34c3 5a3e 7d86 2a3d 16d3 58be f56a 71bd
00000100: a0bf 073d bd88 49bd aeab 9c3e 6ced b33d
00000110: ebb3 4cbd 20c3 8abd a023 153d dd1b 32be
00000120: 23a0 653d 1edf d63c 7009 0c3d 99e0 163e
00000130: 96ef d63d ee64 b03c 0edf f23d eb5b 6c3e
00000140: 1dd7 32be 26b5 84bd de2f a2bd 6400 e93d
00000150: 5384 043d 5343 2e3e b868 1d3e 7cf9 2a3d
00000160: 85fe 84bd e546 1d3e b548 66be 596e ebbd
00000170: 2525 12be de59 0dbe c13e 373c a5f4 c33c
00000180: 1866 943d d7f7 be3e 95f1 c83d 0037 633d
00000190: 5f6b 383b 9ee6 d4bc fdf9 61bc d99f 29bd
000001a0: 9d06 c73d 6133 cd3d 1281 91bd 21f1 98bd
000001b0: a51f 013d 865a 87be 6114 263e cfdf 333e
000001c0: 3cf2 5d3c a21a 10be da58 9a3d 19c0 633e
000001d0: 732e c5be a2a9 19bd 719f 9cbe af2a 13be
000001e0: 6db2 aabe 45f7 04be e596 c6bd 05d4 0a3e
000001f0: 2e1f a2bd d0f7 eabe 2be4 78bd 042c ca3d
00000200: 4ea0 463e 23dd 9fbd 6f54 513e 96c8 6ebe
00000210: 2226 57be 3cbe 93bd cf67 093e 8d71 983d
00000220: 423b 70be 7e70 eb3d a904 d03c b4bd 7c3c
00000230: fe11 d3bd b306 bfbd a2c6 71be 723e d43d
00000240: 122e 4e3d 9842 83bd e9f7 68bc b5a0 85bd
00000250: 0b5f ffbd ce5b 803e 1dd5 d13c 0690 3e3e
00000260: b417 54be d77d 303e a9ad a4bd 62b7 f2bd
00000270: e44c 193e 43c2 7bbd 86c9 67be 07ff 5ebe
00000280: e799 4d3d 24c4 683e 1f6a 813d 9092 3bbe
00000290: d84e 6b3c 5b22 ef3d 2354 53be 111d 0d3e
000002a0: 3387 7aba 0b12 a6bc ca24 39be 58c6 31be
000002b0: 6f99 593e 9eb5 48be 5c6b 1b3d dfde 253e
000002c0: 92d0 53be 16b3 6b3b 799b 1e3e 1124 78be
000002d0: 26f1 fcbd e932 9e3b 6340 203d db4d 21bc
000002e0: e939 723e f8f6 05be 2a9e 53bd bbaa b73d
000002f0: 30d4 07bd abff 67bd d2d5 063d 3ef6 93be
00000300: 0cdb 083e 4693 193d ac1d 16be a2f3 5e3e
00000310: 651f c13d 8e3c afbd 17c5 0b3d eb90 66bd

clf.0.bias f4 [2]
-0.0063820896 0.006380162
00000000: d920 d1bb ae10 d13b
