best_models/MOGONET/fold_2/C3.pth (torch, 1895 bytes, 2 tensors)

clf.0.weight f4 [2, 100]
0	0xbe53ce79	-0.20684232
1	0x3da19a8a	0.07890804
2	0x3d94bea0	0.07262921
3	0xbd7eee6b	-0.06223909
4	0xbe01214d	-0.1261036
5	0xbda0c16e	-0.07849394
6	0xbcaf5fc8	-0.021407977
7	0x3e0015c3	0.12508301
8	0x3bd34e3a	0.0064485343
9	0xbe1693ee	-0.14704868
10	0x3e0a4fcb	0.13507001
11	0xbdc06f3b	-0.093962155
12	0x3dd14a40	0.1021924
13	0xbbb7cf96	-0.005609463
14	0xbe3f7b7b	-0.18699448
15	0x3e2f561b	0.1712269
16	0x3e7d32df	0.24726437
17	0xbe6eaf2f	-0.23309015
18	0x3c9455f3	0.01810739
19	0x3dfbf209	0.12302024
20	0xbdb3d067	-0.08779984
21	0xbe044a10	-0.12918878
22	0xbda490ae	-0.08035408
23	0xbba46f6b	-0.005018165
24	0xbd6a1757	-0.057151165
25	0xbd10294b	-0.03519563
26	0x3e2f2d24	0.17107064
27	0x3cfc9af5	0.030835608
28	0x3cd3a5ef	0.02583596
29	0x3d45da8a	0.04830412
30	0xbdacd226	-0.0843852
31	0xbe1b5481	-0.15168954
32	0xbdd84f9d	-0.1056206
33	0x3dced14f	0.10098516
34	0x3dfed820	0.12443566
35	0x3b9809f8	0.0046398602
36	0xbc8b1904	-0.016979702
37	0x3da88ea6	0.08230333
38	0x3dafd222	0.085850015
39	0x3e8beeaf	0.2733054
40	0xbca6b703	-0.020350939
41	0x3e532948	0.20621216
42	0x3e4dbcf7	0.20091616
43	0x3e81156c	0.25211656
44	0x3c954cd7	0.018225117
45	0x3ea0483e	0.31305116
46	0xbd9dd497	-0.07706564
47	0xbe00d658	-0.12581766
48	0xbe824ded	-0.25450078
49	0x3dfc3253	0.12314286
50	0xbe420c13	-0.18949918
51	0x3dd58b97	0.10427015
52	0x3e812323	0.2522212
53	0xbd8cee1e	-0.06881355
54	0xbd1f0959	-0.038827274
55	0x3dbcd9fe	0.09221266
56	0xbdefc59c	-0.11707613
57	0x3e5516f5	0.20809539
58	0x3ce95010	0.02848056
59	0x3dd223b2	0.102607146
60	0x3e49374b	0.19649999
61	0x3d9d192f	0.07670819
62	0x3e1d4aef	0.15360616
63	0x3d0eaaa2	0.034830697
64	0x3ed0b39d	0.40762034
65	0x3df9103a	0.12161298
66	0x3dfb0471	0.122567065
67	0x3dc14564	0.09437063
68	0xbd43a253	-0.047762226
69	0xbe29d141	-0.1658373
70	0xbc123787	-0.008924372
71	0x3e846811	0.25860646
72	0xbbb62910	-0.0055590943
73	0xbdddc9e2	-0.10829522
74	0x3d582e97	0.052778807
75	0x3be2cc47	0.0069213244
76	0xbda34577	-0.07972234
77	0x3e2544c9	0.1613952
78	0xbc367a41	-0.011137546
79	0x3e78ffae	0.24316284
80	0x3daff06a	0.08590777
81	0xbe14e2bf	-0.14539622
82	0xbd0518a6	-0.03249421
83	0x3da7a538	0.0818581
84	0xbd1da8c0	-0.03849101
85	0x3df632ba	0.12021394
86	0xbc0ad0a5	-0.008472596
87	0x3dc6ae1c	0.097011775
88	0x3e2daae8	0.16959727
89	0xbdafdb20	-0.08586717
90	0x3d592978	0.053018063
91	0x3cd88e0d	0.026434923
92	0xbe202d11	-0.15642191
93	0xbe09d741	-0.13461019
94	0x3cf210df	0.02954906
95	0x3e1b8f13	0.15191297
96	0xbdbca9da	-0.09212084
97	0x3e08c2fc	0.1335563
98	0xbd97483d	-0.07386825
99	0x3debea45	0.11519293
100	0xbde35b59	-0.111014076
101	0xbdd39553	-0.10331216
102	0x3d5f954a	0.054585733
103	0xbd0fb0be	-0.035080664
104	0xbdb0a4ed	-0.08625207
105	0x3d25d704	0.040488258
106	0x3e5bf50c	0.21480197
107	0xbdc47275	-0.095921434
108	0xbdf103b0	-0.117682815
109	0x3deda94c	0.116045564
110	0x3e02bbb9	0.12766923
111	0xbda16059	-0.07879705
112	0x3b9d62c0	0.0048030317
113	0xbd4facdf	-0.050701972
114	0x3e0a1e9d	0.1348824
115	0x3dd2ddd8	0.102962196
116	0xbe65679e	-0.22402808
117	0x3c23aefc	0.00999045
118	0xbe8277da	-0.25482064
119	0x3d88670d	0.066602804
120	0xbd40070e	-0.046881728
121	0x3dfc313d	0.12314079
122	0xbe2eb0e9	-0.17059673
123	0xbd4005d0	-0.046880543
124	0xbdba03f0	-0.09082782
125	0xbdd21878	-0.10258573
126	0xbdef9935	-0.11699144
127	0x3e6b35c8	0.22969735
128	0xbdc3f439	-0.09568066
129	0xbed9fe42	-0.42576796
130	0x3e81259a	0.25224
131	0xbe7cfbb0	-0.24705386
132	0xbdcd6b37	-0.10030215
133	0x3dbd1b1d	0.09233687
134	0x3c9f3c5f	0.019437967
135	0x3d4b397f	0.04961538
136	0xbd8f87d7	-0.07008331
137	0x3da08704	0.07838252
138	0x3d1a4dc4	0.03767182
139	0xbe66e689	-0.2254888
140	0xbbdbf288	-0.0067122616
141	0xbe9d5d48	-0.3073523
142	0xbcde1677	-0.027110321
143	0x3b0e55b4	0.0021718564
144	0xbe262f45	-0.1622897
145	0xbc9001dd	-0.017579013
146	0xbdef0d1a	-0.11672421
147	0xbdd880f9	-0.105714746
148	0xbe16e1ef	-0.14734624
149	0x3d89b472	0.0672387
150	0x3d407df0	0.046995103
151	0xbd708f6c	-0.058730528
152	0xbd421c60	-0.04739034
153	0xbdd8d3fe	-0.10587309
154	0xbe88178b	-0.26580462
155	0xbde4b78a	-0.1116782
156	0x3e9f4bf1	0.31112626
157	0x3e5003e8	0.2031399
158	0xbe04315d	-0.12909456
159	0xbe1e456a	-0.15456167
160	0xbe72d677	-0.23714624
161	0x3ec0ed6d	0.37681141
162	0x3df906b3	0.12159481
163	0x3e02f835	0.12789996
164	0xbe2c5e91	-0.16832949
165	0x3c310102	0.010803463
166	0xbe3e94db	-0.18611471
167	0x3e3fb271	0.18720414
168	0xbe2d9fd2	-0.16955498
169	0x3d65cae9	0.056101713
170	0xbdc3565a	-0.09537955
171	0xbeb0b59d	-0.3451356
172	0xbe34555d	-0.17610689
173	0xbe46e4d7	-0.19423233
174	0xbd9c01bb	-0.076175176
175	0x3e460548	0.19337952
176	0x3e5af0b3	0.21380882
177	0xbdd45b82	-0.10369016
178	0x3e39f255	0.18158849
179	0xbdd0f17f	-0.10202312
180	0x3dc69a18	0.0969736
181	0xbd010bdf	-0.03150546
182	0xbe315f1a	-0.17321435
183	0x3de301e8	0.11084348
184	0xbdae8346	-0.08521132
185	0x3e2d155b	0.16902678
186	0x3a9a0d98	0.0011753319
187	0xbd6b6a39	-0.05747435
188	0xbd618973	-0.055062722
189	0x3c896680	0.016772509
190	0x3da4862b	0.08033403
191	0x3cfb6997	0.030689998
192	0x3d05b70b	0.032645267
193	0xbc3c6a87	-0.0115000075
194	0x3d2d4326	0.042300366
195	0xbc3fb111	-0.011699931
196	0xbd77c58d	-0.060491133
197	0xbdb8a3cb	-0.09015616
198	0xbe203c5f	-0.1564803
199	0xbdc7b44e	-0.09751187

clf.0.bias f4 [2]
0	0xbc3eb1c3	-0.011639061
1	0x3c3eab1a	0.0116374735
