best_models/MOGONET/fold_2/E1.pth (torch, 392727 bytes, 6 tensors)

gc1.weight f4 [186, 200]
000000 89 f4 37 bd fa e8 48 3d 34 c0 68 3d e4 02 16 3c
       -0.04491094 0.04905031 0.056823924 0.009155963
000010 16 97 a5 3d 27 3f 76 bd 5d d4 01 be c9 f6 45 3d
       0.08085458 -0.06011882 -0.12678666 0.048331056
000020 66 b4 77 bc d4 73 89 bc ae 2c 55 3d 48 95 e8 3d
       -0.015118694 -0.016778864 0.052044563 0.11356598
000030 95 4a 07 bd fd 16 f8 3d 57 eb 07 3d 31 77 1c be
       -0.03303011 0.1211376 0.033183422 -0.15279843
000040 8c 30 e6 3d 86 a2 93 3d 20 d8 37 be dc bd a8 3d
       0.11239728 0.07208733 -0.17953539 0.08239338
000050 e5 b3 42 bd 6c d5 56 bd c9 b6 54 bd 53 38 60 bc
       -0.047534842 -0.05244963 -0.05193213 -0.013685304
000060 a9 77 22 bb 50 3a 3a 3c 07 ab ed bd f0 22 b4 bc
       -0.0024790561 0.011366442 -0.116048865 -0.021989316
000070 86 fb 43 3d be 26 d1 3d 02 b2 9b bc 3c c0 d2 3d
       0.047847293 0.102124676 -0.01900578 0.10290572
000080 80 80 d9 bc d7 2c a8 3d ec 0a 05 bd 7c 1a 46 3d
       -0.026550531 0.082116775 -0.03248112 0.0483651
000090 48 81 de 3b a3 9e a0 3d 32 a0 e9 3c c3 92 1f 3e
       0.006790314 0.078427576 0.02851877 0.15583329
0000a0 5c 3f c9 3d e3 4f b2 3c d1 f6 5b bc 08 1b 05 bd
       0.09826538 0.021766609 -0.013425545 -0.032496482
0000b0 61 29 42 3b 8b 20 2f 3a ab 19 e4 3d 63 0d 62 bd
       0.0029626715 0.00066805695 0.11137708 -0.055188548
0000c0 18 f4 17 bd 8b 3e e5 3c 1b 88 3c bd 36 83 4f bd
       -0.03709802 0.027983924 -0.046028238 -0.050662242
0000d0 d2 5a 41 bc f1 73 a9 bd 44 30 a3 bd d7 f0 85 3d
       -0.011801438 -0.08274067 -0.0796819 0.06540077
0000e0 ab 52 14 bd 06 57 a4 bd 4d 52 07 bd 9e b0 00 bd
       -0.03621165 -0.08024411 -0.033037473 -0.031418435
0000f0 95 3d 9c bd 6f 93 0b 3e 0f 39 e1 bc c2 5d 14 bd
       -0.07628933 0.1363046 -0.027493028 -0.036222227
000100 76 28 a4 3d 07 a8 2f 3b 3c c1 7d 3d 29 80 b2 3d
       0.0801553 0.0026803033 0.06195186 0.08715851
000110 20 08 60 bd b5 d6 7a bd cb 93 05 3e 6e 76 83 3d
       -0.05469525 -0.061239917 0.1304466 0.06419073
000120 da 56 1a bd ce 50 06 3e 49 ca 1d 3c d5 12 b6 bc
       -0.037680484 0.13116762 0.009630748 -0.022225777
000130 37 7f 09 3e 08 25 25 3d 94 25 f0 3a f3 05 a0 bd
       0.13427435 0.04031852 0.0018321746 -0.07813635
000140 90 73 c1 bd 2b 7a 28 3e d7 aa ce bd 0b 7e c3 3d
       -0.0944587 0.16452853 -0.10091179 0.09545525
000150 73 63 69 3d 9e 72 81 3d dd 0f 82 bb 53 f6 96 3d
       0.056979608 0.063206896 -0.003969176 0.07371201
000160 5d 1b 46 3c 76 85 c2 3b f0 ca 53 3b 3b fe 8e 3d
       0.012091485 0.00593632 0.0032317005 0.06982084
000170 b6 cd ad 3c bc e1 c0 3c 87 47 84 bd ca 0b 9e bd
       0.021216255 0.023545139 -0.06458955 -0.07717092
000180 0c 94 53 bd 42 60 82 bd c1 cc 1b 3d 79 52 0c bd
       -0.05165486 -0.06366016 0.038037065 -0.03425834
000190 0b b9 93 bc 9f 18 30 bd 81 66 98 3c 7e 97 08 bc
       -0.018032571 -0.04299223 0.018603565 -0.0083369
0001a0 30 f6 6d bc 6b a4 e8 bc c7 02 b2 3b 08 b9 bb 3d
       -0.014524028 -0.028398713 0.00543246 0.09166151
0001b0 04 1d 38 3e ba ed 15 bd a8 9c 98 3d d0 a9 d5 3d
       0.17979819 -0.036603667 0.07451755 0.1043278
0001c0 ce 39 a6 bc 12 02 87 bd f2 84 82 bb ea 7b 55 bd
       -0.020291235 -0.06592192 -0.0039831335 -0.052120127
0001d0 49 b3 a2 3d c5 c5 2a 3c 9b 7e 43 3d c7 75 d8 3c
       0.07944352 0.0104231285 0.047728162 0.026423348
0001e0 c0 a0 c1 bd c8 a0 01 be 1f d5 ca 3d 67 c0 0e be
       -0.09454489 -0.1265899 0.09903931 -0.13940583
0001f0 ee d6 8d bd bd 39 ba 3c 7a 9e 0b 3e b5 df 1d 3d
       -0.0692576 0.02273261 0.13634673 0.03854342
000200 4e 5a 38 bc 62 0e 53 bd 1d 9b bf bc d0 3b a5 bd
       -0.011251999 -0.05152739 -0.023389393 -0.08068049
000210 22 f8 c3 bd 05 b8 56 bc 0a 97 af 3b 7a 5d d5 ba
       -0.09568812 -0.013105397 0.0053585814 -0.0016278469
000220 6b 19 a9 bd 24 9c aa 3c 61 e9 d6 ba 24 11 04 3c
       -0.08256801 0.020826407 -0.0016396457 0.008060727
000230 11 4c 3c 3c 18 bd 07 be 22 af fa bd a8 eb 72 bc
       0.011492745 -0.13255727 -0.12240435 -0.014826693
000240 97 a6 e6 3c 70 bf b4 3c a2 e5 dc bd f0 86 b2 bd
       0.028155608 0.02206394 -0.107859865 -0.087171435
000250 13 5b b3 3d b1 8b aa 3c 51 e5 e2 bc 49 25 fb 3a
       0.087576054 0.020818563 -0.027697237 0.0019160892
000260 a3 d3 53 bd 74 eb 67 bd 85 a3 17 be b0 8d 0e 3d
       -0.051715504 -0.05662103 -0.14808472 0.034803092
000270 f5 2f 3b be 1f f2 3c 3d 12 74 59 bd e0 ce 04 bd
       -0.18280013 0.046129342 -0.05308921 -0.032423854
000280 a0 9b db 3d 46 6c 00 bb 68 5c c9 bd 52 df a5 bb
       0.107230425 -0.0019595786 -0.09832078 -0.0050620222
000290 ab 0b 9e 3d 79 f5 16 be b1 83 86 bc 2d 67 b8 3b
       0.07717069 -0.14742078 -0.016420217 0.005627534
0002a0 2d 49 90 3d 09 a9 15 3d a6 0f c1 3d 75 39 dd 3d
       0.07045207 0.036538158 0.09426813 0.10801975
0002b0 50 c0 ba 3c 46 21 30 3d c6 8e e7 bc 64 72 a4 bd
       0.02279678 0.043000482 -0.028266322 -0.08029631
0002c0 e7 05 67 bd 11 ae 0a 3d 28 7c 62 3d 97 a1 02 3d
       -0.056402113 0.03385741 0.055294186 0.031892385
0002d0 8b 1c 33 bc 5a d2 b6 3d e1 71 a9 bb 10 73 9c bd
       -0.010932098 0.0892684 -0.005171046 -0.07639134
0002e0 34 fe ac 3d de 49 ce 3b 82 f9 db bd 8a d8 5b bc
       0.08446923 0.0062954267 -0.10740949 -0.013418326
0002f0 80 ef f7 bd 0f d3 b6 3d 64 e2 eb 3d a5 fe 0d 3e
       -0.12106228 0.08926975 0.1151779 0.1386667
000300 ad e1 1a bc 91 9b dc 3d 3f 0e 75 3d 66 59 08 be
       -0.009453219 0.107718594 0.05982804 -0.13315353
000310 4a 08 ca bd 97 03 09 be 5e 0f 43 3d 45 53 8f 3d
       -0.09864862 -0.13380276 0.047622077 0.06998304
000320 11 db 71 bc 01 4c b2 3d 23 3d a6 bc 65 f7 a0 3c
       -0.014761702 0.08705903 -0.020292824 0.019649217
000330 09 0e 16 be a1 41 fb bc e8 a4 3e bc b8 71 4c 3d
       -0.14653791 -0.030670943 -0.011635996 0.04991314
000340 43 5b 65 3d 02 ff bf 3d ea 71 07 bd 71 b4 49 bd
       0.055995237 0.09374811 -0.03306762 -0.049244348
000350 a2 d8 35 be 8e 03 8c bd ca 67 3a 3e fc 27 ee bd
       -0.1775842 -0.068366155 0.18203655 -0.1162872
000360 e2 2e 53 3c 6f ea 6f 3d 92 10 5c 3d 84 10 0c 3e
       0.012889596 0.058573183 0.05372674 0.13678175
000370 80 50 0e 3c 7c 8e e7 bd 1c de 1d bd 26 99 4e 3d
       0.008686185 -0.113064736 -0.038541898 0.050439022
000380 64 68 a4 bd 62 ca 00 3d af 2b 99 bc 01 70 3e bd
       -0.080277234 0.031443007 -0.018697588 -0.046493534
000390 fd 24 db 3d eb 43 9e 3d a3 47 1b 3d a0 61 1b bd
       0.10700414 0.07727798 0.037910115 -0.0379349
0003a0 17 20 ec 3c eb 71 00 bc cb 8d ab 3c aa a6 1c 3d
       0.028823895 -0.00783966 0.020941636 0.03824488
0003b0 b0 04 c6 3d 5b 4e 03 3d 7e a4 9e 3c 19 b7 cd bd
       0.09668863 0.032057147 0.019365545 -0.10044689
0003c0 00 4a b0 bd 8a b0 dc bc e4 d3 d0 bd 04 5a be 3c
       -0.086078644 -0.02693965 -0.10196665 0.023236282
0003d0 bf 51 08 be b1 43 bd bd b9 43 bc bd 5b 8f 20 bd
       -0.13312434 -0.09241427 -0.091926046 -0.039199214
0003e0 78 22 14 be ff db 46 bd 39 78 8a bd 4d d6 e3 3d
       -0.14466274 -0.04854965 -0.06761212 0.11124859
0003f0 29 bb bc bc 01 43 4d 3d ba 90 48 bc c6 be 3e bd
       -0.023038464 0.050112728 -0.012241537 -0.046568654

gc1.bias f4 [200]
000000 84 82 58 bd 79 e3 9e bd 02 61 ed bd fa f2 2b be
       -0.052858844 -0.07758231 -0.115907684 -0.16791907
000010 7c 24 73 bd 95 83 07 be 64 14 07 be 5a 35 90 bd
       -0.059360966 -0.13233788 -0.13191372 -0.07041426
000020 5e 93 8d bd 2d 1f dc bd a1 88 b5 bd 5e 8c e0 bd
       -0.06912874 -0.10748134 -0.088639505 -0.10964273
000030 f2 85 10 be 35 d1 06 be 33 5c 8f bd 76 3a b4 bd
       -0.14113596 -0.13165744 -0.070000075 -0.08800213
000040 64 dc bf bd 87 71 aa bd 74 e1 fa bd ce 25 dc bd
       -0.09368208 -0.08322435 -0.12250033 -0.10749398
000050 06 b0 00 be 91 22 cf bd b8 5c 06 be 90 70 10 be
       -0.12567148 -0.10114015 -0.13121307 -0.14105439
000060 99 bd 81 bd a6 87 e4 bd 52 f4 d1 bd 05 3e b2 bd
       -0.06334991 -0.111586854 -0.102516785 -0.087032355
000070 f6 1e d9 bd e4 4b 10 be 72 b7 40 bd 00 a5 9a bc
       -0.106016085 -0.1409145 -0.047049947 -0.018877506
000080 2a 6b a1 bd 2c 35 cc bd 7a 65 00 be 45 de 90 bd
       -0.07881768 -0.09971079 -0.1253871 -0.070736445
000090 42 d8 09 be e3 35 26 be 9a 6b 01 be 85 f7 cd bd
       -0.13461402 -0.16231494 -0.12638703 -0.10056976
0000a0 c4 86 e1 bc 60 b7 eb bd b3 76 11 be 0a 3f df bd
       -0.027530082 -0.115095854 -0.14205436 -0.109006956
0000b0 8d 0b 1a be ac ad af bd 0a 18 91 bd bd 56 09 be
       -0.15043469 -0.08578047 -0.07084663 -0.13411994
0000c0 9b 3e fa bd ea 27 24 be 99 4e fc bd a4 9c fa bc
       -0.12218972 -0.16030851 -0.12319679 -0.03059227
0000d0 a3 97 a9 bd ce a9 35 be 02 17 4f bd 20 77 d8 bd
       -0.082808755 -0.17740557 -0.05055905 -0.10569596
0000e0 e9 d6 12 be fa 18 e2 bd c6 d9 24 be 2d 51 16 be
       -0.14339794 -0.1103992 -0.16098699 -0.14679404
0000f0 57 f8 c2 bd 5b 8c ba bd af 76 a0 bc 5c 1f c2 bd
       -0.09520023 -0.09108802 -0.019587843 -0.094786376
000100 60 9c a0 bd da f4 d0 bd 17 06 07 be e7 a3 d6 bd
       -0.07842326 -0.10202952 -0.13185917 -0.10480481
000110 cc 6e ae bd 0b 32 c8 bd fd db 0c be f2 c1 fc bd
       -0.085172266 -0.0977517 -0.13755794 -0.1234168
000120 ad 9e ed bd f9 a7 f8 bd e9 49 03 be 13 42 e1 bd
       -0.11602531 -0.12141413 -0.12821163 -0.10998931
000130 bf 52 b4 bd 27 0e d2 bd ac 8f 70 bd af 47 70 bd
       -0.08804845 -0.102566056 -0.058730766 -0.058662113
000140 b9 ab 1d bd 7e e3 d8 bd 7d 70 cf bb 80 22 02 be
       -0.038493846 -0.10590266 -0.0063305483 -0.12708473
000150 13 38 cb bd 03 10 fb bd 45 28 e7 bd cb 8f 88 bd
       -0.09922805 -0.12258913 -0.11286978 -0.06668051
000160 3c 64 b9 bd 8c e2 74 bd 7c 9c 26 bd 42 36 0b be
       -0.09052321 -0.059786364 -0.04067658 -0.13594916
000170 1e b0 22 be 8b a6 cf bd d7 f5 2c be 88 6e e9 bd
       -0.15887496 -0.101391874 -0.16890655 -0.11398035
000180 fd 6a b8 bd e1 de c7 bd be ea e3 bd ea b1 c2 bd
       -0.090047814 -0.09759308 -0.11128758 -0.09506591
000190 68 11 f9 bd da c1 b0 bd 72 2b 19 be 18 22 90 bd
       -0.12161523 -0.08630724 -0.1495798 -0.07037753
0001a0 ae e2 a7 bd 2e 5c ca bd 8e cd ed bd 34 1a f4 bd
       -0.081975326 -0.09880863 -0.11611472 -0.1191906
0001b0 f3 44 e4 bd 1c 5b 90 bd c3 19 bf bd f3 ac ee bd
       -0.111459635 -0.07048628 -0.093310855 -0.11654081
0001c0 74 89 9e bd d7 e8 60 bd cb fe fd bd 79 8a 15 be
       -0.07741061 -0.054909553 -0.124021135 -0.14603604
0001d0 5a 15 0c be ee 5b 0a be e0 b1 25 be 52 9b ca bd
       -0.1368002 -0.13511631 -0.16181135 -0.09892906
0001e0 b3 68 40 bd d4 19 45 be 86 ed 00 be fe dd bc bd
       -0.04697485 -0.19248134 -0.12590608 -0.09222029
0001f0 43 e1 1e be c1 e0 e0 bd b0 e6 cd bd d2 5e 92 bd
       -0.15515618 -0.109803684 -0.10053766 -0.07146992
000200 d1 ae 82 bd e3 69 8d bd ec ca ee bd bd 63 ad bd
       -0.06381 -0.06904962 -0.11659798 -0.08466289
000210 f5 3f 38 be 4f d1 d1 bd 47 ef 14 be ca da c3 bd
       -0.17993148 -0.102450006 -0.14544402 -0.09563215
000220 cd 35 b4 bd 05 19 20 be ac d8 fa bd 60 67 05 be
       -0.08799324 -0.15634544 -0.12248358 -0.13027716
000230 1f 44 3c be b2 ee ac bd be 1a cf bc d3 ca 27 be
       -0.18385361 -0.08443965 -0.025281306 -0.16385965
000240 c7 8d c4 bd 06 9a d6 bd c2 11 b0 bd c3 61 be bd
       -0.095973544 -0.104785964 -0.08597137 -0.0929599
000250 be 30 de bd fb d9 c6 bd fc 85 f0 bd bf cf 69 bd
       -0.108491406 -0.09709545 -0.117443055 -0.057082888
000260 4b 0a b5 bd b3 17 f3 bd d4 87 0e be a1 5d fd bd
       -0.08839854 -0.11869755 -0.13919002 -0.12371374
000270 5d 68 06 be c6 24 0c be f6 30 de bd 0c b2 14 be
       -0.13125749 -0.13685903 -0.10849182 -0.14521044
000280 7c b3 15 be 6d 32 79 bd b2 91 19 be 9c ec b1 bd
       -0.14619249 -0.060839105 -0.14996985 -0.08687708
000290 f8 aa 04 be 05 5f 15 be d9 b0 59 bd c7 77 b2 bd
       -0.12955844 -0.14587028 -0.05314717 -0.08714252
0002a0 02 71 12 bd e1 bf 27 be 09 6d 24 be 84 94 2f be
       -0.035752304 -0.1638179 -0.16057219 -0.17146498
0002b0 ca bd fe bd 01 df 9b bd af 25 40 bd dc 3e 1f be
       -0.12438543 -0.07610894 -0.046910938 -0.15551323
0002c0 9b d3 f9 bd 2a 89 3a be 57 20 cc bd 52 3f 31 bd
       -0.12198564 -0.18216386 -0.09967106 -0.043273278
0002d0 53 ad ec bd ab 02 fb bd a8 a5 49 be 0b 3a 11 be
       -0.115564965 -0.12256368 -0.19692099 -0.14182298
0002e0 a1 51 de bd 3a f9 10 be 14 cc e5 bd 85 18 07 be
       -0.10855413 -0.14157572 -0.112205654 -0.13192947
0002f0 22 1f eb bd 82 6c 82 bd 87 4a 59 bd 41 70 1b be
       -0.114805475 -0.063683525 -0.05304959 -0.1517954
000300 f0 ea b5 bd 8f c6 0b be 05 6f ba bd 0a d7 1b be
       -0.088827014 -0.13649963 -0.091032065 -0.1521875
000310 91 51 2b be 8e 9c 15 be b6 08 a2 bd 27 17 f3 bd
       -0.16730334 -0.14610502 -0.07911818 -0.1186965

gc2.weight f4 [200, 200]
000000 77 94 57 bd c1 bb 98 3d 2c c1 03 be 90 e9 19 3d
       -0.05263182 0.07457686 -0.12866658 0.03757626
000010 7e f8 e9 3d da c2 aa bb ce 82 70 3d d9 be 8b bd
       0.11424349 -0.0052112164 0.058718495 -0.06823511
000020 66 60 9f 3c bf 2d 52 bc 44 18 45 3d 75 c0 13 3c
       0.019455146 -0.0128282895 0.048118845 0.009018053
000030 48 81 b8 3d 31 be a1 bd 2d 26 24 bd 9a 28 10 bd
       0.090090334 -0.07897604 -0.04007547 -0.03519497
000040 66 c3 3e bd 46 17 30 bd 8f ec 8e 3c 2a 7d 62 bd
       -0.046573065 -0.042990945 0.017446784 -0.055295147
000050 42 be d3 3b cb f4 54 bd 69 74 47 3d 40 a2 c7 3b
       0.0064618895 -0.051991265 0.048695 0.0060923398
000060 a2 ea a2 bd 89 fc 22 3e 05 17 ae 3d c5 64 c7 bc
       -0.07954909 0.15916647 0.085004844 -0.024340043
000070 35 5b c7 3c 52 58 ae 3d 50 19 83 3d 1f 08 4b bd
       0.024335483 0.085129395 0.06401312 -0.04956829
000080 6c 19 70 3a 7c 16 af bc 83 65 70 bd ff 9e b0 3d
       0.00091590616 -0.021373026 -0.05869056 0.08624076
000090 35 83 2e 3c 84 67 ac 3d 77 c3 67 bd 74 87 b3 bd
       0.010651399 0.084181815 -0.056582894 -0.0876607
0000a0 1c b2 94 3c 46 88 1f bd c0 e0 a2 3c 39 95 fd bd
       0.018151335 -0.03894832 0.01988256 -0.123819776
0000b0 f7 81 5f 3d e3 c6 ac bd 3b 3b bb 3c 1a 29 4e 3e
       0.054567304 -0.08436372 0.022855392 0.20132867
0000c0 c7 d3 c7 bd af 04 88 bd f5 fd 43 3c d4 0a 1a 3c
       -0.0975719 -0.06641518 0.011962404 0.009401996
0000d0 67 62 c6 3d de d0 4d bd e1 5d 07 be 75 39 30 bb
       0.096867375 -0.05024802 -0.13219406 -0.0026889716
0000e0 6d 52 07 3c ee 13 12 3c 1b 4f f1 3c da 07 e4 ba
       0.008259398 0.008915884 0.029456666 -0.001739736
0000f0 80 87 be 3d be 65 a7 bd 8d a0 e4 ba 6b 9c a4 bc
       0.09303188 -0.08173703 -0.0017442867 -0.020094117
000100 d7 b5 39 be 61 55 10 3e b5 0a 59 3a 7a 83 71 3d
       -0.18135773 0.1409507 0.00082794885 0.058963276
000110 1d c8 51 bc f0 89 54 bd ff 14 92 3d d1 bd 78 bc
       -0.012804058 -0.05188936 0.07132911 -0.0151819745
000120 a0 74 0b bd 7b 7b e1 bc 03 92 20 3c dd 53 8a 3d
       -0.03404677 -0.0275247 0.009800437 0.06754277
000130 3f 76 ea 3c 55 98 1e bd f0 cb af bd 22 de 8b bd
       0.028620837 -0.038719494 -0.0858382 -0.06829478
000140 c8 43 f5 bd 4e 27 da bc c9 66 54 bc 32 e0 b5 3c
       -0.11975819 -0.02663007 -0.012963959 0.022201631
000150 cb 02 66 3d 8a c6 c2 3d c4 80 53 bc fe 43 a6 3b
       0.056155007 0.095105246 -0.012909118 0.0050740233
000160 42 5e 09 bd de 68 02 3c 6d f8 cc bc 0f fb 78 bd
       -0.033537157 0.007959573 -0.025020802 -0.060786303
000170 a4 6f 59 bd 53 33 a3 bd 7b 1d 56 3d 4d 12 c6 bd
       -0.053084984 -0.07968774 0.05227421 -0.09671459
000180 35 e1 75 bc c6 06 be bd c3 16 fb bc 2f d8 0f be
       -0.015007307 -0.09278636 -0.030650502 -0.14047311
000190 20 61 8b bd 4b 3f e9 bd 51 e5 0d 3d de b5 3b be
       -0.068056345 -0.11389025 0.03464252 -0.18331096
0001a0 1c 2e 15 bd 5d b1 1c 3c 62 bd d1 bd 47 e0 f5 3c
       -0.036420926 0.009563771 -0.102412 0.03001417
0001b0 e0 31 95 3d c9 bf a5 bd 8b e0 c1 bd 5d ed e6 ba
       0.072849035 -0.08093221 -0.09466656 -0.0017618347
0001c0 fb c7 f5 bd 5a 23 bf bd b5 e9 a2 bd 8b 8a 87 bd
       -0.12001034 -0.09332915 -0.07954732 -0.06618222
0001d0 5c 1f 62 ba 91 02 f8 bd e2 0c a5 3d 24 62 cb bd
       -0.0008625889 -0.121098645 0.08059098 -0.09930828
0001e0 e0 da 53 be 04 60 ad 3d 56 3f 01 3d 43 73 9d 3c
       -0.20688963 0.08465579 0.031554542 0.01922
0001f0 bb 60 9b 3c 38 fa a3 bd 77 9b 3d bd 28 5f e2 bd
       0.018967023 -0.0800671 -0.04629084 -0.11053306
000200 92 93 5b 3d eb 3c bc bd f5 02 a5 3c 69 b6 91 3d
       0.05360753 -0.09191307 0.020143012 0.0711487
000210 e3 24 bb bd ef 5a a7 bd 6e a6 12 bc 24 f6 6f bb
       -0.09137895 -0.08171641 -0.008950813 -0.0036615217
000220 1e a9 9d bc 21 9d 45 3d 7a 26 8c bd 8d ec a0 3d
       -0.01924568 0.048245553 -0.06843276 0.078576185
000230 57 6e f0 3c ef 05 7f bd 5d f9 bb 3c a7 bb cd bb
       0.02934949 -0.062261518 0.022946054 -0.0062784734
000240 dc a7 73 3d f6 53 28 3d f9 4b dd 3b 8f e9 9d bc
       0.059486255 0.041095696 0.0067534414 -0.019276408
000250 cc 89 0d bd e5 7d 80 bd fa c8 6d bd b5 ff 28 3d
       -0.03455524 -0.062740125 -0.058052994 0.041259486
000260 7f 42 ad bb 73 eb 96 bc f0 e1 8b 3d 02 62 4a 3c
       -0.005287468 -0.018422818 0.068302035 0.012352468
000270 f0 e8 80 bd 60 94 34 be 72 4f 24 bd f9 f9 4c bd
       -0.06294429 -0.17634726 -0.040114827 -0.05004308
000280 cf 1b b4 bc dc 1d bd bd 82 8d 5a 3b 79 73 23 bc
       -0.021985916 -0.09234211 0.0033348505 -0.009976261
000290 e9 aa ad bd 5a d1 9b bd 4a 3c 02 3e 8f 0f 58 3d
       -0.08479864 -0.0760829 0.12718311 0.052749213
0002a0 16 29 8f 3d 37 4b c6 bd 60 fa 9e 3c 7b 7e 37 bd
       0.069902584 -0.09682315 0.019406497 -0.044798356
0002b0 bd 78 3f be 48 a3 1b be 2d fe 40 be a6 83 46 3d
       -0.18698402 -0.15199006 -0.1884696 0.048465393
0002c0 19 e3 55 3d fe bb cf 3d 48 34 3e 3a c1 76 23 be
       0.05221853 0.101432785 0.00072557153 -0.1596327
0002d0 49 2f 60 bd 4a 64 41 bd 55 ef 26 bc 0b c7 1c 3d
       -0.054732595 -0.047214784 -0.010188897 0.03827576
0002e0 06 ec ce bd 10 7d b7 bd e5 84 b5 bd a9 72 cf 3c
       -0.10103612 -0.08959401 -0.08863238 0.025323229
0002f0 aa 4d 03 3c c5 96 06 bd 49 2f b2 bd c4 c1 a5 bc
       0.008014122 -0.03285863 -0.08700425 -0.020233996
000300 f8 97 e6 bc 15 76 28 3d cf f6 ea bc 90 0b 29 bd
       -0.028148636 0.041128237 -0.02868214 -0.041270792
000310 82 d2 20 bd b0 92 5d bc d8 84 8f bd 85 18 30 bd
       -0.039263256 -0.013523743 -0.0700776 -0.042992134
000320 95 4e 2a be 03 1e e9 3c b3 73 5f 3c 37 79 18 bd
       -0.16631539 0.028456694 0.013638425 -0.037224974
000330 f3 78 64 3d 8b e6 1c be 35 24 00 bc 0d 91 1e 3c
       0.05577941 -0.1532232 -0.007821132 0.0096781375
000340 3d 72 77 bd 34 7b 15 3d ed 59 0e 3d 6b 11 8a bd
       -0.06041168 0.03649445 0.03475373 -0.067416035
000350 de 87 3f 3d e3 d7 44 bd 50 0f f1 3b 89 6f 9d 3d
       0.046760432 -0.048057448 0.0073565617 0.07687289
000360 ab 62 41 3e f1 86 a8 bd 6b 13 06 bd e8 42 26 3d
       0.18885295 -0.08228863 -0.032733362 0.04059115
000370 7a d6 d8 bb 61 d1 02 be 8d 25 d4 3d 02 0a 92 bd
       -0.0066173645 -0.12775184 0.10358725 -0.07130815
000380 d3 ee 16 bd 7c 73 0d bd a5 18 0f 3c 14 52 5e 3c
       -0.036848854 -0.034533963 0.008733903 0.013569374
000390 20 6f 9c bc 28 59 a3 3d 71 f5 03 3d e3 72 02 bd
       -0.019095957 0.079759896 0.032216493 -0.031847846
0003a0 0a b7 d6 3a c6 5b 2f 3d e0 e6 4d 3d e9 9d 24 3d
       0.0016381454 0.04281213 0.050269008 0.040189657
0003b0 39 99 e0 3c d1 7e 5e 3c 13 fd 5a bc 61 fd 06 3d
       0.027416812 0.01358004 -0.013366002 0.032956485
0003c0 a1 4f 99 3c 25 92 f5 bb cb 6a a6 bd 5b 0b ce bd
       0.018714728 -0.0074942284 -0.08125838 -0.1006076
0003d0 96 18 6d bc e4 bc bf 3d dc b6 84 bc 8d e0 30 3c
       -0.014471194 0.093622 -0.016200475 0.010795725
0003e0 5c 2a 34 be e8 d0 21 bd f0 7c f6 3c 0b 0a 37 be
       -0.17594284 -0.03950587 0.030088872 -0.17874925
0003f0 ae 48 f1 ba a2 b7 39 3d c0 ed 30 3b 0a 6f 37 be
       -0.0018408501 0.04534114 0.0026997179 -0.17913452

gc2.bias f4 [200]
000000 71 d4 e4 bc 7a 5d 4d 3d 11 84 8f bd c7 07 68 3d
       -0.027933331 0.050137974 -0.070076115 0.056648042
000010 78 a9 f9 bc 6b 09 2c bd e4 2c be bc ec 1e 77 3b
       -0.030476317 -0.04200117 -0.023214765 0.003770764
000020 47 3b da bc fa 43 e0 bb 45 57 0d bd e9 24 38 bd
       -0.026639594 -0.006844041 -0.034507055 -0.044957075
000030 42 eb ab bc 6a f1 92 bc 6d d8 2b 3a 72 d6 3c bd
       -0.020986203 -0.01793738 0.0006555382 -0.04610295
000040 0b 6c fd bc f0 85 58 bc 68 99 ae ba 42 8b a4 3b
       -0.030935308 -0.013215527 -0.0013320865 0.0050214836
000050 87 1b 08 bd 96 7f ea 3c ea 15 11 3c 98 68 a4 bc
       -0.033229377 0.02862529 0.008855322 -0.020069405
000060 4e 6c 98 bd 66 5f a5 bc c6 9f 23 bd f7 e1 11 3d
       -0.074425325 -0.020187091 -0.039947294 0.035615887
000070 d3 f8 f2 bc 1d 33 8f bc ac 62 32 bd 4f e0 61 bd
       -0.029659664 -0.017480427 -0.043551132 -0.055145558
000080 dd c7 cf bb 56 dd 18 bd d7 cf 61 bc 6c f6 bd bc
       -0.006340964 -0.037320457 -0.013782463 -0.023188792
000090 5c 9b 4d bd 5c 9a 49 bd 3d a5 e7 bc f0 6a de bb
       -0.05019699 -0.049219474 -0.028277034 -0.0067876503
0000a0 ec 0c 37 3d f9 8a 28 bd a8 00 55 bc 9d 89 94 3a
       0.044690058 -0.04114816 -0.013000645 0.0011332516
0000b0 9a de 41 bc 67 8d 20 bd d4 6d 5a bd 38 e0 86 bc
       -0.0118328575 -0.03919735 -0.053327397 -0.016464338
0000c0 86 66 c3 ba d4 88 90 bc 9b 71 59 bd fe 5a 91 3c
       -0.0014907874 -0.01764337 -0.05308686 0.017743584
0000d0 0a ae 8f bc ec d0 00 bd 89 2a 45 bd 34 7f 13 3c
       -0.017539043 -0.031449243 -0.048136268 0.009002496
0000e0 2f 84 0c bc 48 4e bc bc ff 64 41 bc 31 ea 20 bd
       -0.008576437 -0.022986546 -0.0118038645 -0.039285842
0000f0 88 d1 74 bb 75 69 02 bd 0a 91 f2 b9 90 2a 45 bd
       -0.0037356336 -0.031838853 -0.000462659 -0.048136294
000100 a3 9a c7 bc d3 49 ae bc a7 1f cb bc 72 f7 46 bd
       -0.024365729 -0.021275437 -0.024795366 -0.048575826
000110 9a d1 14 bd 48 0b de bc 85 4c 62 bb 85 32 c1 3c
       -0.036332704 -0.027104989 -0.0034530472 0.02358366
000120 4d 29 7a bd 04 0e 30 bc d1 4b 92 3b 97 48 97 3c
       -0.061074544 -0.010745529 0.0044646044 0.01846723
000130 85 89 aa 3c 86 2c 64 bc 15 15 cf 3c 14 60 c3 bb
       0.020817528 -0.013926631 0.025278607 -0.005962381
000140 9e 7d df 3b 99 92 55 3d 48 74 57 3c d8 c1 13 bd
       0.0068203947 0.05214176 0.013150282 -0.036073536
000150 5d 4f 50 bb d1 4a a9 3b 8f a7 5b bd 00 cb af bc
       -0.0031785585 0.0051663895 -0.053626593 -0.021459103
000160 f1 5f a4 bb 5d f7 50 bd 6a 26 a5 3c 31 a6 3c bd
       -0.00501632 -0.051017154 0.020159919 -0.04605693
000170 b0 6a c4 bd 99 d1 85 3a c2 17 e3 bc 9d 1f cd bc
       -0.095906615 0.001020956 -0.02772129 -0.025039488
000180 53 d7 89 3b 62 dc 81 3d c9 46 3e bd 16 5c b7 bc
       0.004206577 0.06340863 -0.046454225 -0.022382777
000190 c0 8a 86 3c 1c e1 0f bd 07 87 78 bc bb 7e 69 3c
       0.016423583 -0.03512679 -0.015168912 0.014251406
0001a0 40 f1 b1 bc fd 93 8a 3c af c4 25 bd 23 2b fd bc
       -0.021721482 0.01691627 -0.040470775 -0.030904358
0001b0 c4 77 a8 3c 03 c9 20 bd d1 6d e3 bc 6f 25 b2 bc
       0.020564921 -0.0392542 -0.027762325 -0.021746365
0001c0 2f 62 3d bd 17 e5 9d 3d 29 70 04 bc 36 57 25 bc
       -0.046236213 0.07709711 -0.008083382 -0.0100915935
0001d0 e3 a1 e3 bc 9e cd 06 3c 5c db 00 bd 85 5d 50 3a
       -0.027787155 0.008227734 -0.031459197 0.0007948506
0001e0 fc b8 81 3b e9 92 13 bd 50 5e c2 3c 35 ce 58 bd
       0.0039588194 -0.036028776 0.023726612 -0.05293103
0001f0 3c 08 78 bd 76 58 6f bd 46 f2 61 bd 93 bf 2c bb
       -0.060554728 -0.058433972 -0.05516269 -0.0026359304
000200 c8 59 2a bd d2 5d 92 bb a7 1d 82 bc e7 b8 5f bd
       -0.04158953 -0.0044667507 -0.01588328 -0.054619696
000210 0f 21 06 bd 21 d9 ef bb 1e 31 1e bc 27 55 95 3c
       -0.03274637 -0.007319585 -0.009655265 0.01822908
000220 70 fc af bd 43 1a 77 bd 8a d3 68 bb ff 64 ec 3b
       -0.085930705 -0.06032778 -0.0035526478 0.007214188
000230 6f b1 53 bd 9a 16 a8 bc b2 69 fb bc c8 e9 2b 3c
       -0.051682886 -0.02051859 -0.030690048 0.0104927495
000240 71 e6 8c 3c 78 5c 65 ba 25 d1 0b bc be 53 ee bc
       0.017199727 -0.00087494357 -0.008533751 -0.029092666
000250 c3 a8 11 bb c1 43 2e bc 62 bd c6 ba d4 96 80 bd
       -0.0022225834 -0.010636271 -0.0015162642 -0.06278768
000260 12 a4 05 bd 02 5a bf bc 1f b4 fd ba 7d d1 1f 3d
       -0.032627173 -0.023358349 -0.0019356048 0.039018143
000270 06 67 d6 3b 2d 38 45 bd 3d 0a b9 bc cf 93 2a bd
       0.006543043 -0.048149277 -0.02258789 -0.041644868
000280 0e ce 09 3c fd c6 09 bd 3a 05 e8 b8 a4 a7 23 bc
       0.008410944 -0.033637036 -0.000110635956 -0.009988699
000290 5b 3f e1 bc 3e ab 14 3d 70 40 3d bd 74 16 22 3c
       -0.02749603 0.03629612 -0.04620403 0.009893049
0002a0 d6 46 71 bc 05 8a ee bb 2b c2 ac bb d1 ad 6d bd
       -0.014726361 -0.007279637 -0.00527217 -0.058027092
0002b0 09 dd a8 bd 7c 06 66 3b 37 85 de 3b 9d 88 85 bd
       -0.08245284 0.003509908 0.006790783 -0.065201975
0002c0 07 ba e2 bb 54 27 20 bd 25 57 d0 3c 62 00 36 bb
       -0.006919149 -0.039100006 0.025432179 -0.0027771224
0002d0 67 4b 4c 3d 50 e0 b4 bc 09 0f ab bc 8c 21 4d 3c
       0.049876597 -0.022079617 -0.020881193 0.012520205
0002e0 6a 9b 9d 3b c4 5e 87 bc 47 d0 6f bd 6d c5 cd 3b
       0.0048097866 -0.01652468 -0.058548238 0.0062796385
0002f0 fb 0e 87 3c ab ce e6 bc c1 97 d0 3c 5a df b8 bc
       0.016486635 -0.028174719 0.025462987 -0.02256744
000300 f6 39 f8 bc cb c5 0f bd be 5b 15 bd c4 8c 47 bd
       -0.030301075 -0.03510074 -0.036464445 -0.04871823
000310 b0 9b e2 ba d5 5c da bc 72 61 d9 bc 36 7e fe bc
       -0.001728883 -0.026655594 -0.026535723 -0.031066041

gc3.weight f4 [200, 100]
000000 94 be cc 3b 70 80 81 3c 3a 38 2a 3d c7 1c 72 3c
       0.0062483046 0.015808314 0.041557528 0.014777369
000010 50 5f 15 3e 93 dd 51 3d 0f 04 da 3d 07 50 27 3e
       0.1458714 0.0512367 0.10645305 0.16339122
000020 66 1b ea bd 1d 5e 3a 3d ca 94 10 3e 89 38 91 3d
       -0.11431007 0.04549991 0.14119259 0.07090861
000030 36 65 b1 3d 72 6e 58 3e 51 f2 66 3d 7c 4f 80 bc
       0.086618826 0.21135882 0.056383435 -0.015662901
000040 35 27 d9 3c fb f6 90 3d e5 a5 28 3c 75 fa 95 bd
       0.026507953 0.07078358 0.010293459 -0.073231615
000050 e0 89 43 bd 2b ec da 3c 79 9e 1a be 07 45 fb 3d
       -0.04773891 0.026723942 -0.15099515 0.12269025
000060 92 83 0b 3d 0a 38 c6 3b bd fa 3d bc ad b4 98 bd
       0.034061022 0.006049161 -0.011595425 -0.07456336
000070 56 e1 52 3b e6 d7 df 3d 45 09 d1 bd d1 6e c9 3b
       0.0032177768 0.10929851 -0.10206846 0.0061472435
000080 60 4c 06 3d 00 16 1f 3d 09 b0 09 3d 80 83 68 bc
       0.03278768 0.03883934 0.033615146 -0.014191508
000090 a4 9e 66 3d b9 45 37 bd f4 9e 76 bd 8d b8 d2 3d
       0.056303635 -0.044744227 -0.060210183 0.102891065
0000a0 4e 82 86 3d d2 8c 9c bc be 97 a7 3a 5d ae 0d be
       0.065678224 -0.019110117 0.0012786312 -0.13836046
0000b0 49 2a 38 3d 76 4d e0 3c b5 17 5d 3d 60 dd 4c be
       0.0449622 0.027380686 0.053977687 -0.20006323
0000c0 5e 52 2f 3d 29 47 5a 3c 8d bb 05 be c6 78 9d bc
       0.04280316 0.01332263 -0.13059826 -0.019222628
0000d0 af 91 0c 3e 49 c5 4a 3d bb ea 8a bd df e5 67 bd
       0.13727449 0.049504552 -0.067830525 -0.056615707
0000e0 0a bb cb 3d f2 47 51 3a 14 35 ea 3c f0 d9 3b ba
       0.09947784 0.0007983438 0.028589763 -0.0007165959
0000f0 f0 2f e4 bb b0 80 bf 3c 20 62 fc bc 84 02 00 bd
       -0.0069637224 0.023376793 -0.030808508 -0.0312524
000100 b8 19 ea 3d bd 5e 75 3d 98 2e 3b be 69 1c 05 3b
       0.11430687 0.059904803 -0.18279493 0.0020311123
000110 69 e1 21 be a9 b6 cb 3d a8 34 cc bd b0 81 00 3e
       -0.15808643 0.09946949 -0.09970981 0.12549472
000120 07 9c c0 3d 76 75 7d 3e 4b 5d e1 bd ab 96 01 3e
       0.0940476 0.24751839 -0.11004122 0.12655132
000130 72 c9 59 bd 79 de ff 3c 43 e7 05 be c8 a0 be bc
       -0.05317063 0.031234013 -0.130765 -0.023270026
000140 2e f1 35 be 63 a0 0f be 3f d3 be bd 9c 5f 8e bd
       -0.17767784 -0.14026026 -0.09317636 -0.0695183
000150 f4 73 69 bc 0e 28 00 3e 6c d9 36 3e 6d 34 a2 bb
       -0.014248837 0.1251528 0.17856377 -0.0049500973
000160 27 09 9d 3d c8 6d 33 3d 41 15 3f bb 70 a8 7d bd
       0.07667761 0.043805867 -0.0029156955 -0.061928213
000170 ca 7b 68 3d 76 4d d1 bd 6e 1b cd bc 98 81 c4 bc
       0.05675868 -0.102198526 -0.025037494 -0.023987576
000180 36 e5 2d bd c9 e4 10 be 3b dd e6 3d 08 16 1b 3e
       -0.04245492 -0.14149775 0.11272665 0.15145123
000190 7b 03 b3 bc 5c 01 7f 3d 9a 30 02 3e a0 55 1a 3e
       -0.021852246 0.062257156 0.12713853 0.15071726
0001a0 91 11 2e bd 80 3a 35 3e a4 e8 b8 bd 4e 11 7c bd
       -0.04249722 0.17698097 -0.09028748 -0.06153994
0001b0 55 a8 b3 3d 79 c4 9e 3c 5d ee 6a bd 0d 75 9f 3c
       0.08772341 0.019380795 -0.057356227 0.019464994
0001c0 99 a4 dd 3d 8f 53 96 3d 20 4f 2a 3d c4 35 42 bd
       0.1082241 0.07340156 0.041579366 -0.047414556
0001d0 44 c0 77 3c e8 aa a2 3d 21 b9 05 3e ba 60 46 3d
       0.015121523 0.07942754 0.13058902 0.04843209
0001e0 cf 6a af 3c 82 4e 01 3c e0 47 5b 3c a9 17 8b bd
       0.021413235 0.007892253 0.013383836 -0.06791622
0001f0 c3 40 84 bd ca c6 a3 3d 91 d5 a8 bd 10 5b ba bb
       -0.06457665 0.079969004 -0.082438596 -0.005687125
000200 08 7a 47 3d 39 90 f1 39 0f 68 0e 3e 2e e0 52 3d
       0.048700362 0.00046074556 0.13906883 0.051483326
000210 ed 03 26 be c0 bb 3c 3d bb d3 c6 3c 66 2f ef bd
       -0.16212435 0.04607749 0.024270883 -0.116789624
000220 6e d9 8d 3d 58 a0 a9 bd e9 57 03 3c 63 2c 21 3e
       0.06926237 -0.08282536 0.008016565 0.15739588
000230 bf 54 b9 3b 5c 4e 5d 3d 13 e2 4f 3e 93 30 1c bc
       0.0056558545 0.054029807 0.20301084 -0.009533065
000240 11 cc b0 bc 7d f1 4f 3e 37 ce 6b bd 10 40 bd bd
       -0.021581681 0.20306964 -0.05756971 -0.092407346
000250 87 cb b5 3d 78 b1 d6 3d ba 53 dd bc bc 98 28 3c
       0.088767104 0.10483068 -0.027017463 0.010290321
000260 54 21 14 3e c0 ae 95 3c a1 6f 11 3d 96 b0 40 3d
       0.14465839 0.018271804 0.03550685 0.047043405
000270 29 48 09 be 7f 8c 4f 3d 01 98 5a 3d 28 86 cf bd
       -0.13406433 0.050671097 0.05336762 -0.1013301
000280 5f 04 8f 3c d9 41 7e 3e ee 8e 0d be e4 1b ca bd
       0.017458139 0.24829806 -0.13824055 -0.09868601
000290 b1 f7 12 3b a6 63 f3 3d d3 bd 45 bc 50 5d 82 bd
       0.0022425468 0.11884241 -0.012069183 -0.06365454
0002a0 74 ca e9 bd a5 77 21 3e d9 ec 66 3d 70 a5 1c be
       -0.11415568 0.15768297 0.05637822 -0.15297484
0002b0 92 03 1b 3e b5 20 d6 3d d8 ed 14 3e 8c 33 8f bc
       0.1513808 0.10455457 0.14543855 -0.017480634
0002c0 8d 3c 8f 3d 23 6c 31 bd 07 8d 2f 3c 3b 98 3b be
       0.06993971 -0.043316018 0.010714776 -0.1831979
0002d0 53 bf e6 bd 37 5c e2 3d 39 78 d0 3d 60 f5 9b ba
       -0.11266961 0.11052745 0.10179181 -0.0011898689
0002e0 60 7b 5c bd af 21 70 bd 89 39 d1 3a a4 00 76 3d
       -0.053828597 -0.058625873 0.0015962581 0.060059205
0002f0 c4 25 c6 3c cc 41 25 3e 64 69 7f 3c 35 2e 05 be
       0.02418793 0.16138381 0.015589092 -0.13005908
000300 6d 4e b5 3c 3d 87 8d 3c c2 f9 dd bc c0 b8 9e bc
       0.022132123 0.0172764 -0.027096633 -0.019375205
000310 5a 87 62 bc 3c 56 67 3c ff 47 82 be e2 04 49 be
       -0.013826216 0.014119681 -0.25445554 -0.19630769
000320 6d 5c 0a bd 75 fa a7 bd c6 67 ea bd f1 77 6e 3d
       -0.03377955 -0.08202068 -0.114455745 0.058219854
000330 b7 d6 9e bc 85 52 1f 3d d2 a9 e8 3c 3a 72 b7 bd
       -0.019389493 0.038897056 0.02840129 -0.08957334
000340 6b 69 bd 3d 49 75 d0 bb fa 62 d2 3d 78 d5 e3 bd
       0.092486225 -0.0063616377 0.102727845 -0.111247
000350 d2 0b 88 3d ae fe 6d 3c d1 00 22 be f8 61 76 bd
       0.066428795 0.014526052 -0.15820624 -0.060152024
000360 f6 71 8a 3d ef 3d 9e 3d 1a b8 c4 3d 69 d4 5d bd
       0.067600176 0.07726657 0.09605427 -0.05415765
000370 b9 ec b5 3c 86 cd e5 3d 9e d5 a3 bd 3a 54 d7 bc
       0.022207605 0.11220841 -0.079997286 -0.02628528
000380 f7 17 2e 3d c3 3a 74 3d 42 bf 69 bd 89 99 83 3e
       0.042503323 0.059626352 -0.057067163 0.25703076
000390 9a 7f c4 bc 98 48 97 3d 3d 19 e9 3d 74 30 52 bc
       -0.023986626 0.07386893 0.11381767 -0.012828935
0003a0 db b9 48 3d f2 5a 01 bc 90 86 23 3e 2e c2 eb 3b
       0.04900537 -0.007895218 0.159693 0.007194779
0003b0 08 19 cc 3d d0 e5 ad bd 15 1e a2 bd 27 c6 80 bd
       0.09965712 -0.08491099 -0.07915894 -0.062877946
0003c0 85 41 b5 bd f2 f9 97 3b 15 04 8a 3d 60 3b 4e bb
       -0.088503875 0.00463795 0.0673906 -0.0031468496
0003d0 3c f2 a4 bd fa 9e 04 3d 85 ba ce bd a4 cc 84 3e
       -0.08054015 0.032378174 -0.100941695 0.25937378
0003e0 9b aa 3b 3c 72 8c d7 bd c9 81 13 3e 55 0f ef bd
       0.01145425 -0.10524835 0.14404978 -0.11672846
0003f0 97 e9 d5 3d f7 4d 87 bd c9 8b d3 bc 4c 2c 25 3d
       0.10444944 -0.066066675 -0.02582349 0.040325448

gc3.bias f4 [100]
000000 f7 5a 23 bb 27 c6 4a 3b d1 4f 16 bc 3a 1d 88 bc
       -0.0024926045 0.0030940862 -0.009174303 -0.016615499
000010 da fa 16 3d a3 73 81 3d 94 87 e8 ba b6 9d 55 3a
       0.036860324 0.06320884 -0.0017740601 0.0008148806
000020 c6 3b d1 3b 7a b3 d7 bc 22 a9 16 3c 09 3d 86 bc
       0.0063852994 -0.026330698 0.009195598 -0.016386526
000030 a1 2f c1 3c 86 0e eb bb 35 b0 84 3b 0c 18 ee 3b
       0.023582282 -0.007173362 0.004049326 0.00726605
000040 ad 17 0b bd 91 ae 39 bc 75 44 d1 bb d8 33 bd bb
       -0.033958126 -0.011333124 -0.0063863345 -0.0057740025
000050 21 1e 1d bc f5 0c 45 bb 3c 7f 34 bb c1 6e 93 3b
       -0.009589703 -0.0030067537 -0.0027541658 0.004499287
000060 3d 00 1d bc f9 13 6e 3c 49 4e 9a bb 96 74 f4 3b
       -0.009582576 0.014531129 -0.0047090393 0.007460187
000070 0f dd b6 bc f1 0f d4 bb 2e 10 24 bc 11 e1 25 3c
       -0.022322206 -0.006471627 -0.010013623 0.010124461
000080 df d7 d1 b8 0e 08 8c 39 a0 58 3d 3b 04 c4 04 bc
       -0.00010006106 0.00026708882 0.0028891936 -0.008103374
000090 81 12 b0 bc a4 aa 59 3b d6 cf 91 3c 95 a5 9e 3c
       -0.021493198 0.0033213282 0.0177993 0.019366065
0000a0 90 61 2b 3c b4 72 a7 bb 30 0c 4c 3c f4 15 28 3b
       0.010460272 -0.005110109 0.012454078 0.002564785
0000b0 ef ce 84 3b e4 48 89 3c 33 54 ac 3c f8 3d 99 bb
       0.0040529887 0.01675839 0.021036243 -0.0046765767
0000c0 c2 4a a4 3c 04 04 13 bc 00 4b bd bc de ff 3e bd
       0.020055179 -0.008973125 -0.023107052 -0.046630733
0000d0 3b 1b 94 3c 83 f6 92 bc 38 56 6e bc 23 8f 9a 3c
       0.01807939 -0.017939812 -0.014546923 0.018867081
0000e0 86 ca 14 bc 8b 6b 99 bc 4c d8 09 3c 0a c3 3a 3c
       -0.0090814885 -0.018728038 0.008413386 0.01139904
0000f0 87 f0 5f bc 12 0d c9 bb 67 70 8c 3c 0e 8b 45 bc
       -0.013668186 -0.0061355913 0.017143441 -0.012057079
000100 73 a4 8a bb 6b c5 9c ba 33 3e e5 bb 32 bf d4 bc
       -0.0042310297 -0.0011960691 -0.00699594 -0.025970075
000110 e9 6e 46 bc 49 94 3c 3c b1 1d a0 bc 05 35 34 bb
       -0.012111404 0.011509963 -0.019545408 -0.0027497422
000120 0a 58 7f bc 34 78 97 3b 66 d9 17 3c 6e e7 0b bd
       -0.015584955 0.0046224836 0.00926814 -0.034156255
000130 61 46 af bc a6 69 82 bc 6b e2 a4 bb 1b ea 81 bc
       -0.021395864 -0.015919518 -0.005031874 -0.0158587
000140 14 1d b5 bb 8b fa c2 bc 83 fb 97 bc 30 3f 3f 3c
       -0.005527148 -0.023801109 -0.018552547 0.01167278
000150 1a 0f ae 3b 13 69 56 3c c3 1b 0e bc f6 08 f9 bb
       0.005311859 0.013086575 -0.008673611 -0.007599945
000160 c6 b9 a1 3c 16 31 3a 3c bb 1e 9a 3c e1 a2 93 3c
       0.019741904 0.011364242 0.018813482 0.018022003
000170 0c ed 5d 3c 2d bc 22 3c 20 5b 82 3c 03 84 bd 3b
       0.013545286 0.00993256 0.015912592 0.0057835593
000180 f5 ea da 3c 51 88 80 bb c3 11 89 bc 3f be 88 bc
       0.026723364 -0.0039225 -0.016732102 -0.016692279
