best_models/MOGONET/fold_2/E2.pth (torch, 838359 bytes, 6 tensors)

gc1.weight f4 [743, 200]
0	0xbda50888	-0.08058268
1	0xbb95cf42	-0.004571826
2	0x3dafd513	0.085855626
3	0xbd1c35b5	-0.038137157
4	0x3d8e3413	0.06943526
5	0xbd405139	-0.04695246
6	0xbe22a92a	-0.15884843
7	0xbd383527	-0.044972565
8	0x3db348f2	0.087541476
9	0x3dddd6da	0.10831995
10	0x3d935995	0.07194821
11	0x3d84358d	0.064555265
12	0xbc1f1fc0	-0.00971216
13	0xbc2b49f2	-0.010454642
14	0xbe037901	-0.12839128
15	0xbdd27e49	-0.10277993
16	0xbd164d26	-0.03669467
17	0xbdd0b533	-0.10190811
18	0x3d8188f8	0.06324953
19	0x3c895dc6	0.016768347
20	0x3c970722	0.018436018
21	0xbd935f96	-0.07195966
22	0xbdb15bae	-0.08660065
23	0xbdac8e50	-0.084255815
24	0xbdaa7e47	-0.08324867
25	0x3bc24568	0.005928684
26	0xbd8517a0	-0.06498647
27	0x3b0e31d1	0.0021697173
28	0x3c22ad2b	0.009928982
29	0xbda09aff	-0.07842063
30	0xbd0af31e	-0.03392326
31	0x3cf5fd2b	0.030027946
32	0x3cecbb25	0.028897831
33	0x3bc298f6	0.0059386445
34	0xbdb09010	-0.08621228
35	0x3ddab6dc	0.10679409
36	0x3c4f9a18	0.012671016
37	0xbc14b8d8	-0.009077273
38	0xbd9120fb	-0.07086369
39	0xbcf5cc40	-0.03000462
40	0xbdf7b14f	-0.12094366
41	0xbcce6a8f	-0.025197295
42	0xbbb346e6	-0.0054710982
43	0xbcc0f7f5	-0.023555735
44	0xbb7add29	-0.0038278794
45	0x3e2b60fd	0.16736217
46	0x3d7ff978	0.06249377
47	0x3da71d57	0.08159893
48	0x3d27fbad	0.0410115
49	0x3d00eac4	0.03147389
50	0x3d25376e	0.040336065
51	0x3ca04919	0.019566106
52	0x3d385b25	0.045008797
53	0xbd47fbb6	-0.048824035
54	0x3d779c48	0.060451776
55	0x3c3b1212	0.0114178825
56	0xbcab8f56	-0.020942371
57	0xbd6245eb	-0.05524246
58	0xbd80933f	-0.06278085
59	0xbcee1cc6	-0.029066455
60	0x3cdfb97d	0.027310127
61	0xbd939ee6	-0.07208042
62	0xbd9d6edb	-0.0768716
63	0x3b15ce2b	0.0022858481
64	0x3c4309f3	0.011904228
65	0xbd876b29	-0.06612236
66	0xbd4c9ce7	-0.04995432
67	0xbdc98ae0	-0.098409414
68	0xbd0239e0	-0.031793475
69	0x3d0561f3	0.032564115
70	0x3ce87375	0.028375367
71	0xbc7650b2	-0.015033888
72	0x3dbf1be7	0.09331494
73	0x3dbcb324	0.09213856
74	0x3d77b348	0.06047371
75	0x3c6376c5	0.013883297
76	0xbd3836f5	-0.044974286
77	0xbd194f1e	-0.037428968
78	0x3d04a141	0.032380346
79	0xbaf5e76e	-0.0018760988
80	0x3d8677b7	0.065658025
81	0x3dd10de8	0.102077305
82	0x3c6d5b91	0.014487163
83	0xbdc6ea7b	-0.09712692
84	0x3c03693e	0.008020697
85	0xbc235872	-0.0099698175
86	0x3ddcf5f0	0.10789096
87	0x38c88c2a	9.562851e-05
88	0x3dee1135	0.11624376
89	0xbd991cbd	-0.074761845
90	0xbd451172	-0.04811234
91	0x3ca283ea	0.019838292
92	0xbd8cf490	-0.06882584
93	0xbc1dddd8	-0.009635411
94	0xbbdb3158	-0.006689232
95	0xbca01362	-0.019540492
96	0x3d0e1375	0.034686524
97	0x3b9ba7f9	0.0047502485
98	0xbdc119fd	-0.09428785
99	0x3bbfded1	0.005855419
100	0xbca1409d	-0.01968413
101	0xbcf0053f	-0.029299377
102	0xbb83c222	-0.004020945
103	0xbd92491b	-0.0714285
104	0x3d866606	0.06562428
105	0x3d9afe60	0.075680494
106	0xbd98bb00	-0.074575424
107	0x3d34b45f	0.044117328
108	0x3b33edbc	0.0027454933
109	0xbd364fcf	-0.044509705
110	0x3d2fcf0a	0.042922057
111	0x3d53a77e	0.051673405
112	0x3d4903b4	0.049075797
113	0x3d5c4d3a	0.053784586
114	0x3d85e33f	0.065374844
115	0x3d117778	0.035514325
116	0x3c66bbfd	0.014082906
117	0x3da5700a	0.080780104
118	0xbaf575f3	-0.0018727168
119	0xbe3191d3	-0.17340784
120	0x3e3087ef	0.17239355
121	0xbd0bc5be	-0.03412413
122	0x3dacf34b	0.08444842
123	0x3d4cdffa	0.05001829
124	0x3de11d06	0.10991864
125	0xbc53c1ab	-0.012924592
126	0xbc8ad57e	-0.016947504
127	0xbd1fd07b	-0.03901718
128	0xbd3d3724	-0.046195164
129	0xbcdc234e	-0.026872303
130	0x3d2a8aa8	0.04163614
131	0x3df5c90e	0.12001239
132	0xbd235132	-0.039872356
133	0x3d3d531d	0.04622184
134	0x3ce56d20	0.028006136
135	0x3d4eec93	0.050518584
136	0xbd064004	-0.032775894
137	0xbd0d92f8	-0.03456399
138	0xbd7cf0ba	-0.061753012
139	0x3cccbeed	0.024993384
140	0x3d17a413	0.037021708
141	0xbccedd10	-0.025251895
142	0x3d991510	0.074747205
143	0x3d763a9c	0.060114488
144	0x3dda3cd1	0.10656131
145	0x3da171c2	0.07883026
146	0xbda389e1	-0.07985283
147	0xbd945bae	-0.07244049
148	0x3d8e43b7	0.06946509
149	0xbb14be61	-0.0022696482
150	0x3b21e038	0.0024700295
151	0x3db05842	0.08610584
152	0xbb4ab7cb	-0.0030932303
153	0xbc403c65	-0.011733149
154	0x3e2df332	0.16987303
155	0x3d91b2fe	0.07114218
156	0xbc5b1ae4	-0.01337311
157	0x3bdbf7fc	0.0067129117
158	0xbd559db9	-0.05215237
159	0xbcaff461	-0.021478834
160	0xbd004866	-0.031319045
161	0xbe025f0d	-0.12731571
162	0x3e0b05cf	0.13576435
163	0x3c992bf1	0.01869771
164	0x3dbea252	0.09308304
165	0x3c5abb0f	0.013350262
166	0xbdc6dcfb	-0.097101174
167	0x3d57e500	0.052708626
168	0xbc859d3a	-0.016310323
169	0x3d8d143a	0.068886235
170	0xbbcab5e8	-0.0061862357
171	0xbca80251	-0.020508917
172	0x3d22b624	0.039724484
173	0xbe2073f6	-0.15669236
174	0xbd804709	-0.06263549
175	0xbd9ed478	-0.07755369
176	0xbe032024	-0.1280523
177	0x3dc27c94	0.09496418
178	0xbdb32d77	-0.08748906
179	0x3da9fdba	0.083003476
180	0xbd6f14c6	-0.05836942
181	0xbd826e6f	-0.0636872
182	0x3d38401f	0.044983026
183	0x3c8e14e5	0.017343948
184	0xbd48fdd9	-0.049070213
185	0xbd571913	-0.052514147
186	0xbd26caed	-0.04072087
187	0xbd457873	-0.048210572
188	0xbd8e5a1a	-0.06950779
189	0xbcef0ebf	-0.029181836
190	0x397300ab	0.00023174535
191	0x3d8eeb71	0.06978501
192	0xbd7619e2	-0.060083278
193	0xbd847682	-0.06467916
194	0x3d8b5cfc	0.06804845
195	0x3e050800	0.12991333
196	0x3cfc1bdb	0.030775001
197	0x3d00cc99	0.03144512
198	0xbe173703	-0.14767079
199	0xbe2d1f1b	-0.16906397
200	0xbd3e5c43	-0.046474706
201	0xbbc3494d	-0.005959666
202	0xbcbf7caf	-0.023374883
203	0xbc42cc91	-0.011889593
204	0x3d490ee8	0.04908648
205	0x3d563b9c	0.05230294
206	0xbc85a3ea	-0.016313512
207	0xbc95b466	-0.018274497
208	0x3ddef667	0.10886841
209	0x3c7c9efc	0.015418764
210	0xbd2cb711	-0.042166773
211	0xbcdc5a9b	-0.026898673
212	0xbd9114ca	-0.07084043
213	0x3cbd0a15	0.023076097
214	0xbd4dd55a	-0.050252296
215	0xbd3b6364	-0.045749083
216	0x3dcc058f	0.09961998
217	0x3cdab6e6	0.02669854
218	0xbc7c0a8a	-0.015383372
219	0x3ae0a9f5	0.0017140495
220	0xbd07d3ad	-0.033160854
221	0xbdb82806	-0.08992009
222	0x3cf0536b	0.029336652
223	0xbdb4a036	-0.0881962
224	0xbbd80f72	-0.006593638
225	0x3d4f55d2	0.050618954
226	0x3da9adee	0.082851276
227	0xbc0bedb9	-0.008540564
228	0xbdccb834	-0.099960715
229	0xbd83b7dd	-0.064315535
230	0xbc67fe9a	-0.014159823
231	0xbd69dd5b	-0.057095867
232	0xbc6569fe	-0.014002321
233	0xbc2b822c	-0.010468047
234	0xbdc2d071	-0.09512413
235	0x3d448a3d	0.047983397
236	0xbd11dd04	-0.035611168
237	0xbd9abd77	-0.07555669
238	0xbd1fc9ae	-0.039010696
239	0xbb2b5fcb	-0.0026149626
240	0xbd93073e	-0.07179116
241	0x3d797565	0.06090297
242	0x3dbd9bc2	0.09258224
243	0xbae8a231	-0.0017748532
244	0x3cd3796c	0.025814734
245	0xbcccbd5f	-0.024992643
246	0xbd4ce6e0	-0.050024867
247	0x3d4ea5ab	0.050450962
248	0xbb762fae	-0.003756504
249	0xbced02b2	-0.02893195
250	0x3d9d85aa	0.0769151
251	0x3cc7c8b0	0.024387687
252	0xbd92853b	-0.07154318
253	0x3cd58d9a	0.026068497
254	0x3d893f30	0.06701505
255	0x3d1fce4e	0.039015107

gc1.bias f4 [200]
0	0xbd8cb8e2	-0.06871201
1	0xbdae6925	-0.085161485
2	0xbd93c8ae	-0.07216011
3	0xbd8c472f	-0.06849515
4	0xbc4667eb	-0.012109737
5	0xbdb2cf1c	-0.08730909
6	0xbd89a8bd	-0.067216374
7	0xbd39de49	-0.045378003
8	0xbda76ac8	-0.08174664
9	0xbd8c2dab	-0.06844648
10	0xbd9bad9f	-0.07601475
11	0xbd1d890b	-0.038460772
12	0xbd1af92e	-0.037835293
13	0xbd455689	-0.04817823
14	0xbd2cc43a	-0.042179324
15	0xbcb203b9	-0.02173029
16	0xbdba5af5	-0.0909938
17	0xbd1e08ab	-0.038582485
18	0xbd515031	-0.051101867
19	0xbda794c0	-0.08182669
20	0x3c913f7d	0.017730469
21	0xbd6a74f9	-0.05724046
22	0xbd2c2598	-0.04202804
23	0xbd26893b	-0.040658217
24	0xbd256ccb	-0.040386956
25	0xbcca9744	-0.024730332
26	0xbd058c28	-0.032604367
27	0xbd6c9bac	-0.057765648
28	0xbd8397b3	-0.06425419
29	0xbd052dda	-0.03251443
30	0xbcc6523e	-0.024209138
31	0xbd072dd7	-0.0330027
32	0xbd6b76b3	-0.057486247
33	0xbcc97e23	-0.02459628
34	0xbc54e5ee	-0.012994273
35	0xbd6f6e0a	-0.05845455
36	0xbd78d0e9	-0.060746107
37	0xbd5b1efa	-0.05349634
38	0xbd5ca9d7	-0.05387291
39	0xbd8b3bd2	-0.06798519
40	0xbc995ccd	-0.018721009
41	0xbd5e2356	-0.054232918
42	0xbd8f9542	-0.070108905
43	0xbd9c132a	-0.07620843
44	0xbd564887	-0.05231526
45	0xbd521bc6	-0.051296018
46	0xbda24899	-0.07924003
47	0xbd980a8b	-0.07423886
48	0xbd2c8bf8	-0.042125672
49	0xbcb95560	-0.022623718
50	0xbd0c4610	-0.034246504
51	0xbd27e650	-0.040991127
52	0xbd730a0d	-0.059335757
53	0xbdada3af	-0.08478486
54	0xbda57113	-0.08078208
55	0xbd8c4674	-0.06849375
56	0xbcd7c606	-0.026339542
57	0xbd38579a	-0.04500542
58	0xbd7bb373	-0.061450433
59	0xbd614fd3	-0.055007767
60	0xbc26c1b1	-0.010178016
61	0xbcf12ef5	-0.029441336
62	0xbd46b633	-0.048513602
63	0xbd8ce8b0	-0.06880319
64	0xbd0ff48b	-0.035145324
65	0xbdb828f5	-0.08992187
66	0xbd4ba061	-0.049713496
67	0xbd565986	-0.05233147
68	0xbb424b02	-0.002964676
69	0xbd36e2b3	-0.04464979
70	0xbcc7c464	-0.024385639
71	0xbd6e0cab	-0.05811755
72	0xbcebf573	-0.028803563
73	0xbd3d9dda	-0.046293117
74	0xbd68b18b	-0.056809943
75	0xbd2a467c	-0.041571125
76	0xbd761ed4	-0.060087994
77	0xbcca677d	-0.02470755
78	0xbd5426f9	-0.05179498
79	0xbd877ad1	-0.06615222
80	0xbd2f91a7	-0.042863514
81	0xbd463336	-0.048388682
82	0xbd4d9500	-0.050190926
83	0xbd3e0d13	-0.046399187
84	0xbd6b116f	-0.057389673
85	0xbd768c72	-0.060192533
86	0xbdbebf68	-0.093138516
87	0xbdda6c3f	-0.106651776
88	0xbd857cb9	-0.065179296
89	0xbd4c9b20	-0.049952626
90	0xbd43c3b2	-0.04779405
91	0xbd5e47fd	-0.054267872
92	0xbd300b72	-0.042979665
93	0xbdabb729	-0.083845444
94	0xbd5b7e83	-0.053587448
95	0xbdd54aa3	-0.104146264
96	0xbd778c8a	-0.060436763
97	0xbcf2ecb7	-0.02965389
98	0xbc710a6a	-0.014711956
99	0xbd1f8f68	-0.038955122
100	0xbd78fd39	-0.060788367
101	0xbd3843e7	-0.04498663
102	0xbcc488eb	-0.023991069
103	0xbd4cfcb5	-0.050045688
104	0xbd8287a7	-0.0637353
105	0xbd93b073	-0.072113894
106	0xbcab3c3f	-0.020902751
107	0xbcf6ec4f	-0.030141978
108	0xbd9a68b6	-0.07539503
109	0xbd8db50f	-0.069193
110	0xbd334720	-0.043769002
111	0xbceee740	-0.029163003
112	0xbc9317f9	-0.017955767
113	0xbd893fde	-0.06701635
114	0xbd84707a	-0.06466766
115	0xbcbcbbcd	-0.02303877
116	0xbd2f83e2	-0.042850383
117	0xbd4d6aca	-0.05015067
118	0xbcfb8104	-0.030701168
119	0xbda0cdbf	-0.07851743
120	0xbd4e46a2	-0.05036033
121	0xbd9664fd	-0.07343481
122	0xbd26ccad	-0.040722538
123	0xbd42e4b6	-0.047581397
124	0xbd9696c3	-0.07352974
125	0xbd31122a	-0.043230213
126	0xbc3bd8b7	-0.011465243
127	0xbc84ac84	-0.016195543
128	0xbd1f6bb9	-0.03892109
129	0xbd104069	-0.035217676
130	0xbd5a54c4	-0.053303495
131	0xbd3b6a29	-0.04575554
132	0xbd5a6c2e	-0.053325824
133	0xbd28b3e1	-0.04118717
134	0xbc3198c0	-0.010839641
135	0xbced1caf	-0.028944341
136	0xbd3a2066	-0.045441054
137	0xbd3de666	-0.046362303
138	0xbd823e39	-0.06359524
139	0xbd2401ec	-0.040040895
140	0xbd51b15c	-0.051194534
141	0xbcd41bb9	-0.025892125
142	0xbd8aa8b2	-0.06770457
143	0xbcc8603a	-0.024459947
144	0xbd93a469	-0.07209093
145	0xbd15f518	-0.036610693
146	0xbd291318	-0.041277975
147	0xbd493fc0	-0.049133062
148	0x3c1e04e0	0.009644717
149	0xbd8f53b6	-0.069983885
150	0xbcb297f9	-0.021800982
151	0xbd76635e	-0.060153358
152	0xbd0deb63	-0.03464831
153	0xbd94ac54	-0.072594315
154	0xbd85f24b	-0.06540354
155	0xbd35bca6	-0.044369362
156	0xbd4835db	-0.048879486
157	0xbd5d56f2	-0.054037996
158	0xbd3e06fa	-0.046393372
159	0xbd4a04d0	-0.049320996
160	0xbd2b76af	-0.041861232
161	0xbcd1556c	-0.025553428
162	0xbd588230	-0.05285853
163	0xbd01db63	-0.031703364
164	0xbd82c0f9	-0.06384463
165	0xbd7b5ed7	-0.061369743
166	0xbd40dbd9	-0.047084663
167	0xbd21099a	-0.039315797
168	0xbded7a7d	-0.115956284
169	0x3aa5f45b	0.0012661325
170	0xbd8c3173	-0.06845369
171	0xbd246874	-0.040138677
172	0xbd92ac61	-0.07161785
173	0xbc4ca35e	-0.012490122
174	0xbdacb88d	-0.08433638
175	0xbd1ff61e	-0.039053075
176	0xbd36f211	-0.044664446
177	0xbd752253	-0.059847187
178	0xbcdea7de	-0.027179655
179	0xbd4a0f95	-0.049331266
180	0xbd122081	-0.03567553
181	0xbd21b77e	-0.039481632
182	0xbd908bd5	-0.07057921
183	0xbd542b51	-0.051799122
184	0xbdb627c8	-0.088943064
185	0xbc8ac101	-0.016937735
186	0xbdb61bd6	-0.08892028
187	0xbd3e7adb	-0.046503883
188	0xbd4152a3	-0.04719795
189	0xbd1c6242	-0.038179643
190	0xbd6898eb	-0.05678646
191	0xbcbce5d3	-0.023058807
192	0xbc5de62f	-0.01354365
193	0xbd1c3062	-0.03813208
194	0xbd0ecfe6	-0.034866236
195	0xbd7e3bc6	-0.062068723
196	0xbd8a0961	-0.0674007
197	0xbd910497	-0.070809536
198	0xbd5394cc	-0.051655576
199	0xbd418737	-0.04724809

gc2.weight f4 [200, 200]
0	0xbd2459fd	-0.040124882
1	0x3d85d618	0.06534976
2	0x3d7b03ce	0.061282925
3	0xbd3a8a2d	-0.04554193
4	0xbdb205a0	-0.08692479
5	0xbdc78ab2	-0.09743251
6	0x3dd1a8e5	0.10237292
7	0xbc43c69b	-0.011949207
8	0xbca0c221	-0.019623818
9	0x3d9cc20b	0.07654198
10	0xbcef93b2	-0.029245231
11	0xbd6118e2	-0.05495537
12	0x3e59e319	0.21278037
13	0x3c10cc4f	0.008837773
14	0xbc214be5	-0.009844755
15	0xbdb2f998	-0.087390125
16	0xbdbb93a0	-0.091590166
17	0x3c9d6924	0.019215174
18	0x3c70b2fa	0.014691109
19	0xbc43ec9d	-0.0119582685
20	0xbe283b4d	-0.16428871
21	0x3d1a08c7	0.037606027
22	0x3b5a9a67	0.003335619
23	0x3d518564	0.0511526
24	0xbd5c2ca9	-0.05375353
25	0xbda16aef	-0.07881724
26	0x3d3a4933	0.045479964
27	0xb7508aed	-1.2430112e-05
28	0xbcc021b1	-0.023453565
29	0x3c495ffc	0.012290951
30	0x3de954c9	0.113931246
31	0x3ce62033	0.028091526
32	0x3c7de16c	0.015495639
33	0xbdec125e	-0.11526941
34	0x3dfb6858	0.12275761
35	0x3dbc6382	0.09198667
36	0xbd44dce6	-0.048062228
37	0xbe0ccc0c	-0.13749713
38	0xbd03c574	-0.032170728
39	0xbda5a496	-0.08088033
40	0xbd866bb9	-0.06563515
41	0xbe1d330b	-0.15351503
42	0x3e3fde81	0.18737222
43	0xbd827aac	-0.06371054
44	0x3d2db96f	0.04241317
45	0x3cca8eaa	0.02472623
46	0x3c111f48	0.008857556
47	0x3d96febf	0.07372808
48	0xbdac31d1	-0.08407939
49	0xbd95f5ee	-0.07322298
50	0xbd602b97	-0.05472907
51	0xbb0f6c52	-0.0021884632
52	0x3da43940	0.08018732
53	0x3dcbfa4a	0.09959848
54	0xbd8b28ba	-0.06794877
55	0xbdb44388	-0.08801943
56	0x3d4d476b	0.050116938
57	0x3e2ddf63	0.16979747
58	0x3c2b5792	0.01045789
59	0x3ca92413	0.020647084
60	0xbd150bb5	-0.036388118
61	0xbd6bd08d	-0.057571936
62	0x3de5de50	0.11224043
63	0xbb14dbef	-0.0022714098
64	0xbe175a4f	-0.14780544
65	0x3dac9d34	0.084284216
66	0xbdbc2f1a	-0.091886714
67	0xbd982148	-0.07428223
68	0xbd8d3544	-0.06894925
69	0xbd350a80	-0.044199467
70	0x3ba30738	0.004975226
71	0x3d2d57ff	0.042320248
72	0xbdc08805	-0.09400944
73	0x3cfdd00b	0.030982992
74	0xbd28a900	-0.041176796
75	0xbc992ca3	-0.018698042
76	0xbd2ffb7c	-0.042964444
77	0xbdc4ced1	-0.096097596
78	0xbcd1197e	-0.025524851
79	0x3dd31977	0.103075914
80	0xbd72f68b	-0.059317153
81	0xbda5ddc3	-0.08098938
82	0xbd4b1e9e	-0.049589746
83	0xbddf5c00	-0.109062195
84	0xbdee134d	-0.11624775
85	0xbe09bf2a	-0.1345183
86	0xbd179b0b	-0.037013095
87	0xbdc9a0fb	-0.09845158
88	0xbb87ba33	-0.0041420697
89	0x3c4eb103	0.012615445
90	0x3d621afb	0.05520151
91	0xbd5cf38c	-0.053943202
92	0x3d65a9c3	0.0560701
93	0x3dd3aaac	0.103352875
94	0xbd8f0ae8	-0.06984502
95	0x3dcaa7ac	0.09895262
96	0xbb2b108a	-0.0026102387
97	0xbdd7121c	-0.10501501
98	0x3d4aafac	0.04948394
99	0x3e173487	0.14766131
100	0xbdbba6b5	-0.09162656
101	0x3d072cf1	0.033001844
102	0xbd359602	-0.04433251
103	0xbc9eb016	-0.019371074
104	0x3bffcbd6	0.0078062816
105	0xbe1a195c	-0.15048736
106	0xbdbc62ea	-0.09198554
107	0x3d15e0b8	0.03659126
108	0xb8bae317	-8.91147e-05
109	0x3cf2ef31	0.029655071
110	0x3c7f845f	0.015595525
111	0xbd2889a0	-0.041146874
112	0xbd7afbf3	-0.061275434
113	0xbbb50d4c	-0.0055252668
114	0x3da32210	0.07965481
115	0xbdeb9269	-0.11502535
116	0x3e48ddd0	0.19615865
117	0xbd5ade6c	-0.053434774
118	0x3c558685	0.01303256
119	0x3c51c961	0.01280436
120	0x3dc3485a	0.09535284
121	0xbdbbf7f4	-0.09178153
122	0x3cf002f5	0.029298285
123	0xbda3a153	-0.079897545
124	0x3de97363	0.113989614
125	0xbe2f9a2f	-0.1714866
126	0x3d44ab0d	0.04801469
127	0xbd689204	-0.056779876
128	0x3c199916	0.009374877
129	0xbc10681c	-0.008813884
130	0x3dfa4e1e	0.12221931
131	0x3e0aff8e	0.13574049
132	0xbdae9890	-0.08525193
133	0x3deac31a	0.11462994
134	0xbca166a2	-0.01970226
135	0x3cd40fc2	0.02588642
136	0xbd6c7a13	-0.057733607
137	0x3d9031a1	0.07040716
138	0xbd45e21a	-0.04831133
139	0xbd05ffcc	-0.03271465
140	0x3d7219e0	0.059106708
141	0x3c920447	0.017824305
142	0xbca0f985	-0.01965023
143	0x3dd43dca	0.10363348
144	0x3d0d4f15	0.034499247
145	0xbb57c947	-0.0032926367
146	0x3d8f58f6	0.0699939
147	0xbd8da528	-0.06916267
148	0x3c2a09df	0.01037833
149	0xbdd0c344	-0.10193494
150	0xbd2ffc74	-0.042965367
151	0xbda9d123	-0.08291843
152	0xbe027654	-0.12740451
153	0xbdbc4264	-0.091923505
154	0x3d0f26bb	0.034949046
155	0xbd9988ae	-0.07496773
156	0xbdbac00a	-0.0911866
157	0x3d943fa2	0.072386995
158	0x3c958f93	0.018256938
159	0xbd26279e	-0.040565126
160	0x3c9ea653	0.019366419
161	0x3d70f14d	0.058823872
162	0xbb95ae42	-0.0045678923
163	0xbdb44c94	-0.088036686
164	0xbdade047	-0.08490043
165	0x3d3a3c17	0.045467462
166	0x3c3d5fd8	0.011558495
167	0x3d3d8747	0.04627159
168	0x3dbbca33	0.09169426
169	0x3d1a3836	0.037651263
170	0x3df113cb	0.11771353
171	0xbd8b753e	-0.068094715
172	0x3c93fea8	0.018065766
173	0x3ce385bb	0.027773729
174	0xbb2dfab2	-0.002654713
175	0xbd37f61a	-0.044912435
176	0xbd3a9f0c	-0.045561835
177	0xbddfeffd	-0.10934446
178	0xbd3ce96a	-0.04612104
179	0xbbaf93c0	-0.0053581893
180	0xbd5d1b2c	-0.05398099
181	0x3dc945dd	0.098277785
182	0xbd50c300	-0.050967216
183	0x3db1eac3	0.08687355
184	0xbcf5d1e3	-0.030007308
185	0xbde3f2b4	-0.11130276
186	0xbd44d98d	-0.048059035
187	0x3d5fdb92	0.054652758
188	0xbdd88d4c	-0.10573825
189	0x3d45bffd	0.048278797
190	0xbe04867d	-0.12941928
191	0x3d153a3d	0.036432493
192	0xbd2796ad	-0.04091518
193	0x3d2fd506	0.042927764
194	0x3d54aa49	0.05192021
195	0x3c17498c	0.009233844
196	0x3ca933af	0.020654527
197	0xbdf97436	-0.121803686
198	0xbe0efe19	-0.13964118
199	0xbddd3e91	-0.10802949
200	0xbde8061c	-0.1132929
201	0x3d0cfbc1	0.03441978
202	0x3bcecd29	0.006311078
203	0xbd616140	-0.055024385
204	0x3d49ce76	0.049269162
205	0xbc3a479a	-0.01136961
206	0x3cfde952	0.030995045
207	0x3d821e87	0.06353479
208	0xbe315aee	-0.17319843
209	0xbd55c407	-0.0521889
210	0xbdc51131	-0.096224196
211	0xbd5f9c6c	-0.054592535
212	0xbccc52b4	-0.02494178
213	0xbe825e33	-0.25462493
214	0xbdf6f51e	-0.12058471
215	0xbd8c4780	-0.06849575
216	0xbd8b25f4	-0.06794348
217	0x3e0cad3a	0.13737956
218	0xbd5e7cf4	-0.054318383
219	0x3d1f1226	0.038835667
220	0xbd9de044	-0.07708791
221	0x3d06dbb0	0.032924354
222	0xbdf21232	-0.11819877
223	0x3dbb2a43	0.0913892
224	0xbde8f798	-0.1137535
225	0xbdbebe8e	-0.09313689
226	0x3d0215ba	0.031759
227	0xbdaaf4ad	-0.083474495
228	0xbdebce69	-0.11513979
229	0x3d89ec9d	0.067345835
230	0xbd240864	-0.040047064
231	0x3d6bc220	0.05755818
232	0x3d227ed7	0.039671745
233	0xbd04b99b	-0.03240357
234	0xbd7c221a	-0.06155596
235	0xbc0d559f	-0.008626371
236	0xbdf0b3f5	-0.11753074
237	0x3bdfdb41	0.006831557
238	0xbe203f33	-0.15649109
239	0x3e2057c9	0.15658487
240	0xbdcd21bb	-0.10016199
241	0xbdb66955	-0.08906809
242	0x3d2909b5	0.041269023
243	0x3cb89c6f	0.02253553
244	0x3d3f933a	0.046771266
245	0xbdf2a3f1	-0.118476756
246	0xbd10f5d0	-0.035390675
247	0x3d8fc570	0.0702008
248	0x3c329a67	0.01090107
249	0xbdbcc6ba	-0.092175916
250	0xbd6b9400	-0.05751419
251	0x3dc6ffc4	0.09716752
252	0x3cd7418e	0.026276376
253	0xbe404dd5	-0.1877969
254	0x3be9f849	0.0071401936
255	0x3d964403	0.07337191

gc2.bias f4 [200]
0	0x3bcebb1a	0.0063089253
1	0x3cb8319d	0.022484595
2	0x3c970bf7	0.018438322
3	0x3c30b48e	0.010785235
4	0x3ca7f1be	0.020501014
5	0x3cbee53b	0.023302665
6	0xbcbbb9ef	-0.022915808
7	0x3d49b423	0.049244057
8	0x3cc77029	0.024345474
9	0x3c37e35f	0.011223643
10	0x3c8f4ba2	0.01749212
11	0xb99a3774	-0.00029414485
12	0x3c9e8ab4	0.019353248
13	0xbb94f0d8	-0.0045453124
14	0x3cb3d70d	0.02195313
15	0x3c9ad751	0.018901499
16	0x3c181bde	0.009283988
17	0xbc25edc6	-0.01012749
18	0x3c2776e1	0.010221214
19	0x3be22d6b	0.006902387
20	0xbcc4022b	-0.023926815
21	0xbce15f18	-0.027511165
22	0x3cb2126b	0.021737298
23	0x3ce5d006	0.028053295
24	0x3b635ae5	0.0034691629
25	0x3cee2486	0.02907015
26	0xbc77f98a	-0.015135178
27	0x3c5d8919	0.013521456
28	0x3c5ab445	0.013348644
29	0xbc06d19a	-0.008228684
30	0x3cf75181	0.030190231
31	0x3b9bd499	0.004755568
32	0x3cef5f05	0.029220114
33	0xbc4e3556	-0.0125859585
34	0x3c13fb64	0.009032104
35	0xbba04927	-0.004891533
36	0xbcb9f4b9	-0.0226997
37	0x3be7378e	0.007056183
38	0x3aa9d637	0.0012957518
39	0x3d06fa17	0.032953348
40	0x3b90774e	0.0044087535
41	0x3c897b0c	0.016782306
42	0xbc534d22	-0.012896808
43	0xbaa587b2	-0.0012628941
44	0xbb5d118d	-0.0033732385
45	0xbc016752	-0.007898169
46	0xbc2ba2a9	-0.010475793
47	0x3bb29548	0.0054499246
48	0x3d76bd0d	0.060238887
49	0x3cbb2780	0.022845984
50	0x3cc47399	0.023980903
51	0xba98d168	-0.0011659088
52	0xbd0e4ea0	-0.03474295
53	0x3bab91a8	0.0052358694
54	0x3b4d6284	0.0031339237
55	0xb9ecc029	-0.00045156598
56	0xbc88636d	-0.016648972
57	0x3ccdc188	0.025116697
58	0x3c9efa87	0.01940657
59	0xbcb2a78d	-0.02180841
60	0x3c55eaf1	0.013056503
61	0x3d26e8ba	0.04074929
62	0xbba00f43	-0.004884632
63	0xbc15513b	-0.009113605
64	0x3cb62e91	0.022239001
65	0x3caea00a	0.021316547
66	0x3c4a98c5	0.012365525
67	0x3cc23f24	0.023711748
68	0x3d1d3829	0.038383637
69	0x3d131171	0.035905305
70	0x3c27999c	0.010229494
71	0x3c435f8a	0.011924634
72	0x3d7506b2	0.05982084
73	0x3c8a2ec5	0.016868005
74	0x3c9e6cc2	0.01933897
75	0x3c619ca4	0.013770256
76	0xbb40af62	-0.0029401411
77	0x3c4182ab	0.011810939
78	0x3bde79a6	0.006789404
79	0x3d022301	0.031771664
80	0x3c889cb4	0.016676284
81	0xbc749919	-0.014929079
82	0xbc8dc2ac	-0.01730474
83	0x3c6ab0d9	0.01432439
84	0x3d1b8c05	0.03797533
85	0xbc9942f7	-0.01870869
86	0x3c82b399	0.01595478
87	0xbadcfa1d	-0.0016859208
88	0x3d0a2c58	0.033733696
89	0xbd39193e	-0.04519009
90	0xbc108cff	-0.008822679
91	0x3b4ff4ae	0.0031731534
92	0xbbd81987	-0.00659484
93	0x3c96fc4e	0.018430855
94	0x3d1550eb	0.036454123
95	0x3b5e678e	0.0033936235
96	0xbca41887	-0.020031227
97	0x3c0fc0d5	0.008774002
98	0xbc2958f0	-0.010336146
99	0x3bda6c61	0.006665752
100	0x3d1490ce	0.03627091
101	0x3abcd191	0.0014405717
102	0x3b7188d5	0.003685524
103	0x3c1fbb65	0.009749268
104	0x3c8ea17c	0.017410986
105	0x3d466970	0.048440397
106	0x3c985372	0.018594477
107	0x3ca72bc3	0.02040661
108	0xbb268aaf	-0.0025412252
109	0x3d2b45e9	0.04181472
110	0xbc824869	-0.015903668
111	0xbce2091d	-0.027592236
112	0xbb2cc287	-0.0026361065
113	0x3cedf548	0.029047623
114	0x3d0c2b02	0.034220703
115	0x3cc2b142	0.023766164
116	0xbb62d6f0	-0.0034612976
117	0xbc64ed8f	-0.013972654
118	0x3abb7f89	0.0014304976
119	0xbca54003	-0.020172125
120	0x3cd27123	0.025688713
121	0x3cf94242	0.030427102
122	0xbca2ba98	-0.019864365
123	0x3cea9ac9	0.02863826
124	0x3b42da95	0.0029732336
125	0xbb69e6a9	-0.0035690463
126	0xbab43d04	-0.0013751094
127	0x3cb31d94	0.02186469
128	0x3c086763	0.008325431
129	0xbc099b1b	-0.008398796
130	0xbc0913cd	-0.008366537
131	0x3c753b81	0.0149678
132	0x3d08499a	0.033273317
133	0x3d37d4c3	0.04488064
134	0xbca02f27	-0.019553734
135	0x3bdc9a60	0.00673227
136	0xbb8b9537	-0.004259731
137	0xbbada42e	-0.0052991128
138	0x3cb958a7	0.02262528
139	0x3d16b77b	0.036796074
140	0x3d0b8818	0.034065336
141	0xbd0b6ece	-0.03404122
142	0x3d449172	0.04799027
143	0x3d0c7db6	0.034299575
144	0x3c8b94e6	0.017038774
145	0x3c81b739	0.015834438
146	0x3c91a504	0.01777888
147	0x3cb7a066	0.022415351
148	0x3d34106a	0.043960966
149	0x3a5bcb54	0.0008384485
150	0x3cd10c2c	0.0255185
151	0xbc5772f9	-0.01314997
152	0x3bc2d14b	0.00594536
153	0x3d1b838c	0.03796725
154	0x3d499a99	0.0492197
155	0xbcaad5f0	-0.020853966
156	0xbc3e028b	-0.011597286
157	0x3c9702d4	0.018433966
158	0x3c5364c2	0.0129024405
159	0x3bfc6260	0.007702157
160	0x3cb3a27a	0.02192806
161	0x3cb58740	0.022159219
162	0xbc6ca67e	-0.014443992
163	0xbcae00c9	-0.021240609
164	0xbcb4eb77	-0.022084935
165	0x3ca980a9	0.020691233
166	0xbc340b78	-0.0109890625
167	0xbc3f5b07	-0.011679417
168	0x3d08c25c	0.03338848
169	0x3c95b516	0.018274825
170	0xbbbe551e	-0.0058084866
171	0x3c36dba4	0.011160765
172	0xbb0407c3	-0.0020146228
173	0xbca2b12b	-0.01985987
174	0xbcf8de7b	-0.030379524
175	0x3c9737b1	0.018459173
176	0x3bf60cea	0.0075088637
177	0x3cf91a68	0.0304081
178	0xbcab2d5c	-0.020895652
179	0xbcd4ff4e	-0.026000645
180	0xb8cae844	-9.6753734e-05
181	0x3d41656a	0.047215857
182	0x3b99a924	0.0046893526
183	0x3c881949	0.01661362
184	0x3c3c0291	0.011475221
185	0x3a44babe	0.00075046334
186	0x3c89fee3	0.016845172
187	0xbc328da1	-0.010898025
188	0x3cde204f	0.027115015
189	0xbcc5d1f8	-0.024147972
190	0x3c6d33b1	0.014477656
191	0x3c98ad03	0.018637186
192	0xbc1553a2	-0.009114178
193	0xbd04e01d	-0.032440294
194	0x3cc13e21	0.023589196
195	0x3b8d7664	0.004317092
196	0x3c26befe	0.010177372
197	0x3c0edb2b	0.008719246
198	0x3c99470c	0.018710636
199	0xbc66f941	-0.014097513

gc3.weight f4 [200, 100]
0	0xba828ee7	-0.0009960801
1	0x3d197074	0.03746076
2	0x3b8936b0	0.0041874275
3	0x3d8efe5d	0.0698211
4	0x3d25611d	0.040375818
5	0xbe658a59	-0.22416057
6	0xbccc1794	-0.024913587
7	0x3c512e18	0.012767337
8	0xbcb31107	-0.021858705
9	0x3d4206cc	0.047369763
10	0xbd177c29	-0.036983643
11	0x3d4686d7	0.048468437
12	0x3cb61807	0.022228254
13	0xbde46933	-0.11152878
14	0xbdfb3459	-0.12265844
15	0xbc6c15c6	-0.014409488
16	0x3dc4945f	0.09598612
17	0x3c172fd5	0.009227713
18	0xbd3c9355	-0.046038944
19	0x3d9bded8	0.076108634
20	0x3d90a69f	0.070630305
21	0xbb247066	-0.0025091409
22	0x3df68eb4	0.12038937
23	0xbcb59a50	-0.022168308
24	0x3d9e1eea	0.0772074
25	0x3deaa92c	0.11458048
26	0x3e1d7712	0.15377453
27	0x3ada5cc7	0.001665973
28	0x3d812670	0.063061595
29	0xbd2dfe64	-0.042478934
30	0x3d3224a9	0.043491993
31	0x3d97455b	0.073862754
32	0x3de85b81	0.11345578
33	0x3d8f683b	0.07002302
34	0x3d9e2fad	0.07723937
35	0x3d9b158e	0.075724706
36	0xbdec1b12	-0.11528601
37	0x3dc5f401	0.09665681
38	0x3debd8de	0.115159735
39	0xbd42b786	-0.047538303
40	0xbdaf6ca9	-0.08565647
41	0xbdd6b311	-0.10483373
42	0x3daf6747	0.085646205
43	0x3d6e1588	0.058126003
44	0xbe08f7ca	-0.13375774
45	0x3ca60d9f	0.020270167
46	0x3d3e4d9f	0.046460744
47	0xbd0c9ee0	-0.034331203
48	0xbe0d717c	-0.13812822
49	0xbdc01317	-0.09378641
50	0x3cf89d65	0.030348489
51	0xbd3cd184	-0.046098247
52	0x3d834254	0.064091355
53	0x3d67bfbf	0.056579348
54	0x3dc8bf18	0.09802073
55	0x3cab8cfc	0.02094125
56	0xbd974658	-0.07386464
57	0x3d35b4b3	0.04436178
58	0xbe12fff2	-0.14355448
59	0x3de3707e	0.111054406
60	0xbd9376e7	-0.07200413
61	0xbdd89381	-0.10575009
62	0xbc2884eb	-0.010285596
63	0x3d171382	0.03688384
64	0xbe1373bc	-0.14399618
65	0xbdeddabe	-0.116139874
66	0xbc6a4898	-0.014299534
67	0x3d4122e7	0.047152426
68	0x3cb256a4	0.02176983
69	0xbd3b0b93	-0.045665335
70	0x3da6e9e7	0.08150082
71	0x3d6471b3	0.055772495
72	0x3dd7310a	0.105074
73	0xbb6e0d8d	-0.0036323995
74	0x3d200334	0.039065555
75	0xbd4e722a	-0.050401844
76	0x3d688c5d	0.056774486
77	0x3db167f6	0.08662407
78	0x3d60de8c	0.054899737
79	0x3dc12736	0.09431307
80	0xbd5c51c8	-0.05378893
81	0x3bd643ac	0.006538829
82	0xbe29d7eb	-0.16586272
83	0xbdb11ec9	-0.0864845
84	0x3dda5ec6	0.10662608
85	0x3ce54fae	0.027992096
86	0xbc76a720	-0.015054494
87	0xbd9ba228	-0.07599288
88	0x3dbc30e3	0.09189012
89	0xbd4a2535	-0.04935189
90	0xbce015fe	-0.027354237
91	0xbcbf6706	-0.023364555
92	0xbcff6c4a	-0.031179566
93	0x3d70f9b4	0.058831885
94	0xbdee7b79	-0.11644644
95	0x3c2e1df7	0.010627261
96	0xbd7af449	-0.061268125
97	0x3c8553a0	0.016275227
98	0x3d841015	0.0644838
99	0xbc69e67e	-0.014276145
100	0x3cac454a	0.021029133
101	0xbda98284	-0.08276847
102	0x3e069d4c	0.13145941
103	0x3c390829	0.011293449
104	0x3c0a80b5	0.008453538
105	0x3e0133d9	0.12617435
106	0xbdce55f2	-0.100749865
107	0x3e1e7a42	0.15476325
108	0xbc2795a3	-0.010228547
109	0xbd5f15d4	-0.054464176
110	0xbc3f09ec	-0.01166008
111	0x3da77637	0.081768446
112	0xbd52f4ef	-0.051503118
113	0xbda145ef	-0.07874667
114	0xbd2a3026	-0.041549824
115	0xbcde49c5	-0.027134785
116	0x3caf654e	0.02141061
117	0x3b95a09a	0.0045662643
118	0xbca9e4c1	-0.020738961
119	0x39b71bf7	0.00034925315
120	0xbc7b2d69	-0.015330651
121	0x3ccab3d4	0.024743952
122	0xbd3643e6	-0.044498347
123	0xbdae8118	-0.085207164
124	0x3c8273ad	0.0159243
125	0xbdfbfb38	-0.123037755
126	0xbd9895f9	-0.0745048
127	0x3e2a3679	0.16622342
128	0xbcb52d4c	-0.022116326
129	0xbd47de72	-0.048796125
130	0xbdb436f5	-0.08799545
131	0x3e1455c7	0.14485846
132	0xbd800486	-0.06250863
133	0xbb1b5870	-0.0023703836
134	0xbe050125	-0.12988718
135	0x3d2c9dcf	0.042142686
136	0xbc4991d0	-0.012302831
137	0xbda3161a	-0.079632
138	0xbc926744	-0.017871507
139	0x3e1d0ac8	0.15336144
140	0x3dbe600c	0.09295663
141	0x3c8aede6	0.016959142
142	0xbcb8d4a6	-0.022562336
143	0x3c8389db	0.016056946
144	0xbddd90b7	-0.10818618
145	0x3db257b9	0.08708138
146	0xbdada530	-0.08478773
147	0xbca2036d	-0.019777024
148	0xbb8a74b8	-0.0042253397
149	0x3e17db49	0.14829744
150	0x3aa6f7a9	0.0012738603
151	0xbdb699d6	-0.089160606
152	0xbdcd6a9c	-0.100301
153	0x3dc84094	0.09777942
154	0x3d596928	0.0530788
155	0xbd2fc892	-0.042915888
156	0x3dae06f9	0.08497424
157	0x3d104e1c	0.03523074
158	0x3d7b2170	0.061311185
159	0xbd961e50	-0.073300004
160	0xbe45fb15	-0.19334061
161	0x3de50985	0.11183456
162	0x3d717751	0.05895168
163	0x3d244345	0.040103216
164	0x3ea95096	0.33069295
165	0xbcd3e241	-0.025864722
166	0xbd8175fe	-0.06321333
167	0x3d704b4c	0.05866556
168	0x3d095e03	0.033536922
169	0xbd415219	-0.047197435
170	0x3a40f09c	0.00073600723
171	0xbd98fd3e	-0.07470177
172	0x3cb053d2	0.021524344
173	0x3e0ea532	0.13930205
174	0x3daf639e	0.08563922
175	0x3dc0273c	0.09382483
176	0x3b3e4b2b	0.0029036503
177	0x3e32910a	0.1743814
178	0xbd61488c	-0.055000827
179	0x3cb424f1	0.021990271
180	0x3d3df38c	0.046374843
181	0x3c6e2521	0.014535219
182	0xbc8225cc	-0.015887164
183	0xbdbe7c58	-0.093010604
184	0x3d0e4f01	0.034743313
185	0xbd5453c8	-0.051837713
186	0xbd346750	-0.04404384
187	0x3dfdca40	0.12392092
188	0x3c98b76e	0.018642154
189	0x3d943701	0.07237054
190	0xbc8f795c	-0.017513923
191	0xbb885694	-0.0041607115
192	0x3e1162dd	0.1419787
193	0x3dd284b8	0.1027922
194	0x3dc750e0	0.097322226
195	0x3d7568a2	0.05991424
196	0xbc995ee5	-0.018722007
197	0xbd92a9e4	-0.0716131
198	0xbd2a5787	-0.04158738
199	0xbd3f6931	-0.046731178
200	0xbd104720	-0.03522408
201	0xbe14afaa	-0.14520136
202	0xbd18fefc	-0.037352547
203	0x3caf0daf	0.02136883
204	0x3d6348a1	0.055489186
205	0x3debbfaf	0.1151117
206	0xbbcfd2bd	-0.0063422606
207	0xbd9cc144	-0.0765405
208	0xbc83c739	-0.016086208
209	0x3da1a6cf	0.07893144
210	0xbd0d1a5e	-0.034448974
211	0xbd4b179e	-0.04958307
212	0xbc1d1a94	-0.009588856
213	0xb8bbce2d	-8.955258e-05
214	0x3e2ed4ef	0.17073415
215	0xbe43ffb2	-0.19140509
216	0xbd3684d1	-0.044560257
217	0x3d9457d7	0.072433166
218	0x3e658754	0.22414905
219	0x3d2c3b01	0.042048458
220	0x3c355067	0.011066533
221	0x3d761774	0.06008096
222	0x3df3f9ae	0.11912857
223	0x3d2d50c1	0.04231334
224	0xbcd654ea	-0.026163537
225	0x3da8d67c	0.08244035
226	0xbc71b8f8	-0.014753573
227	0x3c589ba0	0.013220698
228	0xbd7f2f62	-0.062301047
229	0x3d5a6aa5	0.05332436
230	0xbe49a315	-0.19691117
231	0x395e72fd	0.00021214406
232	0xbcab8126	-0.020935606
233	0xbd4694a3	-0.048481595
234	0x3d378330	0.044802845
235	0xbd5a6345	-0.053317327
236	0x3dc5eced	0.09664331
237	0x3dfc8b97	0.12331312
238	0xbd9dc861	-0.07704235
239	0x3c26f013	0.010189074
240	0xbddef651	-0.10886825
241	0x3de16fde	0.11007665
242	0x3d3ba7f3	0.045814466
243	0xbbfe54fe	-0.0077615967
244	0x3cd98e5b	0.026557138
245	0xbd8c8a16	-0.06862275
246	0xbe34b926	-0.17648754
247	0x3d391ca6	0.045193337
248	0x3d5ca606	0.05386927
249	0x3e464509	0.19362272
250	0x3e2fd0ec	0.17169541
251	0x3df988b5	0.12184278
252	0xbd2d3805	-0.042289753
253	0xbd6c6146	-0.057709955
254	0x3cda7d39	0.026671039
255	0xbb192dea	-0.0023373314

gc3.bias f4 [100]
0	0x3babbae5	0.0052407854
1	0xbb60a9d6	-0.0034280918
2	0xbd4c2fe3	-0.049850356
3	0xbcd536f4	-0.02602718
4	0xbd12840f	-0.035770472
5	0xbaae87ae	-0.0013315582
6	0x3c7efb75	0.015562882
7	0x3c690a5b	0.01422366
8	0xbd1549fd	-0.036447514
9	0xba5879d5	-0.00082579005
10	0xbbfdc1c7	-0.0077440473
11	0xbca99326	-0.020700049
12	0xbbd28c5a	-0.0064254226
13	0xbca50ba0	-0.020147145
14	0x3ba244e6	0.004952061
15	0xbcf972d0	-0.030450255
16	0xb94583f0	-0.00018836535
17	0xbb7a6865	-0.0038209197
18	0x3bc9e74f	0.0061616073
19	0x3d15b6e8	0.036551386
20	0xbbd4b1e7	-0.006490934
21	0x3b18ee15	0.0023335267
22	0xbd09e7c2	-0.033668287
23	0x3c225a06	0.009909159
24	0x3bcad1aa	0.0061895447
25	0xbba1379b	-0.0049199588
26	0xbb93927f	-0.0045035477
27	0xb9a51d6e	-0.0003149318
28	0xbcf71f6a	-0.030166347
29	0x3c255c55	0.010092814
30	0xbcb1a7eb	-0.021686515
31	0xbc083cd1	-0.008315281
32	0x3c18e22b	0.009331266
33	0xbca68b9e	-0.020330247
34	0xbcfce0f3	-0.030868983
35	0xbd31e4b0	-0.043430984
36	0xbc9085f8	-0.017642006
37	0xbceef7e8	-0.029170945
38	0xbcc1e87a	-0.023670424
39	0xbd52b2ab	-0.051439922
40	0xbd813301	-0.06308556
41	0x3cc90918	0.024540469
42	0xba68d9fa	-0.00088825787
43	0xbc65aeb6	-0.014018705
44	0x3c698971	0.01425396
45	0x3b9f9dd6	0.0048711104
46	0xbc00ac97	-0.007853649
47	0x3cdb4b40	0.02676928
48	0x3d066527	0.03281131
49	0xbc9b7ac5	-0.01897944
50	0x3c02b766	0.007978296
51	0x3cdad966	0.026714992
52	0xbcdb3ad8	-0.026761457
53	0xbcf5f0ed	-0.030022109
54	0xbc99b083	-0.018760925
55	0xbbe61fef	-0.0070228497
56	0x3c3f976c	0.011693817
57	0xba959dc4	-0.0011414816
58	0x3c944a77	0.018101914
59	0xbbaa863b	-0.00520399
60	0xbc6bdc9c	-0.014395859
61	0xbccfcb52	-0.025365505
62	0x3c2390b1	0.009983228
63	0xbd9d99ff	-0.07695388
64	0xbc65499c	-0.013994601
65	0xbce7a375	-0.028276185
66	0xbc2992c0	-0.010349929
67	0xbd017027	-0.031601097
68	0x3bffada3	0.0078026815
69	0x3bd28032	0.0064239735
70	0xbcd5f4e9	-0.026117759
71	0xbc814985	-0.015782127
72	0x3c25a17a	0.0101093
73	0x3b958758	0.0045632534
74	0xbc472d11	-0.012156741
75	0xbcf847fb	-0.03030776
76	0xbce7b6b7	-0.028285367
77	0xbd427217	-0.047472086
78	0xbc3a3551	-0.011365251
79	0x3be97a96	0.007125209
80	0xbcbc241a	-0.022966433
81	0xbd532876	-0.05155226
82	0xbcdf824e	-0.027283814
83	0x3c251c0f	0.0100774905
84	0xbcc0eef2	-0.023551438
85	0x3c42ecfe	0.011897324
86	0x3b71ec54	0.0036914544
87	0xbd2f98dd	-0.04287039
88	0xbd024d7c	-0.031812176
89	0xbcd0e2f8	-0.025498852
90	0xbbc5ce28	-0.0060365386
91	0xbb9d4e21	-0.0048005735
92	0xbb982b29	-0.004643817
93	0xbd2fe94a	-0.04294709
94	0x3c1a059b	0.0094007505
95	0x3bb31cfe	0.0054661026
96	0xbd22dc9f	-0.039761182
97	0x3aca98aa	0.0015456874
98	0xbbc5ee8d	-0.0060404004
99	0xbbcbc17f	-0.006218135
