best_models/MOGONET/fold_2/E3.pth (torch, 901527 bytes, 6 tensors)

gc1.weight f4 [822, 200]
000000 05 77 79 3d 0d 3e 03 3d 35 60 01 3d ff 3c 2f 3c
       0.06090452 0.032041598 0.03158589 0.010695695
000010 ba fa 59 bd f5 b9 34 bd 7f 53 a2 bc 20 8d 06 bd
       -0.053217627 -0.044122655 -0.019815205 -0.03284943
000020 b6 c1 0d 3d b3 8f dd bc a6 62 21 3d f5 41 86 3c
       0.034608565 -0.02704606 0.03940072 0.016388873
000030 15 82 d9 3c 6e de 1a bc 7d 6d 98 bd f0 3e f0 bd
       0.026551286 -0.009452445 -0.07442758 -0.117307544
000040 f8 c2 da bc 50 d3 80 bd 38 0a b0 bc 4c f5 d0 3c
       -0.026704296 -0.06290305 -0.021489248 0.025507592
000050 d9 b0 c3 bb e2 f6 98 ba 4c e1 8a bc 0c 1c d6 bc
       -0.0059720096 -0.0011670256 -0.016953133 -0.02613642
000060 ba fc cd bb a4 dd e6 bb 21 69 49 3c aa 87 19 ba
       -0.006286231 -0.0070454646 0.012293131 -0.00058567023
000070 3c f5 b8 bc 23 d3 10 bd 82 14 6e 3d 57 25 a5 3c
       -0.022577874 -0.035357606 0.058125027 0.020159407
000080 c3 36 5c bd af 92 91 3c b4 0d e2 bc 8a 68 d8 bd
       -0.053763162 0.01777014 -0.027594425 -0.10566814
000090 dc b7 0d bd 76 e8 bc 3c 0e c9 f7 3c b4 72 13 bc
       -0.03459917 0.023060065 0.030247238 -0.008999515
0000a0 6a 0b 83 bc 6b 04 ba bc d0 8c 18 3d a9 0d ff 3c
       -0.015996654 -0.022707185 0.037243664 0.031134443
0000b0 8c d2 35 bd 45 76 d0 bd ff 05 a2 bc d0 5d 94 3d
       -0.044390246 -0.10178808 -0.01977825 0.07244456
0000c0 9a df 44 3d 46 c6 9b 3c 3c 55 b6 bd 00 24 ae 3b
       0.048064806 0.019015443 -0.08902976 0.00531435
0000d0 e2 b8 0a bd 8b 18 6e 3d 0b 4e d4 3d 0d 00 3b 3d
       -0.033867724 0.058128875 0.10366448 0.045654345
0000e0 1e 8f 93 3d 41 6e 19 bd 9f 15 d5 bd fd 20 20 3c
       0.07205032 -0.037458662 -0.104045145 0.00977349
0000f0 d2 f2 92 3d 66 24 82 bc ad 89 a7 3c d8 d2 9a 3c
       0.071752205 -0.015886497 0.020451391 0.018899366
000100 5a 9f 2a bc 18 46 21 3d 3e d8 b9 bd f3 fd 10 39
       -0.010413969 0.039373487 -0.09074448 0.00013827514
000110 49 ca d2 3c 02 50 3a bb 03 1e 26 3d a3 55 08 3d
       0.025731223 -0.0028429036 0.040555965 0.033284795
000120 44 91 eb bb 26 62 58 3d eb f3 93 bc 41 d9 e9 bd
       -0.007188948 0.052827977 -0.018060645 -0.11418391
000130 61 89 4a bd a5 22 79 bc b3 a8 16 3b a3 be 2c 3d
       -0.04944742 -0.015206014 0.0022988736 0.042173993
000140 ba 77 cb 3c af 83 ae bd 7a 13 62 bd 22 41 99 3c
       0.024837364 -0.085212104 -0.055194356 0.018707816
000150 81 e9 e3 3c 30 14 8d bd db f9 1d 3d 0a 16 7d 3d
       0.027821304 -0.06888616 0.03856836 0.061788596
000160 05 de 08 3d f8 67 71 3c 97 f9 16 3c 04 6f f3 3c
       0.03341486 0.014734261 0.00921478 0.029716022
000170 1f 27 48 bd 3e fb cc ba 06 d1 1a 3b bf ab 37 b8
       -0.048865434 -0.0015638841 0.0023623123 -4.379055e-05
000180 56 55 f5 3c c7 c3 39 bd 0d 47 b8 3b 27 e2 86 3b
       0.029947918 -0.045352723 0.0056237043 0.004116315
000190 2c 0e a8 3d d5 6e f2 bc a6 60 70 bd 5d fc ef bc
       0.08205828 -0.029593864 -0.05868592 -0.02929514
0001a0 ce c4 d9 3d 5c 84 69 bc 01 8d 7b 3b e4 88 29 bd
       0.10633241 -0.014252748 0.0038383605 -0.041390315
0001b0 06 0e 19 bd 96 55 e1 bc 7e d9 b4 bb 28 38 99 3c
       -0.03736689 -0.02750663 -0.005519091 0.018703535
0001c0 54 d1 c4 3c ed 77 5b bd 35 c3 72 3c 84 d1 f3 bd
       0.024025597 -0.053581167 0.014817049 -0.11905196
0001d0 e0 7e 83 bd cb 0c 2b bd 60 f5 ad bc f3 b9 54 3b
       -0.06420684 -0.041760247 -0.021235168 0.0032459467
0001e0 03 44 03 bc 79 a1 94 bd 33 3c ef bc 13 5e 3c 3d
       -0.008011821 -0.07257361 -0.02920351 0.045988154
0001f0 cc 3d 1e 3d 4d 12 f8 bc dd e8 a7 3c f0 b6 02 3d
       0.038633153 -0.030282164 0.02049678 0.031912744
000200 f4 1b 3d 3d dc c0 ed 3d 6f e8 2f bc 12 90 27 bd
       0.046169236 0.11609051 -0.010736569 -0.04090888
000210 72 83 e6 bc 3b 68 90 3d db f6 4f bd c0 d3 d8 bc
       -0.02813885 0.070511304 -0.05077253 -0.026468158
000220 6a af 4d bd c9 42 12 3c 2b 55 c2 3c e3 bf 77 3c
       -0.050216116 0.008927056 0.023722252 0.015121433
000230 4d e6 2c 3d ea 56 8e bc b7 57 86 3c c4 03 38 3c
       0.04221182 -0.017375428 0.016399248 0.011231367
000240 ab 5a 91 3c e2 ce be bc ff 12 6c bd 1e 20 2f bd
       0.01774343 -0.023292009 -0.057635304 -0.04275524
000250 37 24 d6 3d 0c eb fd 3c 49 14 80 3d d7 df b2 3d
       0.10456126 0.030995868 0.06253869 0.087341
000260 5e 60 f2 bc 42 91 8a 3d 10 68 08 3d aa bb 47 3d
       -0.029586967 0.06765987 0.033302367 0.048762955
000270 c7 3a 94 3d c4 f3 2d bc 43 8b d9 3b ef b9 c5 bc
       0.072377734 -0.0106172 0.0066389157 -0.024136512
000280 99 c3 95 bc 72 77 79 3d 8e 97 3a 3d 61 51 c7 bc
       -0.018281745 0.060904928 0.04555469 -0.024330797
000290 ab 09 5e 3d 39 16 32 bd bd 31 db bb e8 e8 a1 3d
       0.05420844 -0.043478224 -0.006689279 0.079057515
0002a0 d4 b2 37 3d 28 d3 d9 bc cd 2b 86 3a 13 d0 2f 3a
       0.04484828 -0.026589945 0.0010236442 0.00067067257
0002b0 12 c2 0d 3d 3d a5 34 bd b7 77 7b bd cc 17 b0 bc
       0.034608908 -0.044102896 -0.061393466 -0.021495722
0002c0 ae bd 28 3c 10 d2 10 3d 8e 47 a3 3c ab af 85 3d
       0.010299129 0.03535658 0.01993158 0.06527647
0002d0 6b 7a 8f 3d 3c 35 dc 3b ff 58 27 3d fd f8 39 bd
       0.07005771 0.006720213 0.040856358 -0.04540347
0002e0 d5 4a 9c 3d d0 6c 12 3d d2 b9 57 3d fb 2b e4 bc
       0.076314606 0.035748303 0.052667446 -0.027853003
0002f0 44 6a 59 3b 0f cc 7e bd bc 72 0a 3e a5 71 2b 3b
       0.0033174912 -0.062206324 0.1352033 0.0026160267
000300 9e 52 0c bd 3b 66 a5 3d 94 06 63 3d f6 a0 2d bd
       -0.034258477 0.080761395 0.055426195 -0.042389832
000310 a5 ed 6d bc 40 ad 14 bc d9 ca 5f 3d be 54 f1 bc
       -0.014521991 -0.009074509 0.05463681 -0.029459354
000320 ec 6a de bc 12 92 40 bd 1e e1 6a bd 2a 39 42 3d
       -0.027150594 -0.047014304 -0.057343595 0.047417797
000330 b6 86 c4 bd c7 0c d3 ba 56 b6 06 bd 73 6c 8a bc
       -0.095960066 -0.001610183 -0.032888733 -0.016897416
000340 e0 7e ba 3c 30 7e 55 3c ef 8b 5c bd d9 8f 8c 3d
       0.022765577 0.013030574 -0.05384439 0.06863374
000350 81 e1 1a bd a9 80 4d bd 45 f7 89 3c d9 03 ea 3c
       -0.037812714 -0.050171528 0.01684154 0.028566288
000360 ca b6 b3 3d 08 1d 29 bd af 61 97 bc b2 64 03 bc
       0.087750986 -0.041287452 -0.018479196 -0.008019613
000370 9d f1 50 bd a3 85 05 bd f0 52 2f 3b a1 64 76 bd
       -0.05101167 -0.03259815 0.0026752315 -0.06015456
000380 82 54 fe bc 38 35 71 3d 0d 29 dd bc e5 17 bc 3d
       -0.031046156 0.058888644 -0.026997114 0.09184245
000390 49 1a 6a bd b3 20 dd bb a9 b0 4e bd 27 bc 98 3d
       -0.057153974 -0.006748283 -0.050461445 0.07457762
0003a0 34 1b 33 3d 33 8e 52 bb 07 25 7b 3d 0b 22 90 3d
       0.043727115 -0.0032128214 0.06131461 0.07037743
0003b0 12 b2 8d 3d a6 1b 3d bd c4 ec f0 bd fe 42 39 3c
       0.0691873 -0.046168946 -0.117639095 0.011307476
0003c0 9b 26 f0 3c 64 66 32 3d 4c 03 7b 3d 74 de a7 bc
       0.029315284 0.04355468 0.06128244 -0.020491816
0003d0 08 0f 29 bd 6c 9b f1 3b 07 6e ec bc 3e dc 13 bd
       -0.0412741 0.007373264 -0.028861059 -0.03609871
0003e0 b1 b9 17 bd 1d f2 3d bd 33 46 3b 3c 27 de ab 3d
       -0.037042323 -0.046373475 0.011430311 0.083919816
0003f0 4b 7e 32 bc b5 62 87 3d 98 07 8c bd f3 06 ee 3c
       -0.010894368 0.06610624 -0.06837386 0.029056048

gc1.bias f4 [200]
000000 39 1e 1b bd 01 d3 a3 bd c7 eb 0e bd 6a 92 ad bc
       -0.03787062 -0.0799923 -0.034892824 -0.02118798
000010 d8 2e e9 bc a4 57 95 bd 94 15 3f bd 41 ad 82 bd
       -0.02846472 -0.07292107 -0.046651438 -0.06380702
000020 a6 2c d0 bc 24 8b 80 bd 91 c0 ed bc bd 74 1c bd
       -0.025411915 -0.06276539 -0.029022487 -0.038197268
000030 cf 28 33 bd 6f c2 ae bc de ac 69 bd 61 eb e5 bc
       -0.04374009 -0.021332948 -0.057049625 -0.028066339
000040 8c 7a 48 bd 44 ff 7e bd 2b 22 66 bd f9 e3 60 bb
       -0.048944995 -0.06225516 -0.05618493 -0.003431557
000050 90 ad 87 bd 6d d5 32 bd 2c d3 e6 bc 25 a2 92 bd
       -0.06624901 -0.04366057 -0.028176866 -0.07159833
000060 d0 66 9d bd a2 f4 30 bd 99 ee e4 bc 7e 54 98 bd
       -0.076856256 -0.04320205 -0.027945803 -0.074379906
000070 6a 1d 97 bc 3a e2 3c bd 6d 0b 5d bd 55 c7 d6 bc
       -0.018446643 -0.046114184 -0.053965975 -0.026218096
000080 fb da 60 bd 4a 04 96 bd db 92 82 bd 5d 9a 54 bd
       -0.054896336 -0.07325037 -0.06375667 -0.051905025
000090 37 e5 81 bd ed 8c ed bc 83 f6 23 bd 6d 45 99 bd
       -0.063425474 -0.028997863 -0.040030014 -0.07483945
0000a0 9a 0e 81 bd e0 95 b9 bd 10 02 6a bd 64 2c 59 bd
       -0.06301613 -0.090617895 -0.057130873 -0.05302085
0000b0 fe 97 45 bd e9 63 81 bd aa 0c 34 bd 1d 78 2d bd
       -0.048240654 -0.063178845 -0.04395739 -0.042350877
0000c0 ef 71 1d bd 07 52 bf bd 43 86 11 bd 85 b5 65 bd
       -0.038438734 -0.09341817 -0.035528433 -0.056081314
0000d0 0b 12 75 bd f8 49 40 bd 47 70 3d 3b 8b 5b 7b bd
       -0.05983166 -0.046945542 0.0028906034 -0.0613666
0000e0 ea b7 62 bd 3c c1 a2 bd c3 93 6b bd 29 66 ce bc
       -0.055351175 -0.07947013 -0.057513963 -0.025195198
0000f0 cc 23 b5 bc f7 04 90 bd 3f f5 c1 bc d3 2a 2e bc
       -0.022111796 -0.07032197 -0.023676513 -0.010630327
000100 3e 18 72 bc 39 ff 45 bd 55 12 4b bd 29 eb 00 bd
       -0.014776288 -0.048339102 -0.04957803 -0.031474266
000110 86 94 7f bd 9e 3c c1 bc 0f b2 2b bd c3 2a 0c bd
       -0.062397502 -0.023588475 -0.041917857 -0.03422047
000120 19 63 10 bd 3d 24 59 bd 7d 92 1a bd 55 77 e3 bc
       -0.035250757 -0.053013075 -0.03773736 -0.027766863
000130 3d c3 ec bc 04 d1 4c bc 39 5a 65 bc d4 9d 02 bd
       -0.02890169 -0.012501005 -0.013998562 -0.031888798
000140 5a a7 66 bd b0 aa dd bc 09 b8 65 bd ef 14 68 bd
       -0.056311943 -0.02705893 -0.056083713 -0.05666059
000150 81 26 53 bd e6 40 88 bd 66 29 6c bc b8 70 6c bd
       -0.051550392 -0.066530034 -0.014414167 -0.057724684
000160 17 34 50 bc 58 e9 86 bd 65 23 4f bd 92 46 09 bd
       -0.012707732 -0.065874755 -0.050570864 -0.033514567
000170 7c a4 12 bd a6 0b 55 bd 2e 4e a7 bc 9b 23 ae bc
       -0.035801396 -0.052013062 -0.020423021 -0.021257212
000180 a5 6d 82 bd 31 ea eb bc c0 a8 50 bd ad 21 8c bd
       -0.06368569 -0.028798195 -0.050942183 -0.06842361
000190 79 12 bf 39 3f 11 58 bc c3 39 21 bd c4 9b ae bd
       0.00036444122 -0.013187706 -0.039361726 -0.08525804
0001a0 4c 1d 12 bd 63 6c 0f bd b7 b8 25 bd e4 b1 53 bd
       -0.03567247 -0.035015475 -0.04045936 -0.05168332
0001b0 59 d9 1b bd ed fe 5b bb be e8 16 bd cc 65 66 bd
       -0.038049076 -0.0033568696 -0.036843054 -0.056249425
0001c0 c4 08 12 bd c0 3e 85 bd 16 04 19 bd 3e dd 85 bd
       -0.03565289 -0.06506109 -0.037357412 -0.06536339
0001d0 f6 41 77 bd 3d 91 11 bd cf 95 f6 bc 9e d9 ee bc
       -0.06036564 -0.0355389 -0.030100731 -0.029156502
0001e0 20 81 99 bd f7 99 43 bd 98 d0 a3 bc 15 08 83 bd
       -0.07495332 -0.047754254 -0.019996926 -0.06398026
0001f0 17 a6 9b bc 13 51 2f bd 56 c3 0c bd 1f 01 45 bd
       -0.019000096 -0.042801928 -0.034365974 -0.048096772
000200 28 f7 b6 bb d0 4c 3c bd 4d 1a 0f bb 33 88 55 bd
       -0.0055836625 -0.04597169 -0.0021835745 -0.052131843
000210 55 2e ca bc ef 94 83 bd 8d 5a 4c bd e8 db 36 bd
       -0.024680296 -0.06424891 -0.049891043 -0.044643313
000220 9f 99 7a bd 5a 22 50 bd df fd 51 bc 19 b3 0c bd
       -0.06118166 -0.05081401 -0.012816875 -0.03435049
000230 da 7f 41 bc c4 4e 18 bd 93 66 78 bd 7c a9 e8 bc
       -0.011810267 -0.03718449 -0.060644697 -0.028401129
000240 2c fa 72 bd 9b 9a 9b bd 67 0d 6a bd b5 69 10 bd
       -0.059320614 -0.07597848 -0.057141688 -0.03525706
000250 40 ad 1d bd 33 d6 a1 bd 7b 46 46 bd b6 fe 5c bd
       -0.038495302 -0.079021834 -0.04840706 -0.05395385
000260 df dc df bc 94 1b 5b bd 09 fd 34 bd 53 a9 39 bd
       -0.027327 -0.053493097 -0.044186626 -0.045327496
000270 0d 8b c9 bd 3d 18 80 bd 57 ac 46 bd a6 28 85 bc
       -0.09840975 -0.06254623 -0.0485042 -0.016254734
000280 85 02 10 bd 67 49 1b bd 0e b3 57 bd 7f 81 18 bd
       -0.035158653 -0.0379118 -0.052660994 -0.037232872
000290 36 cb 93 bd 54 93 65 bd 05 f6 88 bd 8f a3 10 bd
       -0.07216494 -0.056048706 -0.066875495 -0.03531223
0002a0 f4 31 fe bc d4 9e 1d bd 1a 14 bf bd 42 63 03 bd
       -0.031029679 -0.03848155 -0.09330006 -0.03207708
0002b0 3b 4d 9b bc a9 ed 65 bd e4 8d 0d bd 6c e5 26 bd
       -0.018957725 -0.056134854 -0.034559146 -0.040746137
0002c0 a6 ac 80 bd 32 a5 f1 bc e6 1d fa bb e9 b1 98 bd
       -0.0628293 -0.029497717 -0.0076329587 -0.07455809
0002d0 d0 68 33 bd 28 e1 ac bc 0d b5 5f bd 3d 8b 8f bc
       -0.04380113 -0.021103457 -0.054616023 -0.017522449
0002e0 41 67 03 bd 80 1e 63 bd d9 14 d9 bc 07 e2 19 bd
       -0.032080892 -0.05544901 -0.026499199 -0.037569072
0002f0 1c ec 94 bd 15 6b dd bc 6d 14 e8 bc a5 2e 59 bd
       -0.07271597 -0.0270286 -0.028330052 -0.053023
000300 75 4f 06 bd 4b 4c b5 bd f5 e8 3a bd 93 ff 2c bd
       -0.03279062 -0.08852442 -0.04563232 -0.042235922
000310 b8 a2 99 bd 97 6f 5a bd bc 19 70 bc f8 07 87 bd
       -0.07501739 -0.053329077 -0.014654573 -0.06593317

gc2.weight f4 [200, 200]
000000 98 4d 95 bd c6 e1 fe 3c 77 8e 1b bd 5a fa a3 bd
       -0.072901905 0.031113517 -0.037977662 -0.08006735
000010 ed e8 d9 bd 50 c5 57 3d 1c 18 1a 3d df 2d cd 3d
       -0.1064013 0.052678406 0.03762065 0.10018515
000020 22 ce 98 3d f0 95 8d bd aa 2d 59 bd 61 1a ec 3d
       0.07461192 -0.06913364 -0.053022064 0.11528469
000030 ff f3 d3 bb 45 8d ab 3d 48 3f d8 3a 2b 85 d7 bb
       -0.0064682956 0.083765544 0.0016498351 -0.006577154
000040 cf 0f 9d bd 11 ff 2d bd 49 b6 6d bd 11 d4 5d 3d
       -0.07669031 -0.04247958 -0.05803517 0.05415732
000050 7c 9a 16 be 5b 39 91 3d e9 94 89 bd 0a 56 e1 3c
       -0.14707369 0.07091018 -0.067178555 0.027506847
000060 40 71 19 3e a1 63 da 3c d1 9b aa 3b f5 1b 12 3d
       0.14984608 0.026658835 0.005206563 0.035671193
000070 d9 70 09 be 6f 43 8f 3d f1 fd 44 bd d2 90 1c bc
       -0.13421954 0.06995284 -0.04809374 -0.009556012
000080 0e 45 48 bd 96 b8 88 bc fd 5b 1f 3d 19 a9 9a 3d
       -0.04889398 -0.01668958 0.038906086 0.07551784
000090 e3 b3 b3 3d 35 09 c0 3d 88 c5 2e 3e 0a 2d 47 bd
       0.08774545 0.09376756 0.1706754 -0.048626937
0000a0 84 30 9f 3d 6e 12 45 3d 76 89 a3 bd 4d 72 ab 3d
       0.077729255 0.04811328 -0.07985203 0.083714105
0000b0 e5 7f 3f 3d 36 a7 e5 bc 18 f2 2f bd 19 af 0b 3d
       0.04675283 -0.028033834 -0.042955488 0.034102533
0000c0 d8 fe d2 bc 0d 96 c2 bd 06 91 b4 bd 1a 66 9e 3d
       -0.025756285 -0.09501276 -0.088167235 0.07734318
0000d0 a7 ff 63 3d 03 71 21 bc 05 9b c8 3d 0d 15 e0 3d
       0.05566373 -0.009853604 0.09795193 0.10941515
0000e0 60 f0 23 bd 7b cc c6 bd df e5 8f bd b5 3f 12 bd
       -0.04002416 -0.0970697 -0.07026266 -0.035705287
0000f0 3b 57 e0 bc 2f 92 78 bd ac 0f 72 bd e7 be c7 3c
       -0.027385345 -0.060686287 -0.059096977 0.024383022
000100 64 0f e1 bb 77 53 0c 3e 73 83 26 bd 9d ab 63 bd
       -0.00686829 0.13703714 -0.040652703 -0.055583585
000110 da 62 0b bc 57 a3 02 3e a9 7f 88 bc c2 63 80 bc
       -0.008507455 0.12757622 -0.016662436 -0.015672568
000120 21 b4 a1 bd 79 4a 38 3c 18 38 1d 3e b9 9f 81 3d
       -0.07895685 0.011248224 0.1535343 0.06329293
000130 79 bb dd bc c2 af 08 be 2c 3f 82 bd ff d8 9a 3d
       -0.027066933 -0.13348296 -0.06359705 0.0756092
000140 9b a5 21 3e 4a cd df bb 3c be ca 3d 8c bd 1d 3d
       0.1578583 -0.0068298923 0.098995656 0.038510844
000150 59 4e 92 bd 21 34 dd bd 88 1b 25 3d 43 87 5a 3d
       -0.0714385 -0.108009584 0.04030946 0.053351652
000160 e9 61 a4 bc 06 00 86 bd b0 23 8b 3e 9d a9 da bc
       -0.020066218 -0.06542973 0.27175665 -0.026692206
000170 ba cc 28 be 5f 66 cd bc 17 d7 be bd 32 da d4 3c
       -0.16484347 -0.025073228 -0.09318369 0.02598295
000180 d2 32 71 bb 50 d1 a2 3d 26 2b 81 3c f5 96 d3 bd
       -0.0036803973 0.079500794 0.015767645 -0.10331527
000190 47 a4 ba bc 4c 75 5d bd 8f b6 d1 3d 03 cf b4 3d
       -0.022783412 -0.05406694 0.102398984 0.08828547
0001a0 cc 36 4f bb 21 69 47 bd a4 8d 4c 3d 29 f7 cf bd
       -0.0031618355 -0.048684243 0.049939767 -0.10154564
0001b0 68 e6 0a bd de cb d6 bc 5b 93 fc bd 74 38 b4 bd
       -0.03391114 -0.026220258 -0.12332793 -0.0879983
0001c0 04 a8 03 be c4 ca 5c 3d 20 9d 37 3d 77 9f 23 3e
       -0.12857062 0.05390431 0.04482758 0.159788
0001d0 1e f2 3e bd a8 c8 2c 3c 0f 53 0b be c7 d6 90 3a
       -0.04661762 0.010545887 -0.13605903 0.0011050337
0001e0 cf ba 61 bd b3 33 85 3d c9 ae 2a bd 43 c2 fb 3d
       -0.055109795 0.065040015 -0.041670594 0.12292912
0001f0 74 7a 41 bc 39 f0 82 bc 38 2c 13 bc a3 53 41 bd
       -0.01180898 -0.015983688 -0.008982711 -0.047198903
000200 a6 40 2d 3d c1 c7 6c 3d d1 49 2c bd f1 17 91 3c
       0.04229798 0.057807688 -0.042062584 0.017711611
000210 fb df 9a bd 05 e6 ad 3c 09 60 9e 3c 22 01 f5 bd
       -0.07562252 0.021227846 0.019332903 -0.11963107
000220 d0 6f 0c bd 1a ce 7a 3d 17 77 39 bc bf 3c 05 bd
       -0.03428632 0.06123171 -0.011319897 -0.032528635
000230 9d 47 13 bd 4e 62 a3 bd 87 07 33 3d 94 fc 67 3d
       -0.035956968 -0.079777345 0.04370835 0.05663736
000240 f4 a4 81 3c 13 17 cf bd 2b 27 b9 3d 42 a1 d8 bd
       0.015825726 -0.10111823 0.09040674 -0.105776325
000250 b2 03 23 3e e4 9a 24 be 91 46 04 be d4 32 9b bd
       0.15919378 -0.16074711 -0.12917544 -0.07578054
000260 5c 14 32 3d 32 92 57 bd d6 d1 26 bc c4 6d 34 3d
       0.043476447 -0.052629657 -0.010181865 0.044049993
000270 23 c0 1b be 69 92 3f bb 5c f6 71 3d 3d dc 65 bd
       -0.15210013 -0.0029231554 0.059072837 -0.05611824
000280 20 22 3f bd eb 67 0e 3e 9c 48 ed bb a4 f9 23 3b
       -0.046663404 0.13906829 -0.0072413217 0.0025020624
000290 ad 25 3d 3c fc 07 d9 bd df 7d b3 bd 3f 6b 04 be
       0.011544627 -0.10597226 -0.087642424 -0.12931536
0002a0 00 fe a2 bd 6c 07 7e 3d a4 41 b5 3d 43 30 2d 3e
       -0.07958603 0.062018797 0.088504106 0.16912942
0002b0 c2 a7 9f bc 67 7f f0 bd 32 89 c0 bd eb b3 ae bd
       -0.019489173 -0.1174305 -0.09401168 -0.085304104
0002c0 87 f0 2a bc d7 88 8f bc bf 33 3d bb 4e e8 cf bc
       -0.010433323 -0.017521305 -0.0028869954 -0.025379326
0002d0 4b cd e0 bc 6e b2 65 be 62 f2 f3 3b 6b 2f e6 3d
       -0.027441641 -0.22431347 0.007444666 0.11239513
0002e0 fc a5 1b 3d 03 59 c0 3c ef 2b 28 3d 9b 0e 0e 3e
       0.038000092 0.023479944 0.041057523 0.13872759
0002f0 13 bb ea 3c 9d 5b b1 bd fc 45 d8 3c 43 bd 51 bd
       0.028653657 -0.08660052 0.026400559 -0.051205885
000300 00 f9 86 3d 88 c2 cf 3d a6 d0 b9 3c 55 4a 06 3d
       0.06590462 0.10144526 0.0226825 0.032785732
000310 83 47 03 3e ce a8 29 3e 03 2b a7 bd 31 1e 98 bd
       0.12820248 0.165683 -0.08162501 -0.074276336
000320 ac c8 63 3c 1f a6 cb bd 28 96 04 3d c5 73 2d 3d
       0.013902824 -0.099437945 0.032369763 0.042346735
000330 15 0f 0a bd f0 51 07 3d f3 07 8f bd 4d cb c3 3d
       -0.03370579 0.033037126 -0.06983938 0.09560261
000340 2a d3 32 3e df 1e 5c bd d7 97 4f bc 47 76 a1 bd
       0.17463365 -0.05374038 -0.012670479 -0.07883888
000350 c8 a2 c9 bd 17 53 d7 bc 9d 85 5c bd e0 03 a6 bd
       -0.09845501 -0.026284738 -0.05383836 -0.08106208
000360 ce 2a 54 bd 9f 4a 59 3d d3 96 42 bc 22 31 42 3d
       -0.051798634 0.05304968 -0.01187678 0.047410138
000370 04 d1 08 be 19 e2 d7 bd 2c 9f 19 3c f1 90 7d bd
       -0.13360983 -0.105411716 0.009376328 -0.061905805
000380 a2 32 79 bd e4 0d 54 3e 59 f5 01 3d 21 c0 db bc
       -0.060839303 0.20708424 0.031728122 -0.026825013
000390 50 38 09 be 09 bb 98 3d 90 08 51 be 4a 17 26 38
       -0.13400388 0.07457549 -0.20413423 3.9599174e-05
0003a0 29 cd 85 bc 9a 59 a1 3d 94 fc 28 bd 75 d5 8a bd
       -0.01633318 0.07878418 -0.041256502 -0.06778995
0003b0 06 e0 5d bd fb 6c 1e 3d 65 a8 ea 3d 16 a6 b0 bb
       -0.054168724 0.03867815 0.114579 -0.0053908927
0003c0 ee 61 00 be 2d 5c 14 be 5c ca 85 3c fb 8a 04 be
       -0.12537357 -0.14488287 0.016331844 -0.12943642
0003d0 02 d6 7b bd 9b 99 0c 3c a8 b4 fb bb a9 ea ad 3c
       -0.06148339 0.008581544 -0.007681448 0.021230059
0003e0 79 af 86 3b 21 51 9d 3a 54 7a ea 3c 47 af cc bd
       0.0041102734 0.0012002328 0.028622784 -0.09994369
0003f0 48 81 e7 bd 1f 48 0d bd 4a f3 f2 bd df 00 d6 bd
       -0.11303955 -0.03449261 -0.1186281 -0.10449385

gc2.bias f4 [200]
000000 56 9b 35 bc fb c2 e4 3c d9 b7 f9 3b 47 bc a2 bb
       -0.011084398 0.027925005 0.0076207933 -0.004966292
000010 a9 5b d6 3c b4 17 c4 3b 8e ad 2c 3c 36 78 9f 3c
       0.026166754 0.005984271 0.010539426 0.0194665
000020 77 af f9 3c fa 89 92 bb 44 7b 42 bc 5f 49 5a 3c
       0.030479176 -0.0044720145 -0.011870209 0.013323157
000030 27 fe 83 3c df 23 cd 3c 15 2e 00 bd d6 44 99 bb
       0.0161124 0.025041519 -0.031293947 -0.0046773953
000040 d0 6a 5a bd 62 a7 0a bc df bd 41 bb fc 8b f1 bb
       -0.05332452 -0.008462759 -0.0029562635 -0.0073714238
000050 e7 dc fa 3b 27 a1 31 3d e7 2b 3c 3a e8 c1 81 b9
       0.007655728 0.043366577 0.0007178173 -0.0002474927
000060 4e 24 33 bd 91 66 c2 3c 9d b5 c4 bc 3c 83 0f bd
       -0.043735795 0.023730548 -0.024012381 -0.035037264
000070 6d 4b 48 ba e0 2c 92 3c ec 26 57 3c 7c 7a f9 3c
       -0.0007640634 0.017843664 0.013131838 0.030453913
000080 c3 ad 1c 3b 84 ab cf bb d5 06 21 bc 9d c1 90 3c
       0.002390728 -0.006337585 -0.009828289 0.017670447
000090 42 cd af bb 13 29 b9 bc 47 13 7b 3b bf 50 09 bc
       -0.005365045 -0.022602594 0.003831105 -0.008381068
0000a0 e6 2b 0f bc e4 87 f5 3b 9d 1d fc ba 36 19 3d 3b
       -0.008738494 0.007493006 -0.00192349 0.0028854138
0000b0 c3 8d 01 3d 23 cb bb bc d3 fb 00 bd 99 74 e1 bc
       0.031629335 -0.022924012 -0.03149016 -0.027521418
0000c0 98 14 8f 3c b4 6e 49 3c 84 47 a6 bc 5e 2a d8 3b
       0.017465875 0.01229446 -0.020297773 0.0065968474
0000d0 8e 34 11 3c 50 59 1b 3b 89 ca 1a ba 07 44 08 bc
       0.008862628 0.0023704357 -0.0005904814 -0.008317
0000e0 94 ab a7 bc a1 94 e2 bc 66 4a ca bc 97 dd 83 3b
       -0.020467557 -0.027658762 -0.024693679 0.0040242183
0000f0 30 9c b6 3c f7 d6 cd 3b 05 fe 37 ba 8f 56 28 bc
       0.022291273 0.0062817293 -0.0007018748 -0.010274543
000100 11 dc a0 bb 81 cc 14 3d 23 61 ec b8 db 87 86 bc
       -0.0049090465 0.036327843 -0.0001127145 -0.016422203
000110 d6 df 0b bc e8 76 92 bc 8b 8d 25 bb 25 73 c8 bc
       -0.008537253 -0.017878965 -0.0025261368 -0.024468968
000120 8c 2f 57 3c 6e 58 df 3a 54 81 12 3a ee 75 61 bb
       0.013133895 0.0017039904 0.00055887294 -0.0034402567
000130 6b 1a 3d bc ef 02 cd bc bf 55 e1 bb f6 92 b5 bc
       -0.011541943 -0.025025813 -0.006876677 -0.022164803
000140 cc de 09 3c ec 48 61 3b 4c 4d a2 bc ee a3 52 bd
       0.008414935 0.003437574 -0.019812249 -0.051425867
000150 ef 1e 97 bb 40 b1 5a 3d 12 84 11 3c c9 5e c2 3c
       -0.004611842 0.053391695 0.008881586 0.023726838
000160 a3 39 a9 bc f9 27 53 3c b9 9d ce 3c 8d 4c ae 3b
       -0.020657366 0.012887948 0.025221692 0.005319184
000170 2d f9 01 3c da a7 ac bb c3 bf e1 bb 05 82 e9 bc
       0.007932943 -0.005269033 -0.006889315 -0.028504381
000180 d2 f5 70 bc 49 18 f9 bb 1a 8d 95 3c 70 3c 8f bc
       -0.014707046 -0.007601772 0.018255759 -0.017484874
000190 fb 7f c9 3c 40 fd bc bb 5c 46 c0 bc 5c 67 97 3b
       0.024597159 -0.0057674944 -0.02347105 0.0046204757
0001a0 28 55 10 3b bf a2 80 3c d5 3f 3f 3c 15 fa 15 bd
       0.0022023413 0.015702603 0.011672934 -0.03661545
0001b0 05 ae 61 38 25 5c d7 3c cf 33 99 bb d6 4c 2d b9
       5.380625e-05 0.026289055 -0.0046753655 -0.0001652719
0001c0 fd b6 72 3c 8b 82 03 3c 4a fe 2d bd 29 df d4 3c
       0.014814136 0.008026729 -0.042478837 0.025985317
0001d0 bb 6d 08 3c 38 f5 92 bc 66 8c d7 bc 71 dc 46 3c
       0.008326943 -0.017939195 -0.026312064 0.012137518
0001e0 ee 49 a2 bc 68 0c b1 bc 67 ea 34 bb ad 74 16 bb
       -0.019810643 -0.021612361 -0.0027605535 -0.0022957728
0001f0 18 c6 94 bc 8c f4 66 bc 16 a2 ac bc 9a aa 9c 3c
       -0.018160865 -0.01409639 -0.021073382 0.019124318
000200 be 12 1a 3c c2 37 50 b9 1f 2a b1 bb 0d e1 0c 3c
       0.009403883 -0.00019857197 -0.0054066326 0.008598578
000210 b4 66 b8 3c b3 cd 4d bc ce 0d db 3c 11 1a 98 bc
       0.02250991 -0.01256125 0.026739981 -0.018567117
000220 9f b6 9a bb 6b a2 b0 3b fa f8 5d 3c b0 0f f5 ba
       -0.004721477 0.0053904555 0.01354813 -0.0018696692
000230 2a 39 84 3c f5 79 e8 3b 8d a5 3c bb 95 e3 53 3b
       0.01614054 0.0070946165 -0.00287852 0.0032331694
000240 45 a2 c5 ba 0d ff e9 3b 51 9c e8 bb 04 ce f0 bc
       -0.0015078267 0.007141 -0.0070987125 -0.02939511
000250 20 9b ad 3c 80 a0 94 ba e3 0e 2d 3d 15 90 ea bb
       0.021192133 -0.0011339337 0.042250525 -0.007158289
000260 72 dd 04 3c 65 b4 b9 bb a9 c6 2a bd 40 94 3e bc
       0.008109437 -0.0056672567 -0.041693363 -0.011632025
000270 b6 29 2e 3d 18 f4 70 bc 5d b9 9c 3b 39 17 b0 3b
       0.042520247 -0.014706634 0.004782839 0.005373862
000280 19 78 07 bc 47 21 42 bc 54 fe de 3c 95 8c 3e ba
       -0.00826838 -0.011848754 0.027220882 -0.0007268873
000290 80 4b 2d 3b 67 48 7b 3c c7 04 e0 3b 3f 9f 66 ba
       0.0026442707 0.015337086 0.006836507 -0.0008797533
0002a0 ce 77 1b bb bf 28 6a bc 6e 14 ea bc f3 10 2e 3b
       -0.0023722532 -0.014291941 -0.028574195 0.0026560395
0002b0 f1 55 16 bc 5c 44 59 bc 84 a5 6c 3a 14 87 e9 3b
       -0.009175763 -0.013260927 0.00090273493 0.0071266983
0002c0 2e 93 b2 bc 3b ef 0d 3b 08 d6 89 3c 05 c4 4f bc
       -0.021798696 0.0021657485 0.01682569 -0.012681012
0002d0 11 7e 04 bc cb ae 36 bc 3f 1e c2 bc 97 02 8d bc
       -0.008086697 -0.011150072 -0.023696063 -0.017213149
0002e0 57 78 bd ba f1 51 14 bb eb 95 9c bc a2 1d 05 bd
       -0.001445542 -0.0022631849 -0.019114455 -0.032498963
0002f0 32 ff 80 3c 7a fd 97 bc a5 cb c0 3b 9c 48 8a bc
       0.015746687 -0.018553484 0.0058836513 -0.016880326
000300 39 87 86 ba cc fa 4f 3c 19 77 ce bb ca 0d cf ba
       -0.0010263688 0.012694072 -0.0063008186 -0.0015796956
000310 36 32 86 3c 11 29 bf bc e1 b5 de bb a1 f2 b8 bb
       0.016381364 -0.023335012 -0.006796584 -0.005644158

gc3.weight f4 [200, 100]
000000 f8 11 6a bd a6 3c a9 bd 86 d2 b0 bd c7 4c 2a 3e
       -0.057146043 -0.08263521 -0.08633904 0.1663085
000010 61 46 e1 bc 8c c9 7e 3d 2d 38 08 bd e6 e7 95 bd
       -0.02749938 0.06220393 -0.0332567 -0.07319622
000020 e6 cc 7a bd fb 96 84 bd 59 4c fa 3a de 96 bb bc
       -0.061230563 -0.0647411 0.001909624 -0.022899088
000030 c2 20 74 3c ec a5 b2 3d 94 44 ad bd b2 c8 4a be
       0.014900388 0.08723053 -0.08460346 -0.19803122
000040 74 a2 61 bd 13 15 86 3d c4 e0 45 3e dc d9 ac ba
       -0.055086568 0.06546988 0.19324023 -0.0013187486
000050 7b 9c 1d bd f7 5b 80 3d 06 9c 91 3d 67 89 94 bd
       -0.03847931 0.06267541 0.07109837 -0.0725277
000060 8d e3 47 bd 1d 42 0a be 95 88 13 be 01 4c 91 bd
       -0.048800994 -0.13501783 -0.1440757 -0.07094575
000070 28 88 fa bc fd 05 96 3c d3 5b 34 bd 57 04 f6 3b
       -0.030582502 0.018313402 -0.044032883 0.0075078416
000080 77 f9 36 be da 27 01 3d 92 be 16 bd 0c c7 57 3d
       -0.17868601 0.031532146 -0.036802836 0.05268006
000090 5a f6 a7 bd 23 9a 21 be 89 85 35 bd 94 bc cc 3d
       -0.08201285 -0.15781455 -0.044316802 0.09996906
0000a0 81 01 05 3d 85 1a 36 bd 73 10 80 bd 26 ab c5 bd
       0.032472137 -0.044458885 -0.062531374 -0.096517846
0000b0 6a 89 0d bd 58 9a c0 3d cb cb 9d bc 72 54 b4 3d
       -0.034554876 0.09404439 -0.019262215 0.08805169
0000c0 28 ca 36 bc 57 f0 68 3b 48 90 c3 3d af db 04 3e
       -0.011156596 0.0035543644 0.09549004 0.12974428
0000d0 37 d7 33 bd 98 47 d2 bb 87 65 2a be 8a c7 db bb
       -0.043906417 -0.006417226 -0.16640292 -0.0067071365
0000e0 5e ce e9 3d 7e 70 b9 bc f1 0f ac 3d a8 35 5f 3c
       0.114163145 -0.022636648 0.08401478 0.0136236325
0000f0 a4 6d e1 3d dc 36 0e bd 6f 2e c9 bd 4c b0 06 3e
       0.110072404 -0.034720287 -0.0982331 0.1315319
000100 17 9b 34 3d 4d 9b 8e bd 15 19 c0 3b 90 b0 a4 3d
       0.044093218 -0.06963215 0.005862365 0.08041489
000110 d8 27 5c bd fd 5e 65 3d 5a c8 f1 3d 83 7f 23 bd
       -0.053748935 0.05599879 0.11805792 -0.039916527
000120 7c 4b 8a 3b 8c 2c 98 3d d6 21 a8 bd fa 85 4f bd
       0.004220424 0.07430372 -0.08209579 -0.05066488
000130 f6 d5 f6 3c c4 10 01 bc 54 39 2c 3e 7d aa c1 bb
       0.030131321 -0.007877532 0.16818744 -0.0059102164
000140 2e 6f 0b 3e 55 58 00 3e 40 c4 8b 3d 1f ab 08 be
       0.1361663 0.12533696 0.06824541 -0.13346528
000150 83 f3 78 bd 0b 63 74 3e 24 70 93 bb 36 8b e9 3d
       -0.060779106 0.23865907 -0.004499452 0.114035055
000160 ed f4 42 bd 7c 1e aa bd df 87 07 bd 99 39 c0 3d
       -0.04759686 -0.08306596 -0.03308856 0.09385986
000170 e5 f1 97 bd 1e e7 a7 3d eb e7 59 3d e1 82 5e 3e
       -0.074191846 0.08198379 0.05319969 0.21729614
000180 5b cc 19 3e ea 5d 4a be 28 a9 c6 3d 97 f1 40 3d
       0.15019362 -0.19762388 0.09700233 0.047105398
000190 56 db 3b be aa 8f e5 3d d7 7f 33 bd e3 b3 24 3d
       -0.18345389 0.11209042 -0.04382309 0.040210616
0001a0 cf da 4b 3d b5 da b8 bd 9c ef db bd 37 ee 09 3c
       0.04976922 -0.0902609 -0.10739061 0.008418611
0001b0 8d b9 f9 bc 82 c4 28 3d 37 84 74 3c dd 0b 26 bd
       -0.030483985 0.04120303 0.014924101 -0.040538657
0001c0 42 b4 d8 bd eb 12 31 3d 97 a7 ed 3c 7f 04 bf 3d
       -0.105812564 0.043230932 0.029010577 0.093270294
0001d0 e9 2f c1 3c 7d e6 32 3d 50 39 9e 3d b7 b9 64 bd
       0.023582416 0.043676842 0.07725775 -0.055841174
0001e0 f8 eb 45 bd 55 82 01 be 66 46 1d bd 89 0a d5 3d
       -0.04832074 -0.12647374 -0.038397215 0.104024
0001f0 93 ff dd bd 3d 37 ee bc 49 84 1e bc fb 12 ac bd
       -0.108397625 -0.029079074 -0.009675094 -0.08402058
000200 9f 7f 98 bd 96 27 9f bc b2 00 39 bd f7 51 6e 3d
       -0.07446217 -0.019428056 -0.04516668 0.058183637
000210 da 0c bd bc 36 ce 0c 3d 39 4d 2f 3c da 76 1f be
       -0.023077417 0.034376346 0.010699564 -0.15572682
000220 09 20 76 3d be a9 34 bd 9c f8 a8 3d ea 8c db 3d
       0.060089145 -0.04410719 0.082505435 0.107202366
000230 a3 34 a7 bc 48 5b 9b 3d 14 2f 6d 39 ee 3d 85 bd
       -0.020410841 0.0758577 0.00022619619 -0.06505953
000240 ac 2f c0 3c 2e 25 e9 3d 28 c1 2b 3d 6d 9b 3e be
       0.023460232 0.113840446 0.041932255 -0.18613978
000250 41 36 b1 bd 81 73 99 3c b3 fa 5d bd d1 22 a4 3c
       -0.08652926 0.018731834 -0.054194164 0.020036133
000260 94 b6 ef bc b7 d9 76 bd 9f d4 98 3d 7c e8 22 3c
       -0.029261865 -0.060266223 0.07462429 0.009943124
000270 37 82 3b bd e2 a6 08 bd 90 ef da 3d b5 13 9c 3d
       -0.04577848 -0.033362277 0.10690224 0.07620946
000280 39 fe c2 3d 4c 75 58 3c c5 62 e1 3d db f5 76 bd
       0.095211454 0.0132115595 0.11005167 -0.06029306
000290 dc f9 c0 3d 4c 48 48 3d 58 74 66 3d 3c 4e a1 bc
       0.09422657 0.048897073 0.056263298 -0.019690625
0002a0 e5 5e 09 3d 54 33 3c be 5f af 96 bd 4c 4a ef bc
       0.033537764 -0.18378955 -0.07357668 -0.029210232
0002b0 98 c3 96 bc f0 95 a2 bd 01 0d fc 3c aa 40 36 be
       -0.018403813 -0.079387546 0.03076792 -0.17798105
0002c0 8c db 04 be 02 c4 11 3c a2 d4 29 bd 23 a2 41 3d
       -0.12974375 0.00889683 -0.041462548 0.047273766
0002d0 38 38 92 3c ba e5 e5 3c cf 62 78 bd 23 e7 9b 3d
       0.017849073 0.028063644 -0.060641106 0.07612445
0002e0 4d 25 55 3d b1 dc 28 bd 35 00 20 be 1c 51 57 3e
       0.052037526 -0.041226093 -0.15625079 0.21027035
0002f0 17 ba d4 bc eb c4 c5 bd 66 70 f0 3d f3 cb 43 bd
       -0.02596764 -0.096567 0.11740188 -0.047801923
000300 05 ce 89 3d b1 4a 38 be 1e 54 02 be f8 95 4e bd
       0.06728748 -0.17997243 -0.127274 -0.05043599
000310 5d 8d 73 be 36 2a 08 3d 6b bd 67 bd 38 75 cc bd
       -0.23784395 0.03324338 -0.056577127 -0.09983295
000320 b4 24 60 3c b0 18 ad 3d 83 f6 71 bd 16 e4 70 bd
       0.013680626 0.084519744 -0.059072983 -0.05881127
000330 7c c4 b6 bd 78 41 e5 3d 4b 63 e6 bd 93 67 a0 bd
       -0.08924195 0.11194128 -0.112494074 -0.07832255
000340 20 f1 7a 3d 1c 5c 04 bd 75 c2 56 bd 46 b3 ae 3d
       0.06126511 -0.032314405 -0.052431542 0.085302874
000350 0c 92 29 3b 2b 6e 22 3d ce 24 78 bd a1 b6 8a 3d
       0.0025874404 0.039655846 -0.060581975 0.06773115
000360 24 78 1a bc a9 24 79 3d b4 99 c6 3c f6 e9 09 3c
       -0.009428058 0.060825977 0.024243213 0.008417597
000370 66 35 9b 3d bc 18 e2 3d d2 cd 19 3d 9c 5c b6 3d
       0.07578544 0.11039874 0.0375498 0.089043826
000380 cd 03 be bd 96 36 09 3d b6 b5 ba 3c 86 e7 61 bc
       -0.09278069 0.033499323 0.022791725 -0.01378811
000390 f8 85 c8 bc a5 11 0e bd 30 9c 02 be 6b 31 ae bd
       -0.024477944 -0.034684796 -0.12754893 -0.085055195
0003a0 03 68 ca bc eb 48 8e bd 35 a6 0d 3c 29 9c 6b 3d
       -0.0247078 -0.06947502 0.008645584 0.057521973
0003b0 f7 c5 9f bd 7d 34 a9 3a 64 a3 fb bd 82 e1 8e bd
       -0.07801431 0.001290932 -0.12287024 -0.06976606
0003c0 f9 d0 23 bd 54 46 4a 3e 8b 8d 01 be e7 48 b9 3c
       -0.039994214 0.1975339 -0.1265165 0.02261777
0003d0 e0 4e 12 3e f8 f7 9d 3d a5 ca 3f 3d 0d 33 86 3c
       0.14287901 0.07713312 0.046824116 0.016381765
0003e0 97 95 76 3d 3d ac 34 3e d9 51 d5 3d f0 6a c9 3d
       0.060201254 0.17643829 0.10416002 0.0983485
0003f0 59 81 77 bd de 6c 4c 3d f6 2f 19 3a 27 c2 ff 3c
       -0.06042609 0.04990851 0.00058436336 0.031220509

gc3.bias f4 [100]
000000 2c 10 b5 3c da 27 c6 3a cb 2b 96 bc fd b1 92 3c
       0.022102438 0.0015118078 -0.018331429 0.017907137
000010 b1 4e 22 bc c2 94 66 ba 61 7f aa 3c fa bb 38 bb
       -0.009906457 -0.00087959704 0.020812692 -0.0028188215
000020 5c 13 84 bb e7 e0 a8 3c 89 60 2f bd 55 dd d3 bc
       -0.004030628 0.020615054 -0.042816672 -0.025862375
000030 1d f3 d0 3b 0e 50 cb 3b df b0 58 bb 3a d9 40 bc
       0.0063766376 0.0062046116 -0.0033064408 -0.011770541
000040 f7 da 33 bc 1f 95 64 bc 8a 18 85 bc a5 75 a2 bb
       -0.010977498 -0.013951569 -0.016247053 -0.004957872
000050 a1 63 6d 3c fb 89 cb 3b 5c ae 10 bc cd 35 47 3b
       0.014489085 0.006211517 -0.008830633 0.0030397058
000060 ca b7 06 bd f1 2b f0 bc 39 90 57 bc 16 b3 90 3c
       -0.03289012 -0.029317828 -0.013156944 0.01766352
000070 29 22 30 bc ed e8 d8 ba ac 34 34 3c 54 0c b7 bc
       -0.010750332 -0.001654891 0.010998886 -0.022344746
000080 7f 7a 5a bc 4e a6 fd 3b 50 0a 56 bc c2 7d ac 3c
       -0.013334869 0.0077407723 -0.013063982 0.02105606
000090 86 68 ae bc f0 ca ce 3c fd c7 37 bc 31 3d 16 bc
       -0.021290075 0.025243253 -0.0112171145 -0.009169863
0000a0 99 6b b0 3b f5 99 7b 3c 03 98 cd 3b 33 35 3f bc
       0.0053839204 0.01535653 0.0062742247 -0.0116703985
0000b0 0b c2 2a bb 08 3b 5b 3b 78 27 b8 bb 61 c8 14 3b
       -0.00260556 0.0033451933 -0.0056199394 0.0022702443
0000c0 25 35 a4 bb 7d 08 e1 bc 42 40 01 3d 49 99 87 bc
       -0.005011218 -0.027469868 0.03155542 -0.016552584
0000d0 16 92 c8 3a 27 cb 85 bc ac 6d aa ba 8c 79 e9 3a
       0.0015302326 -0.016332222 -0.0013002655 0.0017812713
0000e0 4c 60 10 bc 8b fc d7 3c 15 0a c3 bb 1f 33 c7 3b
       -0.008812021 0.026365539 -0.0059521296 0.006079092
0000f0 ad ac 44 3c 73 28 04 3c ad f6 d4 bc e0 18 89 bc
       0.01200406 0.0080662845 -0.02599653 -0.016735494
000100 65 f4 34 bb 27 9d ef bc f1 0b 94 bb c9 52 ff 3c
       -0.002761149 -0.02924974 -0.004518025 0.031167405
000110 e0 70 b4 bc 42 c3 1c 3c 6f 4e b7 bc 34 57 02 bc
       -0.02202648 0.009568037 -0.022376267 -0.007955361
000120 a3 98 6e ba f9 0b c4 bc 52 2e 9a bc aa f9 92 bb
       -0.0009101724 -0.02393149 -0.018820915 -0.0044853287
000130 3f 52 95 3c 86 f7 fb bb 70 df ca 3a dd d6 b4 3b
       0.018227695 -0.007689419 0.0015477967 0.0055187778
000140 18 c8 11 3b 38 c2 a6 3c 7e 16 f8 39 a9 99 ff 3c
       0.002224451 0.020356283 0.00047319004 0.0312012
000150 a6 d1 a8 bc 85 48 17 bc 67 bb f8 39 f4 bc 8f bc
       -0.02060778 -0.009233599 0.00047441872 -0.017546155
000160 c5 16 22 bc 0f c5 bf 3c 88 87 a1 bb 91 51 2b 3c
       -0.009893124 0.023409395 -0.0049294867 0.010456459
000170 cf 57 38 3c de 34 17 3d 95 0d 56 bc d5 7d dc bc
       0.011251404 0.036915652 -0.013064762 -0.02691547
000180 2d bf 78 bb a6 1e 8a bc d4 26 c3 bc 3c e4 86 bc
       -0.0037955747 -0.016860317 -0.023822226 -0.016466253
